(this["webpackJsonplms-front-user"]=this["webpackJsonplms-front-user"]||[]).push([[0],{1630:function(e,n){},1661:function(e,n,t){"use strict";t.r(n);var i=t(2),a=t.n(i),r=t(67),c=t.n(r),s=t(1),o=t(56),l=t.n(o),d=t(1782),b=t(8),m=t(30);const j="\u4f8d\u30c6\u30e9\u30b3\u30e4",u="\u4f8d\u30c6\u30e9\u30b3\u30e4\uff08SAMURAI TERAKOYA\uff09",A="\u30d7\u30ed\u30b0\u30e9\u30df\u30f3\u30b0\u5b66\u7fd2\u30b5\u30a4\u30c8\u3010\u4f8d\u30c6\u30e9\u30b3\u30e4\u3011",h="".concat(j," | ").concat("\u30bc\u30ed\u304b\u3089\u59cb\u3081\u308b\u5b9a\u984d\u30fb\u5b66\u3073\u653e\u984c\u306e\u30d7\u30ed\u30b0\u30e9\u30df\u30f3\u30b0\u5b66\u7fd2\u30b5\u30a4\u30c8"),p="".concat(j,"\u306f\u3001\u30bc\u30ed\u304b\u3089\u59cb\u3081\u3089\u308c\u308b\u5b9a\u984d\u30fb\u5b66\u3073\u653e\u984c\u306e\u30d7\u30ed\u30b0\u30e9\u30df\u30f3\u30b0\u5b66\u7fd2\u30b5\u30a4\u30c8\u3067\u3059\u3002\u5165\u9580\u8005\u3084\u521d\u5fc3\u8005\u3067\u3082\u5b66\u3079\u308b\u6559\u6750\u3001\u5b9f\u8df5\u529b\u304c\u935b\u3048\u3089\u308c\u308b\u8ab2\u984c\u3001\u73fe\u5f79\u30a8\u30f3\u30b8\u30cb\u30a2\u306b\u76f8\u8ac7\u3067\u304d\u308b\u30ec\u30c3\u30b9\u30f3\u30fbQ&A\u63b2\u793a\u677f\u3001\u5b66\u7fd2\u3092\u8a18\u9332\u3059\u308b\u5b66\u7fd2\u30ed\u30b0\u306a\u3069\u3001\u30a8\u30f3\u30b8\u30cb\u30a2\u306b\u306a\u308b\u305f\u3081\u306e\u6a5f\u80fd\u304c\u76db\u308a\u6ca2\u5c71\uff01");var g=t(0);const O={title:h,meta:[{name:"description",content:p},{property:"og:title",content:h},{property:"og:description",content:p}],changeTitle:()=>{},changeMeta:()=>{}},x=a.a.createContext(O),f="RESET",v="CHANGE_TITLE",w="CHANGE_META",C=e=>{const n=(()=>{const e=Object(m.k)().pathname,[n,t]=Object(i.useReducer)(((e,n)=>{switch(n.type){case f:return O;case v:return{...e,title:n.payload};case w:return{...e,meta:n.payload};default:return e}}),O),a=Object(i.useCallback)((e=>{t({type:v,payload:e})}),[]),r=Object(i.useCallback)((e=>{t({type:w,payload:e})}),[]);return Object(i.useLayoutEffect)((()=>{t({type:f})}),[e]),{...n,changeTitle:a,changeMeta:r}})();return Object(g.jsx)(x.Provider,{value:n,children:e.children})},y={isOpen:!1,isHoverOpen:!1,toggle:()=>{},toggleClose:()=>{},toggleHoverOpen:()=>{},toggleHoverClose:()=>{}},V=a.a.createContext(y),k=e=>{const n=(()=>{const[e,n]=Object(i.useReducer)(((e,n)=>{switch(n){case"toggle":return!e;case"close":return!1;case"open":return!0}}),window.innerWidth>950),[t,a]=Object(i.useReducer)(((e,n)=>{switch(n){case"toggle":return!e;case"close":return!1;case"open":return!0}}),!0);return{isOpen:e,isHoverOpen:t,toggle:Object(i.useCallback)((()=>{n("toggle")}),[]),toggleClose:Object(i.useCallback)((()=>{n("close")}),[]),toggleHoverOpen:Object(i.useCallback)((()=>{a("open")}),[]),toggleHoverClose:Object(i.useCallback)((()=>{a("close")}),[])}})();return Object(g.jsx)(V.Provider,{value:n,children:e.children})},S={isOpen:!1,header:null,content:null,setHeader:()=>{},setContent:()=>{},open:()=>{},close:()=>{}},I=a.a.createContext(S),T="SET_HEADER",D="SET_CONTENT",E="OPEN",R="CLOSE",M=e=>{const n=(()=>{const[e,n]=Object(i.useReducer)(((e,n)=>n.type===T?n.payload:e),null),[t,a]=Object(i.useReducer)(((e,n)=>n.type===D?n.payload:e),null),[r,c]=Object(i.useReducer)(((e,n)=>{switch(n.type){case R:return!1;case E:return!0;default:return e}}),!1);return{isOpen:r,header:e,content:t,setHeader:e=>{n({type:T,payload:e})},setContent:e=>{a({type:D,payload:e})},open:()=>{c({type:E})},close:()=>{c({type:R})}}})();return Object(g.jsx)(I.Provider,{value:n,children:e.children})};var z=t(125),B=t(540),L=t(1755),N=t(548),P=t(727),U=t(547),F=t(1789),q=t(1757),Q=t(1753),H=t.n(Q),G=t(730),Y=t(736),K=t(810),Z=t(1796),J=t(93),W=t(349),X=t(740),_=t(523);const $=()=>({keyArgs:[],merge(e,n){var t,i;return(null===n||void 0===n||null===(t=n.pageInfo)||void 0===t?void 0:t.hasPreviousPage)||(null===n||void 0===n||null===(i=n.adminPageInfo)||void 0===i?void 0:i.hasPreviousPage)?{...n,items:[...e.items,...n.items]}:n}}),ee=({children:e})=>{const n=new Z.a({attempts:{max:1}}).split((({getContext:e})=>{var n;return!!(null===(n=e().headers)||void 0===n?void 0:n.authorization)}),H()({uri:"https://api.lms.sejuku.net/query"}),new B.a({uri:"https://api.lms.sejuku.net/public/query"})),t=Object(G.a)((async(e,{headers:n})=>{try{const e=await K.a.currentSession();return{headers:{...n,authorization:"Bearer ".concat(e.getIdToken().getJwtToken())}}}catch(e){return{headers:n}}})),i=Object(Y.a)((({graphQLErrors:e,networkError:n,operation:t,forward:i})=>{if(n){if(401===n.statusCode)return Object(L.a)(K.a.currentSession().then((e=>e.getIdToken().getJwtToken())).catch((()=>null))).filter((e=>!!e)).flatMap((e=>{const n=t.getContext().headers;return t.setContext({headers:{...n,authorization:"Bearer ".concat(e)}}),i(t)}))}if(e&&(!e[0].extensions||!Object.prototype.hasOwnProperty.call(e[0].extensions,"code"))){const n=new Error("".concat(t.operationName,":").concat(JSON.stringify(e)));z.a(n)}}));let a=0;const r=new X.a(Object(_.createClient)({url:String("wss://api-websocket.lms.sejuku.net/subscriptions"),connectionParams:async()=>{const e=await K.a.currentSession();return{reconnect:!0,authorization:"Bearer ".concat(e.getIdToken().getJwtToken())}},disablePong:!1,keepAlive:12e4,retryAttempts:Number("10"),retryWait:async()=>{await new Promise((e=>{const n=Object(_.createClient)({url:String("wss://api-websocket.lms.sejuku.net/subscriptions"),retryAttempts:0,lazy:!1,on:{closed:()=>e(!1),connected:()=>{e(!0),n.dispose()}}})})),await new Promise((e=>setTimeout(e,Number("20000"))))},on:{connected:()=>{a=0},closed:()=>{a++,a>Number("10")&&alert("\u56de\u7dda\u72b6\u6cc1\u304c\u4e0d\u5b89\u5b9a\u306a\u70ba\u3001\u6642\u9593\u3092\u304a\u3044\u3066\u304b\u3089\u30ea\u30ed\u30fc\u30c9\u3057\u3066\u304f\u3060\u3055\u3044")}}})),c=Object(N.a)((({query:e})=>{const n=Object(J.e)(e);return"OperationDefinition"===n.kind&&"subscription"===n.operation}),r,t.concat(n)),s=new P.a({link:Object(U.a)([i,c]),defaultOptions:{watchQuery:{fetchPolicy:"network-only",nextFetchPolicy:"cache-first"}},cache:new F.a({typePolicies:{Query:{fields:{getTimelinesV1:$(),getTimelinesByUserID:$(),getNotifications:$(),notices:$(),chatRooms:{keyArgs:[],merge(e,n){var t,i;if(!(null===n||void 0===n||null===(t=n.pageInfo)||void 0===t?void 0:t.hasPreviousPage)&&!(null===n||void 0===n||null===(i=n.adminPageInfo)||void 0===i?void 0:i.hasPreviousPage))return n;const a=[...e.items,...n.items],r=Array.from(new Map(a.map((e=>[e.__ref,e]))).values());return{...n,items:r}}},chatMessages:Object(W.c)()}}}})});return Object(g.jsx)(q.a,{client:s,children:e})};var ne=t(3),te=t(741);const ie=1100,ae=1200,re=1300;var ce,se,oe,le;const[de,be]=Object(te.a)((()=>{const[e,n]=a.a.useState([]),t=a.a.useCallback(((t,i)=>{const a={id:e.length,type:t,message:i,lifeTime:0===t?4e3:9999999999},r=e.filter((e=>e.type!==t||e.message!==i));n([a,...r])}),[e]);return{toasts:e,setToasts:n,showToast:t}})),me=({children:e})=>Object(g.jsxs)(de,{children:[e,Object(g.jsx)(pe,{})]}),je=({id:e,type:n,lifeTime:t=2e3,message:i,onHide:r})=>{const c=a.a.useRef(null);return a.a.useEffect((()=>{var n;null===(n=c.current)||void 0===n||n.classList.add("show");const i=setTimeout((()=>{r&&r(e)}),t);return()=>{clearTimeout(i)}}),[e,t,r,n]),Object(g.jsxs)(ue,{ref:c,type:n,children:[Object(g.jsx)(he,{children:i}),1===n&&Object(g.jsx)(Ae,{onClick:()=>r(e),children:"\xd7"})]})},ue=ne.c.div(ce||(ce=Object(s.a)(["\n  display: flex;\n  justify-content: space-between;\n  align-items: center;\n  position: relative;\n  width: 100%;\n  box-sizing: border-box;\n  padding: 0.75rem;\n  background-color: ",";\n  transition: opacity 0.2s;\n  color: #ffffff;\n  border-radius: 4px;\n  opacity: 0;\n\n  &.show {\n    opacity: 1;\n  }\n"])),(e=>1===e.type?"#e2001b":"#009621")),Ae=ne.c.span(se||(se=Object(s.a)(["\n  display: flex;\n  justify-content: flex-end;\n  box-sizing: border-box;\n  font-size: 24px;\n  text-align: center;\n  width: 40px;\n  cursor: pointer;\n"]))),he=ne.c.span(oe||(oe=Object(s.a)([""]))),pe=()=>{const{toasts:e,setToasts:n}=be(),t=a.a.useCallback((t=>{n(e.filter((e=>e.id!==t)))}),[e,n]);return Object(g.jsx)(ge,{children:e.map(((e,n)=>Object(g.jsx)(je,{...e,onHide:t},n)))})},ge=ne.c.div(le||(le=Object(s.a)(["\n  position: fixed;\n  left: 50%;\n  bottom: 0.5rem;\n  transform: translateX(-50%);\n  width: 500px;\n  max-width: calc(100vw - 1rem);\n  z-index: ",";\n\n  & > * + * {\n    margin-top: 0.25rem;\n  }\n"])),1400);var Oe=t(212);const xe=({children:e})=>Object(g.jsx)(Oe.b,{children:Object(g.jsx)(ee,{children:Object(g.jsx)(C,{children:Object(g.jsx)(k,{children:Object(g.jsx)(M,{children:Object(g.jsx)(me,{children:e})})})})})});var fe,ve,we,Ce,ye,Ve,ke,Se,Ie,Te,De,Ee,Re,Me,ze,Be,Le,Ne,Pe,Ue,Fe,qe,Qe,He,Ge,Ye,Ke,Ze,Je,We,Xe,_e,$e,en,nn,tn,an,rn,cn,sn,on,ln,dn,bn,mn,jn,un,An,hn,pn,gn,On,xn,fn,vn,wn,Cn,yn,Vn,kn,Sn,In,Tn,Dn,En,Rn,Mn,zn,Bn,Ln,Nn,Pn,Un,Fn,qn,Qn,Hn,Gn,Yn,Kn,Zn,Jn,Wn,Xn,_n,$n,et,nt,tt,it,at,rt,ct,st,ot,lt,dt,bt,mt,jt,ut,At,ht,pt,gt,Ot,xt,ft,vt,wt,Ct,yt,Vt,kt,St,It,Tt,Dt,Et,Rt,Mt,zt,Bt,Lt,Nt,Pt,Ut,Ft,qt,Qt,Ht,Gt,Yt,Kt,Zt,Jt,Wt,Xt,_t,$t,ei,ni,ti,ii,ai,ri,ci,si,oi,li,di,bi,mi,ji,ui,Ai,hi,pi,gi,Oi,xi,fi,vi,wi,Ci,yi,Vi,ki,Si,Ii,Ti,Di,Ei,Ri,Mi,zi,Bi,Li,Ni,Pi,Ui,Fi,qi,Qi,Hi,Gi,Yi,Ki,Zi,Ji,Wi,Xi,_i,$i,ea,na,ta,ia,aa,ra,ca,sa,oa,la,da,ba,ma,ja,ua,Aa,ha,pa,ga,Oa,xa,fa,va,wa,Ca,ya,Va,ka,Sa,Ia,Ta,Da,Ea,Ra,Ma,za,Ba,La,Na,Pa,Ua,Fa,qa,Qa,Ha,Ga,Ya,Ka,Za,Ja,Wa,Xa,_a,$a,er,nr,tr,ir,ar,rr,cr,sr,or,lr,dr,br,mr,jr,ur,Ar,hr,pr,gr,Or,xr,fr,vr,wr,Cr,yr,Vr,kr,Sr,Ir,Tr,Dr,Er,Rr,Mr,zr,Br,Lr,Nr,Pr,Ur,Fr,qr,Qr,Hr,Gr,Yr,Kr,Zr,Jr,Wr,Xr,_r,$r,ec,nc,tc,ic,ac,rc,cc,sc,oc,lc,dc,bc,mc,jc,uc,Ac,hc,pc,gc,Oc,xc,fc,vc,wc,Cc,yc,Vc,kc,Sc,Ic,Tc,Dc,Ec,Rc,Mc,zc,Bc,Lc,Nc,Pc=t(229),Uc=t(429),Fc=t(207),qc=t(822),Qc=t(1758),Hc=t(1759),Gc=t(1760);const Yc={};let Kc,Zc,Jc,Wc,Xc,_c,$c,es,ns,ts,is,as,rs,cs,ss,os,ls,ds,bs,ms,js,us,As,hs,ps,gs,Os,xs,fs,vs,ws,Cs,ys,Vs,ks,Ss,Is,Ts,Ds,Es,Rs,Ms,zs,Bs,Ls,Ns,Ps,Us,Fs,qs,Qs,Hs,Gs,Ys,Ks,Zs,Js,Ws,Xs,_s,$s,eo,no,to,io,ao,ro,co,so,oo,lo,bo,mo,jo,uo,Ao,ho,po,go,Oo,xo,fo,vo,wo;!function(e){e.Ai="AI",e.Escalation="ESCALATION",e.WaitingToEscalation="WAITING_TO_ESCALATION"}(Kc||(Kc={})),function(e){e.Ai="AI",e.AutoEscalation="AUTO_ESCALATION",e.Escalation="ESCALATION"}(Zc||(Zc={})),function(e){e.Basic="BASIC",e.Light="LIGHT",e.Premium="PREMIUM",e.Public="PUBLIC",e.Registered="REGISTERED"}(Jc||(Jc={})),function(e){e.Pc="PC",e.PcAndSp="PC_AND_SP",e.Sp="SP"}(Wc||(Wc={})),function(e){e.News="NEWS",e.Program="PROGRAM",e.Qa="QA",e.TopRight="TOP_RIGHT",e.TopUpper="TOP_UPPER"}(Xc||(Xc={})),function(e){e.Free="FREE",e.Graduate="GRADUATE",e.Instructor="INSTRUCTOR",e.NotLoggedIn="NOT_LOGGED_IN",e.Student="STUDENT",e.Subscription="SUBSCRIPTION",e.Team="TEAM"}(_c||(_c={})),function(e){e.False="FALSE",e.True="TRUE"}($c||($c={})),function(e){e.Failed="FAILED",e.Pending="PENDING",e.Succeeded="SUCCEEDED"}(es||(es={})),function(e){e.Applied="APPLIED",e.Approved="APPROVED",e.Editable="EDITABLE"}(ns||(ns={})),function(e){e.Day="DAY",e.Month="MONTH"}(ts||(ts={})),function(e){e.FaceToFace="FACE_TO_FACE",e.Online="ONLINE"}(is||(is={})),function(e){e.All="ALL",e.Coaching="COACHING",e.Course="COURSE",e.Historical="HISTORICAL"}(as||(as={})),function(e){e.All="ALL",e.Pc="PC",e.Sp="SP"}(rs||(rs={})),function(e){e.Latest="LATEST"}(cs||(cs={})),function(e){e.Practice="PRACTICE",e.Program="PROGRAM",e.Qa="QA",e.StudyReport="STUDY_REPORT",e.Tweet="TWEET"}(ss||(ss={})),function(e){e.AbTestDuplicatedDeviceType="ABTestDuplicatedDeviceType",e.AbTestDuplicatedOriginUrl="ABTestDuplicatedOriginURL",e.AbTestStartDateIsAfterEndDate="ABTestStartDateIsAfterEndDate",e.ChatMessageAlreadyDeletedError="ChatMessageAlreadyDeletedError",e.ClaimDetailAlreadyExistsCurriculum="ClaimDetailAlreadyExistsCurriculum",e.ClaimDetailAlreadyExistsLesson="ClaimDetailAlreadyExistsLesson",e.ClaimDetailAlreadyExistsSpotLesson="ClaimDetailAlreadyExistsSpotLesson",e.ClaimDetailNotAllowedFlexibleCurriculum="ClaimDetailNotAllowedFlexibleCurriculum",e.ClaimDetailNotAllowedLessonPreparation="ClaimDetailNotAllowedLessonPreparation",e.ClaimDetailNotAllowedQuestion="ClaimDetailNotAllowedQuestion",e.CommonDatabaseErr="CommonDatabaseErr",e.CommonInvalidImage="CommonInvalidImage",e.CommonInvalidItem="CommonInvalidItem",e.CommonInvalidUser="CommonInvalidUser",e.CommonNoPermission="CommonNoPermission",e.CommonNotAuthorization="CommonNotAuthorization",e.CommonRecordNotFound="CommonRecordNotFound",e.CommonStoreWorkerErr="CommonStoreWorkerErr",e.CommonUnknownErr="CommonUnknownErr",e.CourseInstructorIsNotAssigned="CourseInstructorIsNotAssigned",e.InstructorScheduleAcrossDays="InstructorScheduleAcrossDays",e.InstructorScheduleIsDuringNewYearHolidayPeriod="InstructorScheduleIsDuringNewYearHolidayPeriod",e.InstructorScheduleOutsideBusinessHours="InstructorScheduleOutsideBusinessHours",e.LessThanMinimumNumberOfTeamMembers="LessThanMinimumNumberOfTeamMembers",e.LessonAlreadyReserved="LessonAlreadyReserved",e.LessonIsDuringNewYearHolidayPeriod="LessonIsDuringNewYearHolidayPeriod",e.LessonIsOverCount="LessonIsOverCount",e.LessonIsOverDate="LessonIsOverDate",e.NoAvailableTickets="NoAvailableTickets",e.NotPermittedDownNumberOfTeamMembers="NotPermittedDownNumberOfTeamMembers",e.PracticeSubmitDetailReviewStatusIsInvalid="PracticeSubmitDetailReviewStatusIsInvalid",e.ProgramSatisfactionAlreadyExistsErr="ProgramSatisfactionAlreadyExistsErr",e.ProgramSatisfactionNotAllCompletedYetErr="ProgramSatisfactionNotAllCompletedYetErr",e.PromotionCodeIsInvalid="PromotionCodeIsInvalid",e.PromotionCodeIsUsed="PromotionCodeIsUsed",e.QuestionCommentIsNotPermitted="QuestionCommentIsNotPermitted",e.QuestionCommentIsPendingAnswer="QuestionCommentIsPendingAnswer",e.SessionAlreadyReserved="SessionAlreadyReserved",e.SessionIsDuringNewYearHolidayPeriod="SessionIsDuringNewYearHolidayPeriod",e.SessionIsOverCount="SessionIsOverCount",e.SpotLessonAlreadyDoneOrCanceled="SpotLessonAlreadyDoneOrCanceled",e.SpotLessonAlreadyReserved="SpotLessonAlreadyReserved",e.SpotLessonIsDuplicated="SpotLessonIsDuplicated",e.SpotLessonIsFullOfReservations="SpotLessonIsFullOfReservations",e.SpotLessonIsNotCovered="SpotLessonIsNotCovered",e.SpotLessonIsStarted="SpotLessonIsStarted",e.StripeCardDeclined="StripeCardDeclined",e.StripeCardExpired="StripeCardExpired",e.StripeCardIncorrectCvc="StripeCardIncorrectCVC",e.StripePromotionCodeAlreadyUsedErr="StripePromotionCodeAlreadyUsedErr",e.StripeRequestErr="StripeRequestErr",e.StudyReportMaxTimeError="StudyReportMaxTimeError",e.SubscriptionIsExisted="SubscriptionIsExisted",e.SubscriptionIsMaintained="SubscriptionIsMaintained",e.SubscriptionPaymentMethodIsEmpty="SubscriptionPaymentMethodIsEmpty",e.TeamInvitationAuthError="TeamInvitationAuthError",e.TeamInvitationEmailNotMatch="TeamInvitationEmailNotMatch",e.TeamInvitationInvalidId="TeamInvitationInvalidID",e.TeamInvitationNoValidEmail="TeamInvitationNoValidEmail",e.TeamInvitationReachedMaximumLimit="TeamInvitationReachedMaximumLimit",e.TeamInvitationUserAlreadyJoined="TeamInvitationUserAlreadyJoined",e.TeamInvitationUserAlreadySubscribed="TeamInvitationUserAlreadySubscribed",e.TeamMemberIsLastAdmin="TeamMemberIsLastAdmin",e.UserAlreadyDeleted="UserAlreadyDeleted",e.UserAlreadyExists="UserAlreadyExists"}(os||(os={})),function(e){e.Bronze="BRONZE",e.Gold="GOLD",e.Shilver="SHILVER"}(ls||(ls={})),function(e){e.Issued="ISSUED",e.NotCalculated="NOT_CALCULATED",e.NoNeed="NO_NEED"}(ds||(ds={})),function(e){e.StudyReport="STUDY_REPORT"}(bs||(bs={})),function(e){e.No="NO",e.Yes="YES"}(ms||(ms={})),function(e){e.All="ALL",e.MyStudents="MY_STUDENTS",e.Reviewed="REVIEWED"}(js||(js={})),function(e){e.Draft="DRAFT",e.Open="OPEN",e.Paid="PAID",e.Uncollectible="UNCOLLECTIBLE",e.Void="VOID"}(us||(us={})),function(e){e.BitForward="BIT_FORWARD",e.BitLate="BIT_LATE",e.OnSchedule="ON_SCHEDULE",e.TooForward="TOO_FORWARD",e.TooLate="TOO_LATE"}(As||(As={})),function(e){e.SpotLessonTicketModal="SPOT_LESSON_TICKET_MODAL"}(hs||(hs={})),function(e){e.Finished="FINISHED",e.NotYet="NOT_YET",e.Processing="PROCESSING"}(ps||(ps={})),function(e){e.Read="READ",e.Unread="UNREAD"}(gs||(gs={})),function(e){e.Active="ACTIVE",e.Deleted="DELETED"}(Os||(Os={})),function(e){e.AttendanceStatusChangedNotifications="ATTENDANCE_STATUS_CHANGED_NOTIFICATIONS",e.BackSchoolNotifications="BACK_SCHOOL_NOTIFICATIONS",e.ClaimAppliedNotifications="CLAIM_APPLIED_NOTIFICATIONS",e.GivenFreeSpotLessonTicketNotifications="GIVEN_FREE_SPOT_LESSON_TICKET_NOTIFICATIONS",e.LessonCreatedNotifications="LESSON_CREATED_NOTIFICATIONS",e.LessonScheduleNotifications="LESSON_SCHEDULE_NOTIFICATIONS",e.LessonScheduleUncreatedNotifications="LESSON_SCHEDULE_UNCREATED_NOTIFICATIONS",e.LessonScheduleUpdatedNotifications="LESSON_SCHEDULE_UPDATED_NOTIFICATIONS",e.MessageNotifications="MESSAGE_NOTIFICATIONS",e.PracticeSubmitCreatedNotifications="PRACTICE_SUBMIT_CREATED_NOTIFICATIONS",e.PracticeSubmitDetailReviewCommentCreatedNotifications="PRACTICE_SUBMIT_DETAIL_REVIEW_COMMENT_CREATED_NOTIFICATIONS",e.PracticeSubmitReCreatedNotifications="PRACTICE_SUBMIT_RE_CREATED_NOTIFICATIONS",e.QuestionAnswerCreatedNotifications="QUESTION_ANSWER_CREATED_NOTIFICATIONS",e.QuestionCommentCreatedNotifications="QUESTION_COMMENT_CREATED_NOTIFICATIONS",e.QuestionCreatedNotifications="QUESTION_CREATED_NOTIFICATIONS",e.QuestionUnsolvedNotifications="QUESTION_UNSOLVED_NOTIFICATIONS",e.SessionRemindNotifications="SESSION_REMIND_NOTIFICATIONS",e.SpotLessonCancelNotifications="SPOT_LESSON_CANCEL_NOTIFICATIONS",e.SpotLessonLogUnregisteredNotifications="SPOT_LESSON_LOG_UNREGISTERED_NOTIFICATIONS",e.SpotLessonRegisteredNotifications="SPOT_LESSON_REGISTERED_NOTIFICATIONS",e.SpotLessonRemindNotifications="SPOT_LESSON_REMIND_NOTIFICATIONS",e.StudyReportCommentCreatedNotifications="STUDY_REPORT_COMMENT_CREATED_NOTIFICATIONS"}(xs||(xs={})),function(e){e.Canceled="CANCELED",e.Processing="PROCESSING",e.RequiresAction="REQUIRES_ACTION",e.RequiresCapture="REQUIRES_CAPTURE",e.RequiresConfirmation="REQUIRES_CONFIRMATION",e.RequiresPaymentmethod="REQUIRES_PAYMENTMETHOD",e.RequiresSucceeded="REQUIRES_SUCCEEDED",e.UnknOwN="UNKNOwN"}(fs||(fs={})),function(e){e.Bank="BANK",e.CreditCard="CREDIT_CARD"}(vs||(vs={})),function(e){e.Create="CREATE",e.Delete="DELETE",e.Read="READ",e.Update="UPDATE"}(ws||(ws={})),function(e){e.Easier="EASIER",e.Harder="HARDER",e.Normal="NORMAL",e.VeryEasy="VERY_EASY",e.VeryHard="VERY_HARD"}(Cs||(Cs={})),function(e){e.Draft="DRAFT",e.Passing="PASSING",e.RePresent="RE_PRESENT",e.Waiting="WAITING"}(ys||(ys={})),function(e){e.All="ALL",e.Everyone="EVERYONE",e.Mine="MINE",e.MyDraft="MY_DRAFT"}(Vs||(Vs={})),function(e){e.CreatedAt="CREATED_AT",e.UpdatedAt="UPDATED_AT"}(ks||(ks={})),function(e){e.PriceTypeOnetime="PRICE_TYPE_ONETIME",e.PriceTypeRecurring="PRICE_TYPE_RECURRING"}(Ss||(Ss={})),function(e){e.Tech="TECH",e.Trouble="TROUBLE"}(Is||(Is={})),function(e){e.Average="AVERAGE",e.Bad="BAD",e.Excellent="EXCELLENT",e.Good="GOOD",e.Poor="POOR"}(Ts||(Ts={})),function(e){e.All="ALL",e.CompletedStudy="COMPLETED_STUDY",e.WhileStudying="WHILE_STUDYING"}(Ds||(Ds={})),function(e){e.Instructor="INSTRUCTOR",e.Normal="NORMAL"}(Es||(Es={})),function(e){e.Deleted="DELETED",e.Draft="DRAFT",e.Open="OPEN",e.Paid="PAID",e.Uncollectible="UNCOLLECTIBLE",e.Void="VOID"}(Rs||(Rs={})),function(e){e.Active="ACTIVE",e.Canceled="CANCELED",e.Incomplete="INCOMPLETE",e.IncompleteExpired="INCOMPLETE_EXPIRED",e.PastDue="PAST_DUE",e.Trialing="TRIALING",e.Unpaid="UNPAID"}(Ms||(Ms={})),function(e){e.Bad="BAD",e.Good="GOOD"}(zs||(zs={})),function(e){e.Hide="HIDE",e.Invalid="INVALID",e.Valid="VALID"}(Bs||(Bs={})),function(e){e.Tech="TECH",e.Trouble="TROUBLE"}(Ls||(Ls={})),function(e){e.Hide="HIDE",e.Invalid="INVALID",e.Valid="VALID"}(Ns||(Ns={})),function(e){e.All="ALL",e.Mine="MINE",e.MyAnswered="MY_ANSWERED",e.MyDraft="MY_DRAFT",e.MyStudents="MY_STUDENTS"}(Ps||(Ps={})),function(e){e.ActionedAt="ACTIONED_AT",e.AnswerCount="ANSWER_COUNT",e.AnswerFavoriteCount="ANSWER_FAVORITE_COUNT",e.CreatedAt="CREATED_AT",e.QuestionFavoriteCount="QUESTION_FAVORITE_COUNT"}(Us||(Us={})),function(e){e.Draft="DRAFT",e.Hide="HIDE",e.Invalid="INVALID",e.Valid="VALID"}(Fs||(Fs={})),function(e){e.Day="DAY",e.Month="MONTH",e.Week="WEEK",e.Year="YEAR"}(qs||(qs={})),function(e){e.AwsProgram="AWS_PROGRAM",e.Environment="ENVIRONMENT",e.HtmlCssProgram="HTML_CSS_PROGRAM",e.JavaScriptProgram="JAVA_SCRIPT_PROGRAM",e.Lesson="LESSON",e.Others="OTHERS",e.OthersProgram="OTHERS_PROGRAM",e.PhpRubyProgram="PHP_RUBY_PROGRAM",e.PythonProgram="PYTHON_PROGRAM",e.Qa="QA"}(Qs||(Qs={})),function(e){e.Development="DEVELOPMENT",e.Education="EDUCATION",e.Efficiency="EFFICIENCY",e.JobChange="JOB_CHANGE",e.Others="OTHERS",e.SideBusiness="SIDE_BUSINESS"}(Hs||(Hs={})),function(e){e.AddNewFunction="ADD_NEW_FUNCTION",e.AddNewProgram="ADD_NEW_PROGRAM",e.AskAQuestion="ASK_A_QUESTION",e.BetterThanOther="BETTER_THAN_OTHER",e.Campaign="CAMPAIGN",e.GotMoreTime="GOT_MORE_TIME",e.Others="OTHERS"}(Gs||(Gs={})),function(e){e.Created="CREATED",e.DbConnectionFail="DB_CONNECTION_FAIL",e.Duplicated="DUPLICATED",e.Fail="FAIL",e.InvalidExtension="INVALID_EXTENSION",e.InvalidMimetype="INVALID_MIMETYPE",e.NotFound="NOT_FOUND",e.ServiceError="SERVICE_ERROR",e.SessionFail="SESSION_FAIL",e.Success="SUCCESS",e.Unauthorized="UNAUTHORIZED",e.Unknown="UNKNOWN",e.ValidationFail="VALIDATION_FAIL",e.WrongInput="WRONG_INPUT"}(Ys||(Ys={})),function(e){e.Asap="ASAP",e.FewDays="FEW_DAYS",e.SevenDays="SEVEN_DAYS"}(Ks||(Ks={})),function(e){e.Ai="AI",e.All="ALL",e.Escalation="ESCALATION",e.Solved="SOLVED"}(Zs||(Zs={})),function(e){e.Canceled="CANCELED",e.CanceledByStudent="CANCELED_BY_STUDENT",e.Completed="COMPLETED",e.NotCompleted="NOT_COMPLETED"}(Js||(Js={})),function(e){e.ChangeToInstructor="CHANGE_TO_INSTRUCTOR",e.InstructToInstructor="INSTRUCT_TO_INSTRUCTOR",e.Other="OTHER",e.ReconsiderCurricurum="RECONSIDER_CURRICURUM",e.ShareInfoToInstructor="SHARE_INFO_TO_INSTRUCTOR",e.StudentMental="STUDENT_MENTAL",e.TalkToCancel="TALK_TO_CANCEL",e.TalkToChangeCourse="TALK_TO_CHANGE_COURSE",e.TalkToExtensionCourse="TALK_TO_EXTENSION_COURSE",e.TalkToJobchamgeSupport="TALK_TO_JOBCHAMGE_SUPPORT",e.TalkToPayment="TALK_TO_PAYMENT",e.TalkToServiceDiscontent="TALK_TO_SERVICE_DISCONTENT"}(Ws||(Ws={})),function(e){e.AdminRequestTask="ADMIN_REQUEST_TASK",e.CheckStudentInfoTask="CHECK_STUDENT_INFO_TASK",e.MessageTask="MESSAGE_TASK",e.OtherTask="OTHER_TASK"}(Xs||(Xs={})),function(e){e.Forever="FOREVER",e.Once="ONCE",e.Repeating="REPEATING"}(_s||(_s={})),function(e){e.Instructor="INSTRUCTOR",e.Student="STUDENT"}($s||($s={})),function(e){e.Cancel="CANCEL",e.Complete="COMPLETE",e.Incomplete="INCOMPLETE",e.NonAttendance="NON_ATTENDANCE"}(eo||(eo={})),function(e){e.ChargeAutomatically="CHARGE_AUTOMATICALLY",e.SendInvoice="SEND_INVOICE"}(no||(no={})),function(e){e.Personal="PERSONAL",e.Team="TEAM",e.Unknown="UNKNOWN"}(to||(to={})),function(e){e.High="HIGH",e.Low="LOW",e.Middle="MIDDLE"}(io||(io={})),function(e){e.AdminCancel="ADMIN_CANCEL",e.ExitFeeJob="EXIT_FEE_JOB",e.MigrationJob="MIGRATION_JOB",e.TeamChangeCanceledAt="TEAM_CHANGE_CANCELED_AT",e.TeamCreate="TEAM_CREATE",e.TeamUpdate="TEAM_UPDATE",e.UserCancelAll="USER_CANCEL_ALL",e.UserChangeCanceledAt="USER_CHANGE_CANCELED_AT",e.UserCreate="USER_CREATE",e.UserRelease="USER_RELEASE",e.UserUpdate="USER_UPDATE",e.WebhookCreate="WEBHOOK_CREATE",e.WebhookUpdate="WEBHOOK_UPDATE"}(ao||(ao={})),function(e){e.Delete="DELETE",e.Insert="INSERT",e.Update="UPDATE",e.Upsert="UPSERT"}(ro||(ro={})),function(e){e.Active="ACTIVE",e.AutoCancel="AUTO_CANCEL",e.SelcCancel="SELC_CANCEL",e.Unknown="UNKNOWN"}(co||(co={})),function(e){e.Active="ACTIVE",e.Canceled="CANCELED",e.ChangeContractPeriod="CHANGE_CONTRACT_PERIOD",e.Completed="COMPLETED"}(so||(so={})),function(e){e.Active="ACTIVE",e.Canceled="CANCELED",e.Incomplete="INCOMPLETE",e.IncompleteExpired="INCOMPLETE_EXPIRED",e.PastDue="PAST_DUE",e.Trialing="TRIALING",e.Unknown="UNKNOWN",e.Unpaid="UNPAID"}(oo||(oo={})),function(e){e.Basic="BASIC",e.Light="LIGHT",e.Premium="PREMIUM"}(lo||(lo={})),function(e){e.DowngradeSchedule="DOWNGRADE_SCHEDULE",e.Immediate="IMMEDIATE",e.NotAvailable="NOT_AVAILABLE",e.Operation="OPERATION",e.Schedule="SCHEDULE",e.Self="SELF"}(bo||(bo={})),function(e){e.Tech="TECH",e.Trouble="TROUBLE"}(mo||(mo={})),function(e){e.Program="PROGRAM",e.RegisteredQuestionnaire="REGISTERED_QUESTIONNAIRE",e.SpotLesson="SPOT_LESSON"}(jo||(jo={})),function(e){e.All="ALL",e.ByDevice="BY_DEVICE",e.Pc="PC",e.Sp="SP"}(uo||(uo={})),function(e){e.Admin="ADMIN",e.General="GENERAL"}(Ao||(Ao={})),function(e){e.Active="ACTIVE",e.Ban="BAN",e.Deleted="DELETED"}(ho||(ho={})),function(e){e.Admin="ADMIN",e.Common="COMMON",e.Instructor="INSTRUCTOR"}(po||(po={})),function(e){e.All="ALL",e.Plus="PLUS",e.Pro="PRO"}(go||(go={})),function(e){e.Active="ACTIVE",e.Ban="BAN",e.Deleted="DELETED"}(Oo||(Oo={})),function(e){e.Admin="ADMIN",e.Coach="COACH",e.Instructor="INSTRUCTOR",e.NotLogin="NOT_LOGIN",e.Student="STUDENT",e.StudentFree="STUDENT_FREE",e.StudentGraduated="STUDENT_GRADUATED",e.StudentSubscription="STUDENT_SUBSCRIPTION",e.StudentSubscriptionBasic="STUDENT_SUBSCRIPTION_BASIC",e.StudentSubscriptionLight="STUDENT_SUBSCRIPTION_LIGHT",e.StudentSubscriptionPremium="STUDENT_SUBSCRIPTION_PREMIUM",e.Subscription="SUBSCRIPTION",e.SubscriptionBasic="SUBSCRIPTION_BASIC",e.SubscriptionFree="SUBSCRIPTION_FREE",e.SubscriptionLight="SUBSCRIPTION_LIGHT",e.SubscriptionPremium="SUBSCRIPTION_PREMIUM",e.TeamAdmin="TEAM_ADMIN",e.TeamAdminFree="TEAM_ADMIN_FREE",e.TeamMember="TEAM_MEMBER",e.TeamMemberFree="TEAM_MEMBER_FREE"}(xo||(xo={})),function(e){e.Invalid="INVALID",e.Valid="VALID"}(fo||(fo={})),function(e){e.JustRight="JUST_RIGHT",e.NotUsed="NOT_USED",e.TooDifficult="TOO_DIFFICULT",e.TooEasy="TOO_EASY"}(vo||(vo={})),function(e){e.Achieved="ACHIEVED",e.Busy="BUSY",e.ChangePlan="CHANGE_PLAN",e.DissatisfiedWithLesson="DISSATISFIED_WITH_LESSON",e.DissatisfiedWithPrograms="DISSATISFIED_WITH_PROGRAMS",e.DissatisfiedWithQa="DISSATISFIED_WITH_QA",e.Expensive="EXPENSIVE",e.FoundOtherServices="FOUND_OTHER_SERVICES",e.NotAcquiredSkills="NOT_ACQUIRED_SKILLS",e.Others="OTHERS",e.StopLearning="STOP_LEARNING",e.Unnecessary="UNNECESSARY",e.UnsupportedSkill="UNSUPPORTED_SKILL"}(wo||(wo={}));const Co=Object(Fc.e)(fe||(fe=Object(s.a)(["\n    fragment AbTestDelivery on AbTestDelivery {\n  originURL\n  deviceType\n  totalRate\n  startDate\n  endDate\n  abTestDeliveryDetails {\n    deliveryURL\n    deliveryRate\n  }\n}\n    "]))),yo=Object(Fc.e)(ve||(ve=Object(s.a)(["\n    fragment BannerCid on BannerCid {\n  id\n  type\n  deviceType\n  cid\n  banner {\n    link\n    imageURL\n    title\n  }\n}\n    "]))),Vo=Object(Fc.e)(we||(we=Object(s.a)(["\n    fragment Campaign on Campaign {\n  title\n  imageURL\n}\n    "]))),ko=Object(Fc.e)(Ce||(Ce=Object(s.a)(["\n    fragment Category on Category {\n  id\n  name\n  status\n  createdAt\n  updatedAt\n}\n    "]))),So=Object(Fc.e)(ye||(ye=Object(s.a)(["\n    fragment ProgramSearchSimple on Program {\n  id\n  title\n  description\n  icon\n}\n    "]))),Io=(Object(Fc.e)(Ve||(Ve=Object(s.a)(["\n    fragment ChapterDetailSearch on Chapter {\n  id\n  title\n  description\n  number\n  type\n  programElement {\n    program {\n      ...ProgramSearchSimple\n    }\n  }\n}\n    ",""])),So),Object(Fc.e)(ke||(ke=Object(s.a)(["\n    fragment ChatMessageChatRoom on ChatRoom {\n  id\n  unreadCount\n  lastMessage {\n    id\n    content\n    status\n    createdAt\n    updatedAt\n  }\n}\n    "]))),Object(Fc.e)(Se||(Se=Object(s.a)(["\n    fragment ChatMessageUser on User {\n  id\n  nickName\n  image\n  isInstructor\n  isStudent\n  isAdmin\n  updatedAt\n  instructor {\n    isCoach\n  }\n  maskedPersonalInfo {\n    name\n  }\n  snsType\n}\n    "])))),To=Object(Fc.e)(Ie||(Ie=Object(s.a)(["\n    fragment UserChatMessage on UserChatMessage {\n  id\n  userID\n  chatRoomID\n  isRead\n  createdAt\n  updatedAt\n}\n    "]))),Do=Object(Fc.e)(Te||(Te=Object(s.a)(["\n    fragment ChatMessageList on ChatMessage {\n  id\n  content\n  status\n  createdAt\n  updatedAt\n  user {\n    ...ChatMessageUser\n  }\n  userChatMessage {\n    ...UserChatMessage\n  }\n}\n    ","\n",""])),Io,To),Eo=Object(Fc.e)(De||(De=Object(s.a)(["\n    fragment ChatMessageEdge on ChatMessageEdge {\n  node {\n    ...ChatMessageList\n  }\n  cursor\n}\n    ",""])),Do),Ro=Object(Fc.e)(Ee||(Ee=Object(s.a)(["\n    fragment ChatMessageDraft on ChatMessageDraft {\n  chatRoomID\n  userID\n  content\n}\n    "]))),Mo=Object(Fc.e)(Re||(Re=Object(s.a)(["\n    fragment ChatMemberUser on User {\n  id\n  nickName\n  image\n  isInstructor\n  isStudent\n  isAdmin\n  updatedAt\n  instructor {\n    isCoach\n  }\n  student {\n    status\n  }\n  maskedPersonalInfo {\n    name\n  }\n  snsType\n}\n    "]))),zo=Object(Fc.e)(Me||(Me=Object(s.a)(["\n    fragment ChatMemberList on ChatMember {\n  id\n  status\n  user {\n    ...ChatMemberUser\n  }\n}\n    ",""])),Mo),Bo=Object(Fc.e)(ze||(ze=Object(s.a)(["\n    fragment ChatRoomList on ChatRoom {\n  id\n  title\n  status\n  createdAt\n  updatedAt\n  unreadCount\n  chatMembers {\n    ...ChatMemberList\n  }\n  lastMessage {\n    id\n    content\n    status\n    createdAt\n    updatedAt\n  }\n}\n    ",""])),zo),Lo=Object(Fc.e)(Be||(Be=Object(s.a)(["\n    fragment Claim on Claim {\n  id\n  applyStatus\n  month\n}\n    "]))),No=Object(Fc.e)(Le||(Le=Object(s.a)(["\n    fragment StudySummary on StudySummary {\n  id\n  studyReportTime\n  studyReportCount\n  studyReportTimeMonth\n  studyReportTimeWeek\n  studyReportRunningLayDays\n}\n    "]))),Po=Object(Fc.e)(Ne||(Ne=Object(s.a)(["\n    fragment User on User {\n  id\n  image\n  instructor {\n    id\n    isCoach\n  }\n  isAI\n  isAdmin\n  isInstructor\n  isStudent\n  maskedPersonalInfo {\n    name\n  }\n  nickName\n  snsType\n  studySummary {\n    ...StudySummary\n  }\n}\n    ",""])),No),Uo=Object(Fc.e)(Pe||(Pe=Object(s.a)(["\n    fragment ClaimDetail on ClaimDetail {\n  id\n  subTotal\n  amount\n  date\n  additionalPayment\n  remark\n  unitPrice\n  course {\n    id\n    student {\n      id\n      status\n      user {\n        ...User\n      }\n    }\n    plan {\n      name\n    }\n  }\n  lesson {\n    id\n    title\n    type\n  }\n  spotLesson {\n    id\n    startAt\n  }\n  claimCategory {\n    id\n    name\n  }\n}\n    ",""])),Po),Fo=Object(Fc.e)(Ue||(Ue=Object(s.a)(["\n    fragment ClaimCategory on ClaimCategory {\n  id\n  name\n}\n    "]))),qo=Object(Fc.e)(Fe||(Fe=Object(s.a)(["\n    fragment PageInfo on PageInfo {\n  startCursor\n  endCursor\n  hasNextPage\n  hasPreviousPage\n}\n    "]))),Qo=Object(Fc.e)(qe||(qe=Object(s.a)(["\n    fragment CourseStudent on Student {\n  id\n  user {\n    id\n    image\n    nickName\n    birthday\n    sex\n    maskedPersonalInfo {\n      name\n    }\n  }\n}\n    "]))),Ho=Object(Fc.e)(Qe||(Qe=Object(s.a)(["\n    fragment Course on Course {\n  id\n  absentStartDate\n  absentEndDate\n  absent2StartDate\n  absent2EndDate\n  absent3StartDate\n  absent3EndDate\n  instructorChangeStartDate\n  instructorChangeEndDate\n  instructorChange2StartDate\n  instructorChange2EndDate\n  instructorChange3StartDate\n  instructorChange3EndDate\n  consultant\n  status\n  lessonType\n  lessonPlace\n  startDate\n  endDate\n  student {\n    ...CourseStudent\n  }\n  plan {\n    name\n  }\n  contractType\n  curriculum\n  jobChange\n  careerSupport\n  customerAcquisition\n  delayInPayment\n  breakInContact\n  teachingMaterialCost\n  lessonMinutesUpperLimit\n  status\n  plannedLessonCount\n  finishedLessonCount\n  coaching {\n    finishedSessionCount\n    plannedSessionCount\n  }\n  studentInformation {\n    customerInformation\n    transferInformation\n  }\n  instructorMemo\n}\n    ",""])),Qo),Go=Object(Fc.e)(He||(He=Object(s.a)(["\n    fragment CourseList on Course {\n  id\n  endDate\n  student {\n    user {\n      ...User\n    }\n  }\n  plan {\n    name\n  }\n  coaching {\n    id\n    plannedSessionCount\n    finishedSessionCount\n  }\n}\n    ",""])),Po),Yo=Object(Fc.e)(Ge||(Ge=Object(s.a)(["\n    fragment StudentCourse on Course {\n  startDate\n  endDate\n  curriculum\n  finishedLessonCount\n  plannedLessonCount\n  plan {\n    name\n  }\n  coaching {\n    plannedSessionCount\n    finishedSessionCount\n  }\n  status\n}\n    "]))),Ko=Object(Fc.e)(Ye||(Ye=Object(s.a)(["\n    fragment HistoricalCourse on Course {\n  id\n  lessons {\n    id\n    startAt\n    endAt\n    completed\n    canceled\n    title\n  }\n  plan {\n    isLessonPreparationAllowed\n    isQuestionAllowed\n    isFlexibleCurriculum\n    name\n  }\n  student {\n    ...CourseStudent\n  }\n}\n    ",""])),Qo),Zo=Object(Fc.e)(Ke||(Ke=Object(s.a)(["\n    fragment CourseNewLesson on Course {\n  id\n  student {\n    user {\n      ...User\n    }\n  }\n  lessons {\n    id\n  }\n  plan {\n    name\n    lessonMinutes\n  }\n  plannedLessonCount\n  endDate\n}\n    ",""])),Po),Jo=Object(Fc.e)(Ze||(Ze=Object(s.a)(["\n    fragment ChapterForCourseProgramStepItem on Chapter {\n  id\n  studyLog {\n    id\n  }\n  type\n}\n    "]))),Wo=Object(Fc.e)(Je||(Je=Object(s.a)(["\n    fragment PracticeForCourseProgramStepItem on Practice {\n  id\n  type\n}\n    "]))),Xo=Object(Fc.e)(We||(We=Object(s.a)(["\n    fragment ProgramElementForCourseProgramStepItem on ProgramElement {\n  id\n  number\n  programID\n  chapter {\n    ...ChapterForCourseProgramStepItem\n  }\n  practice {\n    ...PracticeForCourseProgramStepItem\n  }\n}\n    ","\n",""])),Jo,Wo),_o=Object(Fc.e)(Xe||(Xe=Object(s.a)(["\n    fragment CourseProgramStepItem on CourseProgramStepItem {\n  id\n  program {\n    id\n    icon\n    thumbnail\n    title\n    description\n    questionCount\n    answerCount\n    chapterCount\n    requireTime\n    studyLogCount(userID: $userID)\n    programElements {\n      ...ProgramElementForCourseProgramStepItem\n    }\n    completedTime\n    completedProgramElements {\n      id\n    }\n    currentProgramElement {\n      ...ProgramElementForCourseProgramStepItem\n    }\n  }\n}\n    ",""])),Xo),$o=Object(Fc.e)(_e||(_e=Object(s.a)(["\n    fragment CourseProgramDetail on CourseProgram {\n  id\n  title\n  image\n  content\n  description\n  overview\n  totalChapterCount\n  totalCompletedChapterCount\n  totalRequireTime\n  totalCompletedTime\n  courseProgramUserData {\n    createdAt\n    isStarted\n  }\n  courseProgramSteps {\n    id\n    title\n    description\n    number\n    courseProgramStepItems {\n      ...CourseProgramStepItem\n    }\n  }\n}\n    ",""])),_o),el=Object(Fc.e)($e||($e=Object(s.a)(["\n    fragment CourseProgramTag on Tag {\n  id\n  name\n}\n    "]))),nl=Object(Fc.e)(en||(en=Object(s.a)(["\n    fragment CourseProgram on CourseProgram {\n  id\n  title\n  image\n  content\n  description\n  overview\n  totalChapterCount\n  totalCompletedChapterCount\n  totalRequireTime\n  totalCompletedTime\n  courseProgramUserData {\n    createdAt\n    isStarted\n  }\n  tags {\n    ...CourseProgramTag\n  }\n}\n    ",""])),el),tl=Object(Fc.e)(nn||(nn=Object(s.a)(["\n    fragment ProgramTag on Tag {\n  id\n  name\n}\n    "]))),il=Object(Fc.e)(tn||(tn=Object(s.a)(["\n    fragment Practice on Practice {\n  id\n  programID\n  key\n  program {\n    id\n    icon\n    title\n    category\n    tags {\n      ...ProgramTag\n    }\n  }\n  title\n  description\n  requireTime\n  content\n  answer\n  type\n  submitPassingCount\n  mySubmit {\n    id\n    practiceSubmitDetails {\n      id\n      reviewStatus\n    }\n  }\n  difficulty\n  status\n  createdAt\n  updatedAt\n}\n    ",""])),tl),al=Object(Fc.e)(an||(an=Object(s.a)(["\n    fragment ExamScore on ExamScore {\n  score\n  medalType\n}\n    "]))),rl=Object(Fc.e)(rn||(rn=Object(s.a)(["\n    fragment StudyLog on StudyLog {\n  id\n  chapterID\n  understandingLevel\n}\n    "]))),cl=Object(Fc.e)(cn||(cn=Object(s.a)(["\n    fragment ExamQuestion on ExamQuestion {\n  id\n  content\n  commentary\n  examAnswers {\n    id\n    content\n    isCorrect\n  }\n}\n    "]))),sl=Object(Fc.e)(sn||(sn=Object(s.a)(["\n    fragment Chapter on Chapter {\n  content\n  createdAt\n  description\n  id\n  key\n  number\n  requireTime\n  status\n  title\n  type\n  updatedAt\n  programElement {\n    programID\n    program {\n      title\n      tags {\n        ...ProgramTag\n      }\n    }\n  }\n  examScores {\n    ...ExamScore\n  }\n  studyLog {\n    ...StudyLog\n  }\n  examQuestions {\n    ...ExamQuestion\n  }\n}\n    ","\n","\n","\n",""])),tl,al,rl,cl),ol=Object(Fc.e)(on||(on=Object(s.a)(["\n    fragment QuestionUser on User {\n  id\n  nickName\n  image\n  isStudent\n  isInstructor\n  isAdmin\n  snsType\n  isAI\n}\n    "]))),ll=Object(Fc.e)(ln||(ln=Object(s.a)(["\n    fragment QuestionComment on QuestionComment {\n  id\n  user {\n    ...QuestionUser\n  }\n  content\n  status\n  createdAt\n  updatedAt\n}\n    ",""])),ol),dl=Object(Fc.e)(dn||(dn=Object(s.a)(["\n    fragment QuestionAnswer on QuestionAnswer {\n  id\n  user {\n    ...QuestionUser\n  }\n  content\n  answerType\n  status\n  questionComments {\n    ...QuestionComment\n  }\n  questionAnswerFavorites {\n    userID\n  }\n  createdAt\n  updatedAt\n}\n    ","\n",""])),ol,ll),bl=Object(Fc.e)(bn||(bn=Object(s.a)(["\n    fragment Question on Question {\n  id\n  title\n  content\n  solved\n  editedAt\n  answerCount\n  answerRequestType\n  status\n  createdAt\n  updatedAt\n  questionAnswers {\n    ...QuestionAnswer\n  }\n  questionFavorites {\n    userID\n  }\n  user {\n    ...QuestionUser\n  }\n  program {\n    id\n    title\n  }\n  chapter {\n    id\n    title\n  }\n  practice {\n    id\n    title\n  }\n  tags {\n    id\n    name\n  }\n}\n    ","\n",""])),dl,ol),ml=Object(Fc.e)(mn||(mn=Object(s.a)(["\n    fragment StudyReportTag on Tag {\n  id\n  name\n  iconImage\n  studyReportCount\n}\n    "]))),jl=Object(Fc.e)(jn||(jn=Object(s.a)(["\n    fragment ProgramSampleSimple on ProgramSample {\n  id\n  title\n  url\n}\n    "]))),ul=Object(Fc.e)(un||(un=Object(s.a)(["\n    fragment ChapterSearch on Chapter {\n  id\n  title\n  description\n  number\n  type\n  examScores {\n    ...ExamScore\n  }\n  studyLog {\n    ...StudyLog\n  }\n}\n    ","\n",""])),al,rl),Al=Object(Fc.e)(An||(An=Object(s.a)(["\n    fragment PracticeSearch on Practice {\n  id\n  title\n  description\n  type\n}\n    "]))),hl=Object(Fc.e)(hn||(hn=Object(s.a)(["\n    fragment Program on Program {\n  id\n  icon\n  thumbnail\n  title\n  description\n  questionCount\n  answerCount\n  chapterCount\n  requireTime\n  studyLogCount(userID: $userID)\n  repository\n  programSample {\n    ...ProgramSampleSimple\n  }\n  tags {\n    ...ProgramTag\n  }\n  programElements {\n    chapter {\n      ...ChapterSearch\n    }\n    practice {\n      ...PracticeSearch\n    }\n  }\n  completedTime\n}\n    ","\n","\n","\n",""])),jl,tl,ul,Al),pl=Object(Fc.e)(pn||(pn=Object(s.a)(["\n    fragment StudyReportDetail on StudyReportDetail {\n  id\n  tag {\n    ...StudyReportTag\n  }\n  time\n  program {\n    ...Program\n  }\n  createdAt\n  updatedAt\n}\n    ","\n",""])),ml,hl),gl=Object(Fc.e)(gn||(gn=Object(s.a)(["\n    fragment StudyReportComment on StudyReportComment {\n  id\n  content\n  studyReportID\n  user {\n    ...User\n  }\n  createdAt\n  updatedAt\n}\n    ",""])),Po),Ol=Object(Fc.e)(On||(On=Object(s.a)(["\n    fragment StudyReportFavorite on StudyReportFavorite {\n  id\n  studyReportID\n  userID\n}\n    "]))),xl=Object(Fc.e)(xn||(xn=Object(s.a)(["\n    fragment StudyReport on StudyReport {\n  id\n  user {\n    ...User\n  }\n  date\n  content\n  studyReportDetails {\n    ...StudyReportDetail\n  }\n  studyReportComments {\n    ...StudyReportComment\n  }\n  studyReportFavorites {\n    ...StudyReportFavorite\n  }\n  status\n  createdAt\n  updatedAt\n}\n    ","\n","\n","\n",""])),Po,pl,gl,Ol),fl=Object(Fc.e)(fn||(fn=Object(s.a)(["\n    fragment TweetComment on TweetComment {\n  tweetCommentID\n  content\n  createdAt\n  user {\n    ...User\n  }\n}\n    ",""])),Po),vl=Object(Fc.e)(vn||(vn=Object(s.a)(["\n    fragment TweetFavorite on TweetFavorite {\n  id\n  userID\n}\n    "]))),wl=Object(Fc.e)(wn||(wn=Object(s.a)(["\n    fragment Tweet on Tweet {\n  tweetID: id\n  createdAt\n  tweetDetail {\n    content\n    detailType\n    user {\n      ...User\n    }\n    tweetImages {\n      id\n      content\n    }\n    tweetComments {\n      ...TweetComment\n    }\n    tweetFavorites {\n      ...TweetFavorite\n    }\n  }\n  tweetPostDestination\n}\n    ","\n","\n",""])),Po,fl,vl),Cl=Object(Fc.e)(Cn||(Cn=Object(s.a)(["\n    fragment DocumentList on Document {\n  documentID\n  type\n  practice {\n    ...Practice\n  }\n  chapter {\n    ...Chapter\n  }\n  qa {\n    ...Question\n  }\n  studyReport {\n    ...StudyReport\n  }\n  tweet {\n    ...Tweet\n  }\n}\n    ","\n","\n","\n","\n",""])),il,sl,bl,xl,wl),yl=Object(Fc.e)(yn||(yn=Object(s.a)(["\n    fragment AnswerResponse on AnswerResponse {\n  questionID\n  answerID\n  result\n}\n    "]))),Vl=Object(Fc.e)(Vn||(Vn=Object(s.a)(["\n    fragment UploadFile on UploadFilesResponse {\n  code\n  fileName\n  s3FilePath\n}\n    "]))),kl=Object(Fc.e)(kn||(kn=Object(s.a)(["\n    fragment InstructorSchedule on InstructorSchedule {\n  id\n  startAt\n  endAt\n}\n    "]))),Sl=Object(Fc.e)(Sn||(Sn=Object(s.a)(["\n    fragment LessonsAssistance on LessonsAssistance {\n  id\n  name\n}\n    "]))),Il=Object(Fc.e)(In||(In=Object(s.a)(["\n    fragment InstructorLesson on Lesson {\n  id\n  startAt\n  endAt\n  taughtSkill\n  title\n  type\n  homework\n  prepare\n  progress\n  delayReason\n  assistanceDetail\n  lessonsAssistances {\n    id\n  }\n  canceled\n  completed\n  course {\n    id\n    plannedLessonCount\n    student {\n      user {\n        ...User\n      }\n    }\n    plan {\n      id\n      lessonMinutes\n    }\n  }\n}\n    ",""])),Po),Tl=Object(Fc.e)(Tn||(Tn=Object(s.a)(["\n    fragment StudentLesson on Lesson {\n  id\n  startAt\n  endAt\n  taughtSkill\n  title\n  type\n  homework\n  prepare\n  progress\n  delayReason\n  assistanceDetail\n  lessonsAssistances {\n    id\n  }\n  canceled\n  completed\n  course {\n    id\n    plannedLessonCount\n    plan {\n      id\n      lessonMinutes\n      name\n    }\n    instructor {\n      user {\n        ...User\n      }\n    }\n  }\n}\n    ",""])),Po),Dl=Object(Fc.e)(Dn||(Dn=Object(s.a)(["\n    fragment MailSetting on MailSetting {\n  messageReceived\n  lessonRegistered\n  lessonRemind\n  lessonUnregistered\n  lessonScheduleUpdated\n  practiceSubmitRegistered\n  practiceSubmitReRegistered\n  practiceSubmitDetailReviewCommentRegistered\n  questionRegistered\n  questionAnswerRegistered\n  questionCommentRegistered\n  questionUnsolved\n  claimApplied\n  backSchool\n  attendanceStatusChanged\n  notice\n  lessonLogUnregistered\n  studyReportCommentRegistered\n  studyReportAchieved\n  spotLessonRegistered\n  spotLessonRemind\n  spotLessonCancel\n  spotLessonLogUnregistered\n  ticketRemind\n  sessionRemind\n}\n    "]))),El=Object(Fc.e)(En||(En=Object(s.a)(["\n    fragment Modal on Modal {\n  id\n  isRead\n}\n    "]))),Rl=Object(Fc.e)(Rn||(Rn=Object(s.a)(["\n    fragment Notice on Notice {\n  id\n  title\n  content\n  createdAt\n  noticeRead {\n    noticeID\n  }\n}\n    "]))),Ml=Object(Fc.e)(Mn||(Mn=Object(s.a)(["\n    fragment NotificationQuestion on Question {\n  id\n  title\n}\n    "]))),zl=Object(Fc.e)(zn||(zn=Object(s.a)(["\n    fragment NotificationLesson on Lesson {\n  id\n  title\n  startAt\n  endAt\n}\n    "]))),Bl=Object(Fc.e)(Bn||(Bn=Object(s.a)(["\n    fragment NotificationCourse on Course {\n  id\n  plan {\n    name\n  }\n  student {\n    user {\n      nickName\n    }\n  }\n  instructor {\n    user {\n      nickName\n    }\n  }\n}\n    "]))),Ll=Object(Fc.e)(Ln||(Ln=Object(s.a)(["\n    fragment NotificationSpotLesson on SpotLesson {\n  id\n  categories {\n    name\n  }\n  startAt\n  endAt\n}\n    "]))),Nl=Object(Fc.e)(Nn||(Nn=Object(s.a)(["\n    fragment NotificationSession on Session {\n  id\n  title\n  startAt\n  endAt\n}\n    "]))),Pl=Object(Fc.e)(Pn||(Pn=Object(s.a)(["\n    fragment NotificationPracticeSubmit on PracticeSubmit {\n  id\n  practice {\n    title\n  }\n}\n    "]))),Ul=Object(Fc.e)(Un||(Un=Object(s.a)(["\n    fragment Notification on Notification {\n  id\n  type\n  notificationReadStatus\n  notificationStatus\n  createdAt\n  user {\n    id\n    nickName\n  }\n  notificationDetail {\n    title\n    actor {\n      ...User\n    }\n    question {\n      ...NotificationQuestion\n    }\n    lesson {\n      ...NotificationLesson\n    }\n    course {\n      ...NotificationCourse\n    }\n    studyReport {\n      id\n    }\n    spotLesson {\n      ...NotificationSpotLesson\n    }\n    session {\n      ...NotificationSession\n    }\n    practiceSubmit {\n      ...NotificationPracticeSubmit\n    }\n  }\n}\n    ","\n","\n","\n","\n","\n","\n",""])),Po,Ml,zl,Bl,Ll,Nl,Pl),Fl=Object(Fc.e)(Fn||(Fn=Object(s.a)(["\n    fragment PaymentIntent on PaymentIntent {\n  id\n  amountPaid\n  createdAt\n  charges {\n    receiptURL\n  }\n  paymentIntentPurchaseItems {\n    quantity\n    purchaseItem {\n      name\n    }\n  }\n}\n    "]))),ql=Object(Fc.e)(qn||(qn=Object(s.a)(["\n    fragment ProgramDetail on Program {\n  ...Program\n  summary\n  summaryImage1\n  summaryImage2\n  summaryImage3\n  summaryImage4\n  summaryImage5\n  category\n  programElements {\n    chapter {\n      ...Chapter\n    }\n    practice {\n      ...Practice\n    }\n  }\n  completedProgramElements {\n    chapter {\n      id\n    }\n    practice {\n      id\n    }\n  }\n}\n    ","\n","\n",""])),hl,sl,il),Ql=Object(Fc.e)(Qn||(Qn=Object(s.a)(["\n    fragment PracticeDetail on Practice {\n  id\n  programID\n  program {\n    ...ProgramDetail\n  }\n  title\n  description\n  requireTime\n  content\n  answer\n  type\n  submitPassingCount\n  mySubmit {\n    id\n    practiceSubmitDetails {\n      id\n      reviewStatus\n    }\n  }\n  difficulty\n  status\n  createdAt\n  updatedAt\n}\n    ",""])),ql),Hl=Object(Fc.e)(Hn||(Hn=Object(s.a)(["\n    fragment PracticeSubmitList on PracticeSubmitSearch {\n  id\n  practice {\n    id\n    title\n    type\n    program {\n      id\n      title\n    }\n  }\n  user {\n    ...User\n  }\n  latestPracticeSubmitDetailID\n  latestPracticeSubmitDetailEditedAt\n  reviewStatus\n  reviewedCount\n  isViewable\n  createdAt\n  updatedAt\n}\n    ",""])),Po),Gl=Object(Fc.e)(Gn||(Gn=Object(s.a)(["\n    fragment PracticeSubmitDetailReviewComment on PracticeSubmitDetailReviewComment {\n  id\n  practiceSubmitDetailID\n  userID\n  user {\n    ...User\n  }\n  content\n  createdAt\n  updatedAt\n}\n    ",""])),Po),Yl=Object(Fc.e)(Yn||(Yn=Object(s.a)(["\n    fragment PracticeSubmitDetail on PracticeSubmitDetail {\n  id\n  practiceSubmitID\n  url\n  content\n  reviewStatus\n  editedAt\n  createdAt\n  updatedAt\n  practiceSubmitDetailReviewComment {\n    ...PracticeSubmitDetailReviewComment\n  }\n}\n    ",""])),Gl),Kl=Object(Fc.e)(Kn||(Kn=Object(s.a)(["\n    fragment PracticeSubmit on PracticeSubmit {\n  id\n  practice {\n    ...Practice\n  }\n  user {\n    ...User\n  }\n  createdAt\n  updatedAt\n  practiceSubmitDetails {\n    ...PracticeSubmitDetail\n  }\n}\n    ","\n","\n",""])),il,Po,Yl),Zl=Object(Fc.e)(Zn||(Zn=Object(s.a)(["\n    fragment InstructorPracticeSubmit on InstructorPracticeSubmit {\n  id\n  practice {\n    ...Practice\n  }\n  user {\n    ...User\n  }\n  createdAt\n  updatedAt\n  withoutDraftPracticeSubmitDetails {\n    ...PracticeSubmitDetail\n  }\n}\n    ","\n","\n",""])),il,Po,Yl),Jl=Object(Fc.e)(Jn||(Jn=Object(s.a)(["\n    fragment Prefectures on Prefecture {\n  id\n  name\n  createdAt\n  updatedAt\n}\n    "]))),Wl=Object(Fc.e)(Wn||(Wn=Object(s.a)(["\n    fragment TeamPrice on Price {\n  id\n  recurringIntervalCount\n  unitAmount\n}\n    "]))),Xl=Object(Fc.e)(Xn||(Xn=Object(s.a)(["\n    fragment ProgramSearch on Program {\n  id\n  title\n  description\n  icon\n  programElements {\n    chapter {\n      ...ChapterSearch\n    }\n    practice {\n      ...PracticeSearch\n    }\n  }\n}\n    ","\n",""])),ul,Al),_l=Object(Fc.e)(_n||(_n=Object(s.a)(["\n    fragment ProgramSample on ProgramSample {\n  id\n  title\n  description\n  thumbnail\n  url\n  program {\n    ...ProgramSearchSimple\n  }\n}\n    ",""])),So),$l=Object(Fc.e)($n||($n=Object(s.a)(["\n    fragment ProgramSatisfaction on ProgramSatisfaction {\n  userID\n  programID\n  level\n  comment\n  createdAt\n}\n    "]))),ed=Object(Fc.e)(et||(et=Object(s.a)(["\n    fragment ProgramForProgramSatisfaction on Program {\n  id\n  title\n  programElements {\n    chapter {\n      ...Chapter\n    }\n    practice {\n      ...Practice\n    }\n  }\n  completedProgramElements {\n    chapter {\n      id\n    }\n    practice {\n      id\n    }\n  }\n}\n    ","\n",""])),sl,il),nd=Object(Fc.e)(nt||(nt=Object(s.a)(["\n    fragment PromotionCodeApplyResult on PromotionCodeApplyResult {\n  isValid\n  amountOff\n  percentOff\n  price\n  appliedPrice\n  pvdDuration\n  pvdDurationInMonths\n}\n    "]))),td=Object(Fc.e)(tt||(tt=Object(s.a)(["\n    fragment QuestionList on Question {\n  id\n  title\n  content\n  solved\n  editedAt\n  answerCount\n  answerRequestType\n  status\n  createdAt\n  updatedAt\n  user {\n    ...User\n  }\n  program {\n    id\n    title\n  }\n  chapter {\n    id\n    title\n  }\n  tags {\n    id\n    name\n  }\n}\n    ",""])),Po),id=Object(Fc.e)(it||(it=Object(s.a)(["\n    fragment SessionInstrForInstructor on Session {\n  id\n  title\n  coaching {\n    id\n    course {\n      id\n      student {\n        user {\n          ...User\n        }\n      }\n    }\n  }\n  assignedCoach {\n    id\n    user {\n      ...User\n    }\n  }\n  startAt\n  endAt\n  phase\n  status\n  createdAt\n  updatedAt\n}\n    ",""])),Po),ad=(Object(Fc.e)(at||(at=Object(s.a)(["\n    fragment SessionList on Session {\n  id\n  title\n  startAt\n  endAt\n  phase\n  coaching {\n    id\n    course {\n      student {\n        user {\n          ...User\n        }\n      }\n    }\n  }\n}\n    ",""])),Po),Object(Fc.e)(rt||(rt=Object(s.a)(["\n    fragment SessionListForInstructor on Session {\n  id\n  title\n  startAt\n  endAt\n  phase\n  coaching {\n    id\n    course {\n      student {\n        user {\n          ...User\n        }\n      }\n    }\n  }\n}\n    ",""])),Po)),rd=Object(Fc.e)(ct||(ct=Object(s.a)(["\n    fragment SessionListForStudent on Session {\n  id\n  title\n  startAt\n  endAt\n  phase\n  coaching {\n    id\n    course {\n      plan {\n        name\n      }\n    }\n    coach {\n      user {\n        ...User\n      }\n    }\n  }\n}\n    ",""])),Po),cd=Object(Fc.e)(st||(st=Object(s.a)(["\n    fragment SessionReportPreparation on SessionReportPreparation {\n  id\n  sessionReportID\n  type\n}\n    "]))),sd=Object(Fc.e)(ot||(ot=Object(s.a)(["\n    fragment SessionReportAnnouncement on SessionReportAnnouncement {\n  id\n  sessionReportID\n  type\n}\n    "]))),od=Object(Fc.e)(lt||(lt=Object(s.a)(["\n    fragment SessionReportForInstructor on SessionReport {\n  id\n  sessionID\n  content\n  hasPreparations\n  preparations {\n    ...SessionReportPreparation\n  }\n  preparationOthers\n  isOnSchedule\n  delayReason\n  hasAnnouncements\n  announcements {\n    ...SessionReportAnnouncement\n  }\n  hasAnnouncementsDetail\n  responseDeadline\n  coachingMemo\n}\n    ","\n",""])),cd,sd),ld=Object(Fc.e)(dt||(dt=Object(s.a)(["\n    fragment SpotLesson on SpotLesson {\n  id\n  troubleContent\n  researchContent\n  startAt\n  endAt\n  phase\n  tags {\n    id\n    name\n  }\n  categories {\n    id\n    name\n  }\n  zoomURL\n  instructorUser {\n    ...User\n  }\n  user {\n    ...User\n  }\n}\n    ",""])),Po),dd=Object(Fc.e)(bt||(bt=Object(s.a)(["\n    fragment TimeBlock on SpotLessonTimeBlock {\n  duration\n  disable\n  slotCount\n  reservationCount\n  startAt\n}\n    "]))),bd=Object(Fc.e)(mt||(mt=Object(s.a)(["\n    fragment SpotLessonCalendar on SpotLessonCalendar {\n  date\n  timeBlocks {\n    ...TimeBlock\n  }\n}\n    ",""])),dd),md=Object(Fc.e)(jt||(jt=Object(s.a)(["\n    fragment PricePermission on PricePermission {\n  program\n  studyLog\n  question\n  practice\n  submitPractice\n}\n    "]))),jd=Object(Fc.e)(ut||(ut=Object(s.a)(["\n    fragment StripeStoredSubscription on StripeStoredSubscription {\n  id\n  currentPeriodStart\n  currentPeriodEnd\n  collectionMethod\n  latestInvoice\n  status\n  cancelAtPeriodEnd\n}\n    "]))),ud=Object(Fc.e)(At||(At=Object(s.a)(["\n    fragment StripeSubscription on StripeSubscription {\n  id\n  providerQuantity\n  providerStatus\n  price {\n    id\n    unitAmount\n    isSingleMonthContract\n    isMultiMonthContract\n    numberOfTickets\n    product {\n      id\n      name\n    }\n    pricePermission {\n      ...PricePermission\n    }\n  }\n  stripeSubscriptionResponse {\n    ...StripeStoredSubscription\n  }\n}\n    ","\n",""])),md,jd),Ad=Object(Fc.e)(ht||(ht=Object(s.a)(["\n    fragment StripeInvoice on StripeInvoice {\n  id\n  periodEnd\n  periodStart\n  total\n  invoicePDF\n  created\n  status\n  stripeInvoiceLines {\n    price {\n      productDetail {\n        id\n        name\n      }\n    }\n    periodEnd\n    periodStart\n  }\n}\n    "]))),hd=Object(Fc.e)(pt||(pt=Object(s.a)(["\n    fragment StripePaymentMethod on StripePaymentMethod {\n  id\n  cardNumber\n  cardBrand\n  expireMonth\n  expireYear\n  isDefault\n}\n    "]))),pd=Object(Fc.e)(gt||(gt=Object(s.a)(["\n    fragment StudyFavoriteSummary on StudyFavoriteSummary {\n  user {\n    ...User\n  }\n  studyFavoriteCount\n  studyFavoriteCountWeek\n  studyFavoriteCountMonth\n}\n    ",""])),Po),gd=Object(Fc.e)(Ot||(Ot=Object(s.a)(["\n    fragment StudySummaryList on StudySummary {\n  id\n  studyReportTime\n  studyReportCount\n  studyReportTimeMonth\n  studyReportTimeWeek\n  studyReportRunningLayDays\n  user {\n    ...User\n  }\n}\n    ",""])),Po),Od=Object(Fc.e)(xt||(xt=Object(s.a)(["\n    fragment StudyTagSummaryList on StudyTagSummary {\n  studyReportTime\n  studyReportTimeMonth\n  studyReportTimeWeek\n  tag {\n    id\n    name\n    iconImage\n  }\n}\n    "]))),xd=Object(Fc.e)(ft||(ft=Object(s.a)(["\n    fragment ScheduledSubscriptionContract on ScheduledSubscriptionContract {\n  startDate\n  endDate\n  product {\n    name\n  }\n  quantity\n}\n    "]))),fd=(Object(Fc.e)(vt||(vt=Object(s.a)(["\n    fragment SubscriptionContract on SubscriptionContract {\n  id\n  canceledAt\n  periodStart\n  periodEnd\n}\n    "]))),Object(Fc.e)(wt||(wt=Object(s.a)(["\n    fragment SubscriptionContractForList on SubscriptionContract {\n  id\n  canceledAt\n  periodStart\n  periodEnd\n  endDate\n  price {\n    product {\n      name\n    }\n  }\n}\n    "])))),vd=Object(Fc.e)(Ct||(Ct=Object(s.a)(["\n    fragment SubscriptionCancellationPeriod on SubscriptionCancellationPeriod {\n  startDate\n  endDate\n}\n    "]))),wd=Object(Fc.e)(yt||(yt=Object(s.a)(["\n    fragment Tag on Tag {\n  id\n  name\n  iconImage\n  questionCount\n  studyReportCount\n  overview\n}\n    "]))),Cd=(Object(Fc.e)(Vt||(Vt=Object(s.a)(["\n    fragment Team on Team {\n  image\n  companyName\n  adminEmail\n}\n    "]))),Object(Fc.e)(kt||(kt=Object(s.a)(["\n    fragment MyTeamMember on TeamMember {\n  id\n  teamID\n  role\n  team {\n    companyName\n    image\n    status\n  }\n}\n    "])))),yd=Object(Fc.e)(St||(St=Object(s.a)(["\n    fragment TeamMemberList on TeamMember {\n  id\n  role\n  user {\n    id\n    nickName\n    image\n    completedPrograms {\n      id\n    }\n    totalLessonCount {\n      id\n    }\n    studySummary {\n      studyReportTime\n      studyReportCount\n    }\n  }\n}\n    "]))),Vd=Object(Fc.e)(It||(It=Object(s.a)(["\n    fragment Ticket on Ticket {\n  id\n  expireAt\n}\n    "]))),kd=Object(Fc.e)(Tt||(Tt=Object(s.a)(["\n    fragment TimelineStudyReport on StudyReport {\n  studyReportID: id\n  date\n  content\n  createdAt\n  user {\n    ...User\n  }\n  studyReportDetails {\n    time\n    tag {\n      id\n      iconImage\n      name\n    }\n    program {\n      id\n      title\n      thumbnail\n      icon\n      repository\n    }\n  }\n  studyReportComments {\n    id\n    content\n    createdAt\n    user {\n      ...User\n    }\n  }\n  studyReportFavorites {\n    id\n    userID\n  }\n}\n    ",""])),Po),Sd=Object(Fc.e)(Dt||(Dt=Object(s.a)(["\n    fragment UserPageLayout on User {\n  id\n  nickName\n  isInstructor\n}\n    "]))),Id=Object(Fc.e)(Et||(Et=Object(s.a)(["\n    fragment StudyCalendar on StudyCalendar {\n  id\n  date\n  studyReportTime\n}\n    "]))),Td=Object(Fc.e)(Rt||(Rt=Object(s.a)(["\n    fragment StudyTagSummary on StudyTagSummary {\n  id\n  studyReportTime\n  studyReportTimeMonth\n  studyReportTimeWeek\n  tag {\n    id\n    name\n    iconImage\n  }\n}\n    "]))),Dd=Object(Fc.e)(Mt||(Mt=Object(s.a)(["\n    fragment UserProfile on User {\n  id\n  nickName\n  isInstructor\n  isStudent\n  image\n  profile\n  objective\n  birthday\n  prefecture {\n    name\n  }\n  tags {\n    id\n    name\n  }\n  userTags {\n    id\n    term\n    tag {\n      id\n      name\n    }\n  }\n  studySummary {\n    ...StudySummary\n  }\n  monthlyStudyCalendars {\n    ...StudyCalendar\n  }\n  studyTagSummaries {\n    ...StudyTagSummary\n  }\n  completedPrograms {\n    id\n  }\n  whileStudyingPrograms {\n    id\n  }\n  totalLessonCount {\n    id\n  }\n  questions {\n    id\n  }\n}\n    ","\n","\n",""])),No,Id,Td),Ed=Object(Fc.e)(zt||(zt=Object(s.a)(["\n    fragment UserProgram on Program {\n  id\n  icon\n  thumbnail\n  title\n  description\n  questionCount\n  answerCount\n  chapterCount\n  requireTime\n  studyLogCount(userID: $id)\n  tags {\n    ...ProgramTag\n  }\n  completedTime(userID: $id)\n}\n    ",""])),tl),Rd=(Object(Fc.e)(Bt||(Bt=Object(s.a)(["\n    fragment IconUser on User {\n  id\n  image\n  isAI\n  isAdmin\n  isInstructor\n  isStudent\n  instructor {\n    isCoach\n  }\n  maskedPersonalInfo {\n    name\n  }\n  nickName\n  snsType\n}\n    "]))),Object(Fc.e)(Lt||(Lt=Object(s.a)(["\n    fragment CurrentUser on User {\n  id\n  snsType\n  status\n  isAdmin\n  isInstructor\n  sex\n  job\n  birthday\n  profile\n  objective\n  nickName\n  createdAt\n  tags {\n    id\n    name\n  }\n  userTags {\n    id\n    term\n    tag {\n      id\n      name\n    }\n  }\n  instructor {\n    id\n    isCoach\n  }\n  isStudent\n  image\n  personalInfo {\n    name\n    kanaName\n    email\n  }\n  student {\n    id\n    status\n    courses {\n      coaching {\n        id\n      }\n    }\n  }\n  prefecture {\n    id\n    name\n  }\n  maskedPersonalInfo {\n    name\n  }\n}\n    "])))),Md=Object(Fc.e)(Nt||(Nt=Object(s.a)(["\n    fragment ContractOfStripeSubscriptionForAnalytics on ContractOfStripeSubscriptionForAnalytics {\n  contractDetailForAnalytics {\n    productID\n    productName\n    periodStart\n    periodEnd\n    canceledAt\n  }\n  stripeCustomerType\n}\n    "]))),zd=Object(Fc.e)(Pt||(Pt=Object(s.a)(["\n    fragment CurrentPermissionList on PermissionList {\n  roles\n  teamIDs\n  teamIDsForTeamAdmin\n}\n    "]))),Bd=Object(Fc.e)(Ut||(Ut=Object(s.a)(["\n    fragment CurrentUserWithPermissionList on UserWithPermissionList {\n  user {\n    ...CurrentUser\n  }\n  contractsOfStripeSubscriptionForAnalytics {\n    ...ContractOfStripeSubscriptionForAnalytics\n  }\n  permissionList {\n    ...CurrentPermissionList\n  }\n}\n    ","\n","\n",""])),Rd,Md,zd),Ld=Object(Fc.e)(Ft||(Ft=Object(s.a)(["\n    query getAbTestDeliveries {\n  abTestDeliveries {\n    ...AbTestDelivery\n  }\n}\n    ",""])),Co);const Nd=Object(Fc.e)(qt||(qt=Object(s.a)(["\n    query getBannerCids($targetType: BannerTargetType!, $cidTypes: [BannerCidType!]!, $limit: Uint64!) {\n  bannerCids(input: {targetType: $targetType, cidTypes: $cidTypes, limit: $limit}) {\n    ...BannerCid\n  }\n}\n    ",""])),yo);const Pd=Object(Fc.e)(Qt||(Qt=Object(s.a)(["\n    query getCampaign {\n  getCampaign {\n    ...Campaign\n  }\n}\n    ",""])),Vo);function Ud(e){const n={...Yc,...e};return qc.b(Pd,n)}const Fd=Object(Fc.e)(Ht||(Ht=Object(s.a)(["\n    query getCategories {\n  categories {\n    ...Category\n  }\n}\n    ",""])),ko);const qd=Object(Fc.e)(Gt||(Gt=Object(s.a)(["\n    query getChapter($chapterID: Uint64!, $includeExam: Boolean!) {\n  chapter(chapterID: $chapterID) {\n    ...Chapter\n  }\n  programExam(chapterID: $chapterID) @include(if: $includeExam) {\n    ...ExamQuestion\n  }\n}\n    ","\n",""])),sl,cl);const Qd=Object(Fc.e)(Yt||(Yt=Object(s.a)(["\n    query getChatMessages($chatRoomID: Uint64!, $first: Int!, $after: String) {\n  chatMessages(chatRoomID: $chatRoomID, first: $first, after: $after) {\n    edges {\n      ...ChatMessageEdge\n    }\n    pageInfo {\n      ...PageInfo\n    }\n  }\n}\n    ","\n",""])),Eo,qo);const Hd=Object(Fc.e)(Kt||(Kt=Object(s.a)(["\n    query getChatMessageUnreadCount($chatRoomID: Uint64) {\n  chatMessageUnreadCount(chatRoomID: $chatRoomID)\n}\n    "])));const Gd=Object(Fc.e)(Zt||(Zt=Object(s.a)(["\n    mutation readAllChatMessage($chatRoomID: Uint64!) {\n  readAllChatMessage(chatRoomID: $chatRoomID) {\n    chatRoomID\n    result\n  }\n}\n    "])));const Yd=Object(Fc.e)(Jt||(Jt=Object(s.a)(["\n    mutation createChatMessage($input: ChatMessageCreateInput!) {\n  createChatMessage(input: $input) {\n    ...ChatMessageList\n  }\n}\n    ",""])),Do);const Kd=Object(Fc.e)(Wt||(Wt=Object(s.a)(["\n    mutation updateChatMessage($id: Uint64!, $input: ChatMessageUpdateInput!) {\n  updateChatMessage(id: $id, input: $input) {\n    ...ChatMessageList\n  }\n}\n    ",""])),Do);const Zd=Object(Fc.e)(Xt||(Xt=Object(s.a)(["\n    mutation deleteChatMessage($id: Uint64!) {\n  deleteChatMessage(id: $id) {\n    ...ChatMessageList\n  }\n}\n    ",""])),Do);const Jd=Object(Fc.e)(_t||(_t=Object(s.a)(["\n    subscription chatMessagePosted($chatRoomID: Uint64!) {\n  chatMessagePosted(chatRoomID: $chatRoomID) {\n    ...ChatMessageList\n  }\n}\n    ",""])),Do);const Wd=Object(Fc.e)($t||($t=Object(s.a)(["\n    query getChatMessageDraft($chatRoomID: Uint64!) {\n  chatMessageDraft(chatRoomID: $chatRoomID) {\n    ...ChatMessageDraft\n  }\n}\n    ",""])),Ro);const Xd=Object(Fc.e)(ei||(ei=Object(s.a)(["\n    mutation upsertChatMessageDraft($chatRoomID: Uint64!, $content: String!) {\n  upsertChatMessageDraft(chatRoomID: $chatRoomID, content: $content)\n}\n    "])));const _d=Object(Fc.e)(ni||(ni=Object(s.a)(["\n    mutation deleteChatMessageDraft($chatRoomID: Uint64!) {\n  deleteChatMessageDraft(chatRoomID: $chatRoomID)\n}\n    "])));const $d=Object(Fc.e)(ti||(ti=Object(s.a)(["\n    query getChatRooms($first: Int!, $after: Time) {\n  chatRooms(first: $first, after: $after) {\n    items {\n      ...ChatRoomList\n    }\n    pageInfo {\n      ...PageInfo\n    }\n  }\n}\n    ","\n",""])),Bo,qo);const eb=Object(Fc.e)(ii||(ii=Object(s.a)(["\n    subscription chatRoomContentChanged {\n  chatRoomContentChanged {\n    ...ChatRoomList\n  }\n}\n    ",""])),Bo);const nb=Object(Fc.e)(ai||(ai=Object(s.a)(["\n    query getClaimAndDetailsForInstructor($yearMonth: Time!, $input: InstructorClaimDetailSearchInput) {\n  claimForInstructor(yearMonth: $yearMonth) {\n    ...Claim\n  }\n  claimDetailsForInstructor(yearMonth: $yearMonth, input: $input) {\n    ...ClaimDetail\n  }\n}\n    ","\n",""])),Lo,Uo);const tb=Object(Fc.e)(ri||(ri=Object(s.a)(["\n    query getClaimCategoriesForInstructor {\n  claimCategoriesForInstructor {\n    ...ClaimCategory\n  }\n}\n    ",""])),Fo);function ib(e){const n={...Yc,...e};return qc.b(tb,n)}const ab=Object(Fc.e)(ci||(ci=Object(s.a)(["\n    mutation addClaimDetailForInstructor($yearMonth: Time!, $input: ClaimDetailInput!) {\n  createClaimDetailForInstructor(yearMonth: $yearMonth, input: $input) {\n    id\n  }\n}\n    "])));const rb=Object(Fc.e)(si||(si=Object(s.a)(["\n    mutation updateClaimDetailForInstructor($id: Uint64!, $input: ClaimDetailInput!) {\n  updateClaimDetailForInstructor(id: $id, input: $input) {\n    id\n  }\n}\n    "])));const cb=Object(Fc.e)(oi||(oi=Object(s.a)(["\n    mutation deleteClaimDetailForInstructor($id: Uint64!) {\n  deleteClaimDetailForInstructor(id: $id)\n}\n    "])));const sb=Object(Fc.e)(li||(li=Object(s.a)(["\n    mutation applyClaimForInstructor($yearMonth: Time!, $input: ClaimInput!) {\n  applyClaimForInstructor(yearMonth: $yearMonth, input: $input) {\n    id\n  }\n}\n    "])));const ob=Object(Fc.e)(di||(di=Object(s.a)(["\n    query getCoursesForInstructor($input: InstructorCourseSearchInput!) {\n  coursesForInstructor(input: $input) {\n    ...Course\n  }\n}\n    ",""])),Ho);function lb(e){const n={...Yc,...e};return qc.b(ob,n)}const db=Object(Fc.e)(bi||(bi=Object(s.a)(["\n    query getCoursesForInstructorCreateLessonList($input: InstructorCourseSearchInput!) {\n  coursesForInstructor(input: $input) {\n    ...CourseNewLesson\n  }\n}\n    ",""])),Zo);const bb=Object(Fc.e)(mi||(mi=Object(s.a)(["\n    query getCoursesForInstructorCourseList($input: InstructorCourseSearchInput!) {\n  coursesForInstructor(input: $input) {\n    ...CourseList\n  }\n}\n    ",""])),Go);function mb(e){const n={...Yc,...e};return qc.b(bb,n)}const jb=Object(Fc.e)(ji||(ji=Object(s.a)(["\n    query getActiveCoursesForInstructor($input: InstructorCourseSearchWithStudentNameInput!) {\n  activeCoursesForInstructor(input: $input) {\n    ...CourseList\n  }\n}\n    ",""])),Go);const ub=Object(Fc.e)(ui||(ui=Object(s.a)(["\n    query getCourseForInstructor($id: Uint64!) {\n  courseForInstructor(id: $id) {\n    ...Course\n  }\n}\n    ",""])),Ho);const Ab=Object(Fc.e)(Ai||(Ai=Object(s.a)(["\n    query getHistoricalCoursesForInstructor($userName: String) {\n  historicalCoursesForInstructor(userName: $userName) {\n    ...HistoricalCourse\n  }\n}\n    ",""])),Ko);function hb(e){const n={...Yc,...e};return Qc.a(Ab,n)}const pb=Object(Fc.e)(hi||(hi=Object(s.a)(["\n    query getCoursesForStudentHome {\n  coursesForStudent(input: {type: ALL}) {\n    ...StudentCourse\n  }\n}\n    ",""])),Yo);const gb=Object(Fc.e)(pi||(pi=Object(s.a)(["\n    mutation updateCourse($id: Uint64!, $input: InstructorCourseInput!) {\n  updateCourseForInstructor(id: $id, input: $input) {\n    id\n  }\n}\n    "])));const Ob=Object(Fc.e)(gi||(gi=Object(s.a)(["\n    query getCoursePrograms($input: CourseProgramSearchInput) {\n  coursePrograms(input: $input) {\n    ...CourseProgram\n  }\n}\n    ",""])),nl);function xb(e){const n={...Yc,...e};return qc.b(Ob,n)}const fb=Object(Fc.e)(Oi||(Oi=Object(s.a)(["\n    query getCourseProgram($id: ULID!, $userID: Uint64) {\n  courseProgram(courseProgramID: $id) {\n    ...CourseProgramDetail\n  }\n}\n    ",""])),$o);const vb=Object(Fc.e)(xi||(xi=Object(s.a)(["\n    mutation startCourseProgram($id: ULID!) {\n  startCourseProgram(id: $id) {\n    createdAt\n  }\n}\n    "])));const wb=Object(Fc.e)(fi||(fi=Object(s.a)(["\n    query searchDocuments($input: DocumentSearchInput!, $userID: Uint64) {\n  searchDocuments(input: $input) {\n    items {\n      ...DocumentList\n    }\n    total\n  }\n}\n    ",""])),Cl);const Cb=Object(Fc.e)(vi||(vi=Object(s.a)(["\n    query getCountByDocumentType($input: CountSearchInput) {\n  countByDocumentType(input: $input) {\n    documentType\n    count\n  }\n}\n    "])));const yb=Object(Fc.e)(wi||(wi=Object(s.a)(["\n    query getCountByTags($input: CountSearchInput, $tagIDs: [Uint64!]) {\n  countByTags(input: $input, tagIDs: $tagIDs) {\n    tagID\n    count\n    tag {\n      ...Tag\n    }\n  }\n}\n    ",""])),wd);const Vb=Object(Fc.e)(Ci||(Ci=Object(s.a)(["\n    query getProgramExam($chapterID: Uint64!) {\n  programExam(chapterID: $chapterID) {\n    ...ExamQuestion\n  }\n  chapter(chapterID: $chapterID) {\n    ...Chapter\n  }\n}\n    ","\n",""])),cl,sl);const kb=Object(Fc.e)(yi||(yi=Object(s.a)(["\n    query getTotalMedalCounts {\n  totalMedalCounts {\n    programID\n    medalCounts\n  }\n}\n    "])));const Sb=Object(Fc.e)(Vi||(Vi=Object(s.a)(["\n    mutation answerExam($input: AnswerExamInput!) {\n  answerExam(input: $input) {\n    ExamScore {\n      ...ExamScore\n    }\n    answerResponses {\n      ...AnswerResponse\n    }\n  }\n}\n    ","\n",""])),al,yl);const Ib=Object(Fc.e)(ki||(ki=Object(s.a)(["\n    query getFeedbackCategories($first: Int!, $after: Uint64!) {\n  feedbackCategories(first: $first, after: $after) {\n    items {\n      id\n      name\n    }\n  }\n}\n    "])));function Tb(e){const n={...Yc,...e};return qc.b(Ib,n)}const Db=Object(Fc.e)(Si||(Si=Object(s.a)(["\n    mutation uploadFiles($files: [Upload!]!) {\n  uploadFiles(input: {files: $files, isImage: false}) {\n    ...UploadFile\n  }\n}\n    ",""])),Vl);const Eb=Object(Fc.e)(Ii||(Ii=Object(s.a)(["\n    mutation uploadImages($files: [Upload!]!) {\n  uploadFiles(input: {files: $files, isImage: true}) {\n    ...UploadFile\n  }\n}\n    ",""])),Vl);function Rb(e){const n={...Yc,...e};return Hc.a(Eb,n)}const Mb=Object(Fc.e)(Ti||(Ti=Object(s.a)(["\n    query getCalendarForInstructor {\n  calendarForInstructor {\n    id\n  }\n}\n    "])));Object(Fc.e)(Di||(Di=Object(s.a)(["\n    query getInstructorSchedule($id: Uint64!) {\n  instructorSchedule(id: $id) {\n    ...InstructorSchedule\n  }\n}\n    ",""])),kl);const zb=Object(Fc.e)(Ei||(Ei=Object(s.a)(["\n    query getInstructorSchedules($from: Time!, $to: Time!) {\n  instructorSchedules(from: $from, to: $to) {\n    ...InstructorSchedule\n  }\n}\n    ",""])),kl);const Bb=Object(Fc.e)(Ri||(Ri=Object(s.a)(["\n    mutation createInstructorSchedule($input: InstructorScheduleInput!) {\n  createInstructorSchedule(input: $input)\n}\n    "])));const Lb=Object(Fc.e)(Mi||(Mi=Object(s.a)(["\n    mutation deleteInstructorSchedule($id: Uint64!) {\n  deleteInstructorSchedule(id: $id)\n}\n    "])));const Nb=Object(Fc.e)(zi||(zi=Object(s.a)(["\n    mutation updateInstructorSchedule($id: Uint64!, $input: InstructorScheduleInput!) {\n  updateInstructorSchedule(id: $id, input: $input)\n}\n    "])));const Pb=Object(Fc.e)(Bi||(Bi=Object(s.a)(["\n    query getNextLessonForStudent {\n  nextLessonForStudent {\n    ...StudentLesson\n  }\n}\n    ",""])),Tl);function Ub(e){const n={...Yc,...e};return qc.b(Pb,n)}const Fb=Object(Fc.e)(Li||(Li=Object(s.a)(["\n    query getLessonsForStudent {\n  lessonsForStudent {\n    ...StudentLesson\n  }\n}\n    ",""])),Tl);const qb=Object(Fc.e)(Ni||(Ni=Object(s.a)(["\n    query getNextLessonForInstructor {\n  nextLessonForInstructor {\n    ...InstructorLesson\n  }\n}\n    ",""])),Il);const Qb=Object(Fc.e)(Pi||(Pi=Object(s.a)(["\n    query getLessonsForInstructor($input: InstructorLessonSearchInput) {\n  lessonsForInstructor(input: $input) {\n    ...InstructorLesson\n  }\n}\n    ",""])),Il);const Hb=Object(Fc.e)(Ui||(Ui=Object(s.a)(["\n    query getLessonForInstructor($lessonID: Uint64!) {\n  lessonForInstructor(id: $lessonID) {\n    ...InstructorLesson\n  }\n}\n    ",""])),Il);const Gb=Object(Fc.e)(Fi||(Fi=Object(s.a)(["\n    query getLessonAssistances {\n  lessonAssistances {\n    ...LessonsAssistance\n  }\n}\n    ",""])),Sl);const Yb=Object(Fc.e)(qi||(qi=Object(s.a)(["\n    mutation createLessonForInstructor($courseID: Uint64!, $input: LessonInput!) {\n  createLessonForInstructor(courseID: $courseID, input: $input) {\n    id\n  }\n}\n    "])));const Kb=Object(Fc.e)(Qi||(Qi=Object(s.a)(["\n    mutation updateLessonForInstructor($lessonID: Uint64!, $input: LessonInput!) {\n  updateLessonForInstructor(lessonID: $lessonID, input: $input) {\n    id\n  }\n}\n    "])));const Zb=Object(Fc.e)(Hi||(Hi=Object(s.a)(["\n    mutation upsertLessonReportForInstructor($lessonID: Uint64!, $input: LessonReportInput!) {\n  upsertLessonReportForInstructor(lessonID: $lessonID, input: $input) {\n    id\n  }\n}\n    "])));const Jb=Object(Fc.e)(Gi||(Gi=Object(s.a)(["\n    mutation deleteLessonForInstructor($lessonID: Uint64!) {\n  deleteLessonForInstructor(lessonID: $lessonID)\n}\n    "])));const Wb=Object(Fc.e)(Yi||(Yi=Object(s.a)(["\n    query getMailSetting {\n  getMailSetting {\n    ...MailSetting\n  }\n}\n    ",""])),Dl);const Xb=Object(Fc.e)(Ki||(Ki=Object(s.a)(["\n    mutation updateMailSetting($input: MailSettingInput!) {\n  updateMailSetting(input: $input) {\n    id\n  }\n}\n    "])));const _b=Object(Fc.e)(Zi||(Zi=Object(s.a)(["\n    query getLatestModal($modalType: ModalType!) {\n  latest(modalType: $modalType) {\n    ...Modal\n  }\n}\n    ",""])),El);const $b=Object(Fc.e)(Ji||(Ji=Object(s.a)(["\n    mutation readModal($id: Uint64!) {\n  readModal(id: $id)\n}\n    "])));const em=Object(Fc.e)(Wi||(Wi=Object(s.a)(["\n    query getNotices($first: Int!, $after: Uint64) {\n  notices(first: $first, after: $after) {\n    items {\n      ...Notice\n    }\n    pageInfo {\n      ...PageInfo\n    }\n  }\n}\n    ","\n",""])),Rl,qo);const nm=Object(Fc.e)(Xi||(Xi=Object(s.a)(["\n    query getNotice($id: Uint64!) {\n  notice(id: $id) {\n    ...Notice\n  }\n}\n    ",""])),Rl);const tm=Object(Fc.e)(_i||(_i=Object(s.a)(["\n    mutation readNotice($id: Uint64!) {\n  readNotice(id: $id) {\n    ...Notice\n  }\n}\n    ",""])),Rl);const im=Object(Fc.e)($i||($i=Object(s.a)(["\n    query getNotifications($first: Int!, $after: String) {\n  getNotifications(first: $first, after: $after) {\n    items {\n      ...Notification\n    }\n    pageInfo {\n      ...PageInfo\n    }\n  }\n}\n    ","\n",""])),Ul,qo);const am=Object(Fc.e)(ea||(ea=Object(s.a)(["\n    mutation readNotifications($first: Int!, $after: String) {\n  readNotifications(first: $first, after: $after) {\n    result\n  }\n}\n    "])));const rm=Object(Fc.e)(na||(na=Object(s.a)(["\n    query getNotificationUnreadCount {\n  getNotificationUnreadCount {\n    count\n  }\n  noticeUnreadCount\n}\n    "])));const cm=Object(Fc.e)(ta||(ta=Object(s.a)(["\n    query onboarding {\n  onboarding {\n    isShowOnboarding\n    isShowProfile\n    isCompletedProfile\n    isShowProgram\n    isCompletedProgram\n    isShowStudyReport\n    isCompletedStudyReport\n    isShowQuestion\n    isCompletedQuestion\n    isShowSpotLesson\n    isCompletedSpotLesson\n  }\n}\n    "])));const sm=Object(Fc.e)(ia||(ia=Object(s.a)(["\n    query getPaymentIntents($input: PaymentIntentSearchInput!) {\n  getPaymentIntents(input: $input) {\n    total\n    items {\n      ...PaymentIntent\n    }\n  }\n}\n    ",""])),Fl);const om=Object(Fc.e)(aa||(aa=Object(s.a)(["\n    query getPractice($practiceID: ULID!, $userID: Uint64) {\n  practice(practiceID: $practiceID) {\n    ...PracticeDetail\n  }\n}\n    ",""])),Ql);function lm(e){const n={...Yc,...e};return qc.b(om,n)}const dm=Object(Fc.e)(ra||(ra=Object(s.a)(["\n    query getPractices($input: PracticeSearchInput!) {\n  practices(input: $input) {\n    items {\n      ...Practice\n    }\n    total\n  }\n}\n    ",""])),il);const bm=Object(Fc.e)(ca||(ca=Object(s.a)(["\n    query getPracticeSubmits($input: PracticeSubmitSearchInput!) {\n  getPracticeSubmits(input: $input) {\n    items {\n      ...PracticeSubmitList\n    }\n    total\n  }\n}\n    ",""])),Hl);function mm(e){const n={...Yc,...e};return qc.b(bm,n)}const jm=Object(Fc.e)(sa||(sa=Object(s.a)(["\n    query getPracticeSubmitsForInstructor($input: InstructorPracticeSubmitSearchInput!) {\n  getPracticeSubmitsForInstructor(input: $input) {\n    items {\n      ...PracticeSubmitList\n    }\n    total\n  }\n}\n    ",""])),Hl);function um(e){const n={...Yc,...e};return qc.b(jm,n)}const Am=Object(Fc.e)(oa||(oa=Object(s.a)(["\n    query getPracticeSubmit($id: ULID!) {\n  getPracticeSubmit(id: $id) {\n    ...PracticeSubmit\n  }\n}\n    ",""])),Kl);function hm(e){const n={...Yc,...e};return qc.b(Am,n)}const pm=Object(Fc.e)(la||(la=Object(s.a)(["\n    query getPracticeSubmitForInstructor($id: ULID!) {\n  getPracticeSubmitForInstructor(id: $id) {\n    ...InstructorPracticeSubmit\n  }\n}\n    ",""])),Zl);const gm=Object(Fc.e)(da||(da=Object(s.a)(["\n    mutation newPracticeSubmit($input: PracticeSubmitInput!) {\n  newPracticeSubmit(input: $input) {\n    id\n    practiceSubmitDetails {\n      id\n    }\n  }\n}\n    "])));function Om(e){const n={...Yc,...e};return Hc.a(gm,n)}const xm=Object(Fc.e)(ba||(ba=Object(s.a)(["\n    mutation rePracticeSubmit($input: RePracticeSubmitInput!) {\n  rePracticeSubmit(input: $input) {\n    id\n    practiceSubmitDetails {\n      id\n    }\n  }\n}\n    "])));function fm(e){const n={...Yc,...e};return Hc.a(xm,n)}const vm=Object(Fc.e)(ma||(ma=Object(s.a)(["\n    mutation updatePracticeSubmit($input: UpdatePracticeSubmitInput!) {\n  updatePracticeSubmit(input: $input) {\n    id\n    practiceSubmitDetails {\n      id\n    }\n  }\n}\n    "])));const wm=Object(Fc.e)(ja||(ja=Object(s.a)(["\n    mutation createPracticeSubmitDetailReviewComment($input: PracticeSubmitDetailReviewCommentInput!) {\n  createPracticeSubmitDetailReviewComment(input: $input) {\n    id\n  }\n}\n    "])));const Cm=Object(Fc.e)(ua||(ua=Object(s.a)(["\n    mutation updatePracticeSubmitDetailReviewComment($input: UpdatePracticeSubmitDetailReviewCommentInput!) {\n  updatePracticeSubmitDetailReviewComment(input: $input) {\n    id\n  }\n}\n    "])));Object(Fc.e)(Aa||(Aa=Object(s.a)(["\n    query getPrefecture($id: Uint64!) {\n  getPrefecture(id: $id) {\n    ...Prefectures\n  }\n}\n    ",""])),Jl);const ym=Object(Fc.e)(ha||(ha=Object(s.a)(["\n    query getPrefectures {\n  getPrefectures {\n    ...Prefectures\n  }\n}\n    ",""])),Jl);const Vm=Object(Fc.e)(pa||(pa=Object(s.a)(["\n    query getTeamPrices($paymentMethodType: PaymentMethodType!) {\n  teamPrices(paymentMethodType: $paymentMethodType) {\n    ...TeamPrice\n  }\n}\n    ",""])),Wl);function km(e){const n={...Yc,...e};return qc.b(Vm,n)}const Sm=Object(Fc.e)(ga||(ga=Object(s.a)(["\n    query getPrice($id: Uint64!) {\n  getPrice(id: $id) {\n    id\n    product {\n      id\n      name\n      productExtension {\n        contractPeriod\n        contractPeriodTypeLabel\n        isMultiMonthContract\n      }\n    }\n    unitAmountIncludingTax\n  }\n}\n    "])));Object(Fc.e)(Oa||(Oa=Object(s.a)(["\n    query getProduct($id: Uint64!) {\n  getProduct(id: $id) {\n    id\n    name\n    price {\n      unitAmountIncludingTax\n    }\n    productExtension {\n      contractPeriod\n      contractPeriodTypeLabel\n      isMultiMonthContract\n    }\n  }\n}\n    "])));const Im=Object(Fc.e)(xa||(xa=Object(s.a)(["\n    query getPrograms($input: ProgramSearchInput!, $userID: Uint64) {\n  programs(input: $input) {\n    items {\n      ...Program\n    }\n  }\n}\n    ",""])),hl);function Tm(e){const n={...Yc,...e};return qc.b(Im,n)}const Dm=Object(Fc.e)(fa||(fa=Object(s.a)(["\n    query searchPrograms($input: ProgramSearchInput!) {\n  programs(input: $input) {\n    items {\n      ...ProgramSearch\n    }\n  }\n}\n    ",""])),Xl);function Em(e){const n={...Yc,...e};return qc.b(Dm,n)}function Rm(e){const n={...Yc,...e};return Qc.a(Dm,n)}const Mm=Object(Fc.e)(va||(va=Object(s.a)(["\n    query getProgram($programID: Uint64!, $userID: Uint64) {\n  program(programID: $programID) {\n    ...ProgramDetail\n  }\n}\n    ",""])),ql);function zm(e){const n={...Yc,...e};return qc.b(Mm,n)}const Bm=Object(Fc.e)(wa||(wa=Object(s.a)(["\n    query getLastStudiedWhileStudyingProgram($userID: Uint64) {\n  lastStudiedWhileStudyingProgram {\n    ...ProgramDetail\n  }\n}\n    ",""])),ql);const Lm=Object(Fc.e)(Ca||(Ca=Object(s.a)(["\n    mutation createProgramFeedback($input: ProgramFeedbackInput!) {\n  createProgramFeedback(input: $input) {\n    id\n  }\n}\n    "])));function Nm(e){const n={...Yc,...e};return Hc.a(Lm,n)}const Pm=Object(Fc.e)(ya||(ya=Object(s.a)(["\n    query getProgramSamples($input: ProgramSampleSearchInput!) {\n  getProgramSamples(input: $input) {\n    items {\n      ...ProgramSample\n    }\n  }\n}\n    ",""])),_l);const Um=Object(Fc.e)(Va||(Va=Object(s.a)(["\n    query getProgramSatisfaction($programID: Uint64!) {\n  programSatisfaction(programID: $programID) {\n    ...ProgramSatisfaction\n  }\n  program(programID: $programID) {\n    ...ProgramForProgramSatisfaction\n  }\n}\n    ","\n",""])),$l,ed);const Fm=Object(Fc.e)(ka||(ka=Object(s.a)(["\n    mutation createProgramSatisfaction($input: ProgramSatisfactionInput!) {\n  createProgramSatisfaction(input: $input) {\n    ...ProgramSatisfaction\n  }\n}\n    ",""])),$l);const qm=Object(Fc.e)(Sa||(Sa=Object(s.a)(["\n    query applyPromotionCode($promotionCode: String!, $priceID: Uint64!) {\n  applyPromotionCode(promotionCode: $promotionCode, priceID: $priceID) {\n    ...PromotionCodeApplyResult\n  }\n}\n    ",""])),nd);const Qm=Object(Fc.e)(Ia||(Ia=Object(s.a)(["\n    query getQuestions($input: QuestionSearchInput!) {\n  getQuestions(input: $input) {\n    items {\n      ...QuestionList\n    }\n    total\n  }\n}\n    ",""])),td);function Hm(e){const n={...Yc,...e};return qc.b(Qm,n)}const Gm=Object(Fc.e)(Ta||(Ta=Object(s.a)(["\n    query getQuestion($questionID: Uint64!) {\n  getQuestion(id: $questionID) {\n    ...Question\n  }\n}\n    ",""])),bl);function Ym(e){const n={...Yc,...e};return qc.b(Gm,n)}const Km=Object(Fc.e)(Da||(Da=Object(s.a)(["\n    mutation resolveQuestion($questionID: Uint64!) {\n  resolveQuestion(id: $questionID) {\n    id\n  }\n}\n    "])));const Zm=Object(Fc.e)(Ea||(Ea=Object(s.a)(["\n    mutation addQuestion($input: QuestionInput!) {\n  addQuestion(input: $input) {\n    id\n  }\n}\n    "])));const Jm=Object(Fc.e)(Ra||(Ra=Object(s.a)(["\n    mutation updateQuestion($id: Uint64!, $input: QuestionInput!) {\n  updateQuestion(id: $id, input: $input) {\n    id\n  }\n}\n    "])));const Wm=Object(Fc.e)(Ma||(Ma=Object(s.a)(["\n    mutation addQuestionAnswer($questionID: Uint64!, $input: QuestionAnswerInput!, $isEscalation: Boolean!) {\n  addQuestionAnswer(\n    questionID: $questionID\n    input: $input\n    isEscalation: $isEscalation\n  ) {\n    id\n  }\n}\n    "])));const Xm=Object(Fc.e)(za||(za=Object(s.a)(["\n    mutation updateQuestionAnswer($id: Uint64!, $input: QuestionAnswerInput!) {\n  updateQuestionAnswer(id: $id, input: $input) {\n    id\n  }\n}\n    "])));const _m=Object(Fc.e)(Ba||(Ba=Object(s.a)(["\n    mutation addQuestionComment($questionAnswerID: Uint64!, $input: QuestionCommentInput!) {\n  addQuestionComment(questionAnswerID: $questionAnswerID, input: $input) {\n    id\n  }\n}\n    "])));const $m=Object(Fc.e)(La||(La=Object(s.a)(["\n    mutation addQuestionAnswerEvaluation($input: QuestionAnswerEvaluationInput!) {\n  addQuestionAnswerEvaluation(input: $input) {\n    id\n  }\n}\n    "])));const ej=Object(Fc.e)(Na||(Na=Object(s.a)(["\n    mutation updateQuestionComment($id: Uint64!, $input: QuestionCommentInput!) {\n  updateQuestionComment(id: $id, input: $input) {\n    id\n  }\n}\n    "])));const nj=Object(Fc.e)(Pa||(Pa=Object(s.a)(["\n    mutation changeQuestionFavoriteStatus($questionID: Uint64!) {\n  changeQuestionFavoriteStatus(questionID: $questionID) {\n    userID\n  }\n}\n    "])));const tj=Object(Fc.e)(Ua||(Ua=Object(s.a)(["\n    mutation changeQuestionAnswerFavoriteStatus($questionAnswerID: Uint64!) {\n  changeQuestionAnswerFavoriteStatus(questionAnswerID: $questionAnswerID) {\n    userID\n  }\n}\n    "])));const ij=Object(Fc.e)(Fa||(Fa=Object(s.a)(["\n    mutation NewRegisteredQuestionnaire($questionnaireInput: NewRegisteredQuestionnaireInput!) {\n  NewRegisteredQuestionnaire(questionnaireInput: $questionnaireInput)\n}\n    "])));function aj(e){const n={...Yc,...e};return Hc.a(ij,n)}const rj=Object(Fc.e)(qa||(qa=Object(s.a)(["\n    mutation RechargeRegisteredQuestionnaire($questionnaireInput: RechargeRegisteredQuestionnaireInput!) {\n  RechargeRegisteredQuestionnaire(questionnaireInput: $questionnaireInput)\n}\n    "])));function cj(e){const n={...Yc,...e};return Hc.a(rj,n)}const sj=Object(Fc.e)(Qa||(Qa=Object(s.a)(["\n    query getNextSessionForStudent {\n  nextSessionForStudent {\n    ...SessionListForStudent\n  }\n}\n    ",""])),rd);const oj=Object(Fc.e)(Ha||(Ha=Object(s.a)(["\n    query getNextSessionForInstructor {\n  nextSessionForInstructor {\n    ...SessionInstrForInstructor\n  }\n}\n    ",""])),id);const lj=Object(Fc.e)(Ga||(Ga=Object(s.a)(["\n    query getSessionsForInstructor($input: SessionSearchInput!) {\n  sessionsForInstructor(input: $input) {\n    ...SessionListForInstructor\n  }\n}\n    ",""])),ad);const dj=Object(Fc.e)(Ya||(Ya=Object(s.a)(["\n    query getSessionAndSessionReportForInstructor($sessionID: ULID!) {\n  session(id: $sessionID) {\n    ...SessionInstrForInstructor\n  }\n  sessionReportBySessionIDForInstructor(sessionID: $sessionID) {\n    ...SessionReportForInstructor\n  }\n}\n    ","\n",""])),id,od);const bj=Object(Fc.e)(Ka||(Ka=Object(s.a)(["\n    query getSessionsForStudent {\n  sessionsForStudent {\n    ...SessionListForStudent\n  }\n}\n    ",""])),rd);const mj=Object(Fc.e)(Za||(Za=Object(s.a)(["\n    mutation createSession($coachingID: ULID!, $input: SessionInput!) {\n  createSession(coachingID: $coachingID, input: $input) {\n    id\n  }\n}\n    "])));const jj=Object(Fc.e)(Ja||(Ja=Object(s.a)(["\n    mutation updateSession($id: ULID!, $input: SessionInput!) {\n  updateSession(id: $id, input: $input) {\n    id\n  }\n}\n    "])));const uj=Object(Fc.e)(Wa||(Wa=Object(s.a)(["\n    mutation createSessionReport($id: ULID!, $input: SessionReportInput!) {\n  createSessionReport(id: $id, input: $input) {\n    id\n  }\n}\n    "])));const Aj=Object(Fc.e)(Xa||(Xa=Object(s.a)(["\n    mutation updateSessionReport($id: ULID!, $input: SessionReportInput!) {\n  updateSessionReport(id: $id, input: $input) {\n    id\n  }\n}\n    "])));const hj=Object(Fc.e)(_a||(_a=Object(s.a)(["\n    mutation buyTicket {\n  buyTicket {\n    id\n  }\n}\n    "])));const pj=Object(Fc.e)($a||($a=Object(s.a)(["\n    mutation updateSpotLesson($id: Uint64!, $input: SpotLessonUpdateInput!) {\n  updateSpotLesson(id: $id, input: $input)\n}\n    "])));const gj=Object(Fc.e)(er||(er=Object(s.a)(["\n    mutation reserveSpotLesson($input: SpotLessonInput!) {\n  reserveSpotLesson(input: $input)\n}\n    "])));const Oj=Object(Fc.e)(nr||(nr=Object(s.a)(["\n    mutation cancelSpotLesson($id: Uint64!) {\n  cancelSpotLesson(id: $id)\n}\n    "])));const xj=Object(Fc.e)(tr||(tr=Object(s.a)(["\n    mutation completeSpotLessonForInstructor($id: Uint64!) {\n  completeSpotLessonForInstructor(id: $id)\n}\n    "])));const fj=Object(Fc.e)(ir||(ir=Object(s.a)(["\n    mutation nonAttendanceSpotLessonForInstructor($id: Uint64!) {\n  nonAttendanceSpotLessonForInstructor(id: $id)\n}\n    "])));const vj=Object(Fc.e)(ar||(ar=Object(s.a)(["\n    query getSpotLesson($id: Uint64!) {\n  spotLesson(id: $id) {\n    ...SpotLesson\n  }\n}\n    ",""])),ld);const wj=Object(Fc.e)(rr||(rr=Object(s.a)(["\n    query getSpotLessons($input: SpotLessonSearchInput!) {\n  spotLessons(input: $input) {\n    total\n    items {\n      ...SpotLesson\n    }\n  }\n}\n    ",""])),ld);const Cj=Object(Fc.e)(cr||(cr=Object(s.a)(["\n    query getSpotLessonCalendars($from: Time!, $to: Time!, $tagIDs: [Uint64!]!) {\n  spotLessonCalendars(from: $from, to: $to, tagIDs: $tagIDs) {\n    ...SpotLessonCalendar\n  }\n}\n    ",""])),bd);const yj=Object(Fc.e)(sr||(sr=Object(s.a)(["\n    query getSpotLessonCount {\n  spotLessonCount\n}\n    "])));const Vj=Object(Fc.e)(or||(or=Object(s.a)(["\n    query getNextSpotLesson {\n  nextSpotLesson {\n    ...SpotLesson\n  }\n}\n    ",""])),ld);function kj(e){const n={...Yc,...e};return qc.b(Vj,n)}const Sj=Object(Fc.e)(lr||(lr=Object(s.a)(["\n    query getSpotLessonsForInstructor($input: InstructorSpotLessonSearchInput!) {\n  spotLessonsForInstructor(input: $input) {\n    total\n    items {\n      ...SpotLesson\n    }\n  }\n}\n    ",""])),ld);function Ij(e){const n={...Yc,...e};return qc.b(Sj,n)}const Tj=Object(Fc.e)(dr||(dr=Object(s.a)(["\n    query getSpotLessonForInstructor($id: Uint64!) {\n  spotLessonForInstructor(id: $id) {\n    ...SpotLesson\n  }\n}\n    ",""])),ld);const Dj=Object(Fc.e)(br||(br=Object(s.a)(["\n    query subscription {\n  subscription {\n    ...StripeSubscription\n  }\n  scheduledSubscriptionContract {\n    ...ScheduledSubscriptionContract\n  }\n  subscriptionCancellationPeriod {\n    ...SubscriptionCancellationPeriod\n  }\n}\n    ","\n","\n",""])),ud,xd,vd);function Ej(e){const n={...Yc,...e};return qc.b(Dj,n)}const Rj=Object(Fc.e)(mr||(mr=Object(s.a)(["\n    query getTeamSubscription($teamID: ULID!) {\n  teamSubscription(teamID: $teamID) {\n    ...StripeSubscription\n  }\n  teamScheduledSubscriptionContract(teamID: $teamID) {\n    ...ScheduledSubscriptionContract\n  }\n}\n    ","\n",""])),ud,xd);const Mj=Object(Fc.e)(jr||(jr=Object(s.a)(["\n    query getTeamExistSubscription($teamID: ULID!) {\n  teamExistSubscription(teamID: $teamID)\n}\n    "])));function zj(e){const n={...Yc,...e};return qc.b(Mj,n)}const Bj=Object(Fc.e)(ur||(ur=Object(s.a)(["\n    query getTeamExistMySubscription {\n  teamExistMySubscription\n}\n    "])));const Lj=Object(Fc.e)(Ar||(Ar=Object(s.a)(["\n    query getTeamUpcomingInvoice($id: ULID!, $input: TeamUpdateSubscriptionFormInput!) {\n  teamUpcomingInvoice(teamID: $id, input: $input) {\n    nextInvoice {\n      ...StripeInvoice\n    }\n    defaultPrice\n    isIncrementalUpdate\n  }\n}\n    ",""])),Ad);const Nj=Object(Fc.e)(hr||(hr=Object(s.a)(["\n    query getUpcomingInvoice($input: UpdateSubscriptionFormInput!) {\n  upcomingInvoice(input: $input) {\n    oldPriceInvoice {\n      ...StripeInvoice\n    }\n  }\n}\n    ",""])),Ad);const Pj=Object(Fc.e)(pr||(pr=Object(s.a)(["\n    mutation teamSubscribe($input: TeamSubscribeFormInput!) {\n  teamSubscribe(input: $input)\n}\n    "])));function Uj(e){const n={...Yc,...e};return Hc.a(Pj,n)}const Fj=Object(Fc.e)(gr||(gr=Object(s.a)(["\n    mutation teamSwitchCancelAtPeriodEndSubscription($id: ULID!) {\n  teamSwitchCancelAtPeriodEndSubscription(teamID: $id)\n}\n    "])));const qj=Object(Fc.e)(Or||(Or=Object(s.a)(["\n    mutation teamUpdateSubscription($teamID: ULID!, $input: TeamUpdateSubscriptionFormInput!) {\n  teamUpdateSubscription(teamID: $teamID, input: $input)\n}\n    "])));const Qj=Object(Fc.e)(xr||(xr=Object(s.a)(["\n    mutation subscribe($input: SubscribeFormInput!) {\n  subscribe(input: $input)\n}\n    "])));const Hj=Object(Fc.e)(fr||(fr=Object(s.a)(["\n    mutation restoreSubscription {\n  switchCancelAtPeriodEndSubscription\n}\n    "])));const Gj=Object(Fc.e)(vr||(vr=Object(s.a)(["\n    mutation cancelSubscription($input: WithdrawalQuestionnaireInput!) {\n  switchCancelAtPeriodEndSubscription\n  sendWithdrawalQuestionnaireInput(input: $input)\n}\n    "])));const Yj=Object(Fc.e)(wr||(wr=Object(s.a)(["\n    mutation releaseSubscriptionSchedule {\n  releaseSubscriptionSchedule\n}\n    "])));const Kj=Object(Fc.e)(Cr||(Cr=Object(s.a)(["\n    mutation updateSubscription($input: UpdateSubscriptionFormInput!) {\n  updateSubscription(input: $input)\n}\n    "])));const Zj=Object(Fc.e)(yr||(yr=Object(s.a)(["\n    query getInvoices($input: InvoicesSearchInput!) {\n  invoices(input: $input) {\n    previousCursor\n    nextCursor\n    hasPrevious\n    hasNext\n    items {\n      ...StripeInvoice\n    }\n  }\n}\n    ",""])),Ad);const Jj=Object(Fc.e)(Vr||(Vr=Object(s.a)(["\n    query getTeamInvoices($input: TeamInvoicesSearchInput!) {\n  teamInvoices(input: $input) {\n    previousCursor\n    nextCursor\n    hasPrevious\n    hasNext\n    items {\n      ...StripeInvoice\n    }\n  }\n}\n    ",""])),Ad);const Wj=Object(Fc.e)(kr||(kr=Object(s.a)(["\n    query getPaymentMethods($limit: Int64!) {\n  paymentMethods(input: {limit: $limit}) {\n    items {\n      ...StripePaymentMethod\n    }\n  }\n}\n    ",""])),hd);function Xj(e){const n={...Yc,...e};return qc.b(Wj,n)}const _j=Object(Fc.e)(Sr||(Sr=Object(s.a)(["\n    query getTeamPaymentMethods($teamID: ULID!, $limit: Int64!) {\n  teamPaymentMethods(input: {teamID: $teamID, limit: $limit}) {\n    items {\n      ...StripePaymentMethod\n    }\n  }\n}\n    ",""])),hd);function $j(e){const n={...Yc,...e};return qc.b(_j,n)}const eu=Object(Fc.e)(Ir||(Ir=Object(s.a)(["\n    mutation teamSelectPaymentMethod($teamID: ULID!, $providerID: String!) {\n  teamSelectPaymentMethod(teamID: $teamID, providerID: $providerID)\n}\n    "])));function nu(e){const n={...Yc,...e};return Hc.a(eu,n)}const tu=Object(Fc.e)(Tr||(Tr=Object(s.a)(["\n    mutation teamDeletePaymentMethod($teamID: ULID!, $providerID: String!) {\n  teamDeletePaymentMethod(teamID: $teamID, providerID: $providerID)\n}\n    "])));const iu=Object(Fc.e)(Dr||(Dr=Object(s.a)(["\n    mutation selectPaymentMethod($providerID: String!) {\n  selectPaymentMethod(providerID: $providerID)\n}\n    "])));function au(e){const n={...Yc,...e};return Hc.a(iu,n)}const ru=Object(Fc.e)(Er||(Er=Object(s.a)(["\n    mutation deletePaymentMethod($providerID: String!) {\n  deletePaymentMethod(providerID: $providerID)\n}\n    "])));const cu=Object(Fc.e)(Rr||(Rr=Object(s.a)(["\n    query checkUpgradeTypes {\n  checkUpgradeTypes {\n    priceID\n    subscriptionUpgradeType\n    subscriptionType\n  }\n}\n    "])));const su=Object(Fc.e)(Mr||(Mr=Object(s.a)(["\n    query checkUpgrade($priceID: Uint64!) {\n  checkUpgrade(priceID: $priceID) {\n    priceID\n    subscriptionUpgradeType\n    startDate\n    endDate\n    price {\n      unitAmount\n      product {\n        name\n      }\n      numberOfTickets\n      pricePermission {\n        ...PricePermission\n      }\n    }\n  }\n}\n    ",""])),md);const ou=Object(Fc.e)(zr||(zr=Object(s.a)(["\n    query isUpgradable {\n  isUpgradable\n}\n    "])));const lu=Object(Fc.e)(Br||(Br=Object(s.a)(["\n    query getCurrentStudent {\n  currentStudent {\n    courses {\n      id\n      plan {\n        name\n      }\n      startDate\n      endDate\n      absentStartDate\n      absentEndDate\n      curriculum\n    }\n  }\n}\n    "])));function du(e){const n={...Yc,...e};return qc.b(lu,n)}const bu=Object(Fc.e)(Lr||(Lr=Object(s.a)(["\n    query getStudyCalendar($input: StudyCalendarSearchInput!) {\n  getStudyCalendar(input: $input) {\n    ...StudyCalendar\n  }\n}\n    ",""])),Id);const mu=Object(Fc.e)(Nr||(Nr=Object(s.a)(["\n    query getStudyFavoriteSummaryList {\n  getStudyFavoriteSummaryList {\n    studyFavoriteCount {\n      ...StudyFavoriteSummary\n    }\n    studyFavoriteCountWeek {\n      ...StudyFavoriteSummary\n    }\n    studyFavoriteCountMonth {\n      ...StudyFavoriteSummary\n    }\n  }\n}\n    ",""])),pd);const ju=Object(Fc.e)(Pr||(Pr=Object(s.a)(["\n    query getStudyLog($chapterID: Uint64!) {\n  getStudyLog(chapterID: $chapterID) {\n    ...StudyLog\n  }\n}\n    ",""])),rl);const uu=Object(Fc.e)(Ur||(Ur=Object(s.a)(["\n    mutation saveStudyLog($chapterID: Uint64!, $understandingLevel: StudyLogUnderstandingLevel!) {\n  saveStudyLog(chapterID: $chapterID, understandingLevel: $understandingLevel) {\n    ...StudyLog\n  }\n}\n    ",""])),rl);const Au=Object(Fc.e)(Fr||(Fr=Object(s.a)(["\n    query getStudyReport($id: Uint64!, $userID: Uint64) {\n  getStudyReport(id: $id) {\n    ...StudyReport\n  }\n}\n    ",""])),xl);function hu(e){const n={...Yc,...e};return qc.b(Au,n)}const pu=Object(Fc.e)(qr||(qr=Object(s.a)(["\n    query getStudyReports($input: StudyReportSearchInput!, $userID: Uint64) {\n  getStudyReports(input: $input) {\n    total\n    items {\n      ...StudyReport\n    }\n  }\n}\n    ",""])),xl);const gu=Object(Fc.e)(Qr||(Qr=Object(s.a)(["\n    query getRelatedStudyReports($input: RelatedStudyReportSearchInput!, $userID: Uint64) {\n  getRelatedStudyReports(input: $input) {\n    total\n    items {\n      ...StudyReport\n    }\n  }\n}\n    ",""])),xl);const Ou=Object(Fc.e)(Hr||(Hr=Object(s.a)(["\n    mutation createStudyReport($input: StudyReportInput!) {\n  createStudyReport(input: $input) {\n    id\n  }\n}\n    "])));const xu=Object(Fc.e)(Gr||(Gr=Object(s.a)(["\n    mutation updateStudyReport($id: Uint64!, $input: StudyReportInput!) {\n  updateStudyReport(id: $id, input: $input) {\n    id\n  }\n}\n    "])));const fu=Object(Fc.e)(Yr||(Yr=Object(s.a)(["\n    mutation deleteStudyReport($id: Uint64!) {\n  deleteStudyReport(id: $id) {\n    id\n  }\n}\n    "])));function vu(e){const n={...Yc,...e};return Hc.a(fu,n)}const wu=Object(Fc.e)(Kr||(Kr=Object(s.a)(["\n    mutation createStudyReportComment($studyReportID: Uint64!, $input: StudyReportCommentInput!) {\n  createStudyReportComment(studyReportID: $studyReportID, input: $input) {\n    id\n    content\n    createdAt\n    user {\n      ...User\n    }\n  }\n}\n    ",""])),Po);function Cu(e){const n={...Yc,...e};return Hc.a(wu,n)}const yu=Object(Fc.e)(Zr||(Zr=Object(s.a)(["\n    mutation updateStudyReportComment($id: Uint64!, $input: StudyReportCommentInput!) {\n  updateStudyReportComment(id: $id, input: $input) {\n    id\n  }\n}\n    "])));const Vu=Object(Fc.e)(Jr||(Jr=Object(s.a)(["\n    mutation deleteStudyReportComment($id: Uint64!) {\n  deleteStudyReportComment(id: $id) {\n    id\n  }\n}\n    "])));function ku(e){const n={...Yc,...e};return Hc.a(Vu,n)}const Su=Object(Fc.e)(Wr||(Wr=Object(s.a)(["\n    mutation createStudyReportFavorite($studyReportID: Uint64!) {\n  createStudyReportFavorite(studyReportID: $studyReportID) {\n    ...StudyReportFavorite\n  }\n}\n    ",""])),Ol);function Iu(e){const n={...Yc,...e};return Hc.a(Su,n)}const Tu=Object(Fc.e)(Xr||(Xr=Object(s.a)(["\n    mutation deleteStudyReportFavorite($studyReportID: Uint64!) {\n  deleteStudyReportFavorite(studyReportID: $studyReportID) {\n    id\n  }\n}\n    "])));function Du(e){const n={...Yc,...e};return Hc.a(Tu,n)}const Eu=Object(Fc.e)(_r||(_r=Object(s.a)(["\n    query getStudySummary {\n  getStudySummary {\n    ...StudySummary\n  }\n}\n    ",""])),No);function Ru(e){const n={...Yc,...e};return qc.b(Eu,n)}const Mu=Object(Fc.e)($r||($r=Object(s.a)(["\n    query getStudySummaryList {\n  getStudySummaryList {\n    studyReportTime {\n      ...StudySummaryList\n    }\n    studyReportTimeWeek {\n      ...StudySummaryList\n    }\n    studyReportTimeMonth {\n      ...StudySummaryList\n    }\n  }\n}\n    ",""])),gd);const zu=Object(Fc.e)(ec||(ec=Object(s.a)(["\n    query getStudyTagSummaries {\n  getStudyTagSummaries {\n    ...StudyTagSummary\n  }\n}\n    ",""])),Td);const Bu=Object(Fc.e)(nc||(nc=Object(s.a)(["\n    query getStudyTagSummaryList {\n  getStudyTagSummaryList {\n    studyReportTime {\n      ...StudyTagSummaryList\n    }\n    studyReportTimeWeek {\n      ...StudyTagSummaryList\n    }\n    studyReportTimeMonth {\n      ...StudyTagSummaryList\n    }\n  }\n}\n    ",""])),Od);const Lu=Object(Fc.e)(tc||(tc=Object(s.a)(["\n    query mySubscriptionContracts($input: MySubscriptionContractInput!) {\n  mySubscriptionContracts(input: $input) {\n    items {\n      ...SubscriptionContractForList\n    }\n    total\n  }\n}\n    ",""])),fd);function Nu(e){const n={...Yc,...e};return qc.b(Lu,n)}const Pu=Object(Fc.e)(ic||(ic=Object(s.a)(["\n    query teamSubscriptionContracts($input: TeamSubscriptionContractInput!) {\n  teamSubscriptionContracts(input: $input) {\n    items {\n      ...SubscriptionContractForList\n    }\n    total\n  }\n}\n    ",""])),fd);const Uu=Object(Fc.e)(ac||(ac=Object(s.a)(["\n    query getTags($input: TagSearchInput!) {\n  getTags(input: $input) {\n    items {\n      ...Tag\n    }\n    total\n  }\n}\n    ",""])),wd);function Fu(e){const n={...Yc,...e};return qc.b(Uu,n)}function qu(e){const n={...Yc,...e};return Qc.a(Uu,n)}const Qu=Object(Fc.e)(rc||(rc=Object(s.a)(["\n    query getTag($id: Uint64!) {\n  getTag(id: $id) {\n    ...Tag\n  }\n}\n    ",""])),wd);function Hu(e){const n={...Yc,...e};return qc.b(Qu,n)}const Gu=Object(Fc.e)(cc||(cc=Object(s.a)(["\n    query getTeam($id: ULID!) {\n  team(id: $id) {\n    image\n    companyName\n    adminEmail\n    paymentMethodType\n  }\n}\n    "])));function Yu(e){const n={...Yc,...e};return qc.b(Gu,n)}const Ku=Object(Fc.e)(sc||(sc=Object(s.a)(["\n    mutation updateTeam($id: ULID!, $input: UpdateTeamInput!) {\n  updateTeam(id: $id, input: $input) {\n    id\n  }\n}\n    "])));const Zu=Object(Fc.e)(oc||(oc=Object(s.a)(["\n    query getTeamWithSubscription($id: ULID!) {\n  team(id: $id) {\n    id\n    paymentMethodType\n    teamMembers {\n      ...MyTeamMember\n    }\n  }\n  teamSubscription(teamID: $id) {\n    providerStatus\n  }\n}\n    ",""])),Cd);const Ju=Object(Fc.e)(lc||(lc=Object(s.a)(["\n    mutation createTeam($input: TeamInput!) {\n  createTeam(input: $input) {\n    id\n  }\n}\n    "])));const Wu=Object(Fc.e)(dc||(dc=Object(s.a)(["\n    mutation deleteTeam($id: ULID!) {\n  deleteTeam(teamID: $id)\n}\n    "])));const Xu=Object(Fc.e)(bc||(bc=Object(s.a)(["\n    mutation teamUpdatePaymentMethodType($teamID: ULID!, $paymentMethodType: PaymentMethodType!) {\n  teamUpdatePaymentMethodType(\n    teamID: $teamID\n    paymentMethodType: $paymentMethodType\n  )\n}\n    "])));const _u=Object(Fc.e)(mc||(mc=Object(s.a)(["\n    query getTeamInvitation($id: String!) {\n  teamInvitation(id: $id) {\n    team {\n      companyName\n    }\n  }\n}\n    "])));const $u=Object(Fc.e)(jc||(jc=Object(s.a)(["\n    mutation createTeamInvitation($input: TeamInvitationInput!) {\n  createTeamInvitation(input: $input)\n}\n    "])));const eA=Object(Fc.e)(uc||(uc=Object(s.a)(["\n    query getMyTeamMembers {\n  myTeamMembers {\n    ...MyTeamMember\n  }\n}\n    ",""])),Cd);const nA=Object(Fc.e)(Ac||(Ac=Object(s.a)(["\n    mutation joinTeamMember($teamInvitationID: ULID!) {\n  joinTeamMember(teamInvitationID: $teamInvitationID) {\n    id\n    teamID\n  }\n}\n    "])));const tA=Object(Fc.e)(hc||(hc=Object(s.a)(["\n    query getTeamMembersByTeamID($input: TeamMemberSearchInput!) {\n  getTeamMembersByTeamID(input: $input) {\n    items {\n      ...TeamMemberList\n    }\n    total\n  }\n}\n    ",""])),yd);function iA(e){const n={...Yc,...e};return qc.b(tA,n)}const aA=Object(Fc.e)(pc||(pc=Object(s.a)(["\n    mutation changeTeamMemberRole($teamMemberID: ULID!, $role: TeamMemberRole!) {\n  changeTeamMemberRole(teamMemberID: $teamMemberID, role: $role)\n}\n    "])));const rA=Object(Fc.e)(gc||(gc=Object(s.a)(["\n    mutation removeTeamMember($id: ULID!) {\n  removeTeamMember(id: $id)\n}\n    "])));const cA=Object(Fc.e)(Oc||(Oc=Object(s.a)(["\n    query getTickets {\n  tickets {\n    ...Ticket\n  }\n}\n    ",""])),Vd);function sA(e){const n={...Yc,...e};return qc.b(cA,n)}const oA=Object(Fc.e)(xc||(xc=Object(s.a)(["\n    query getTimelines($first: Int!, $after: String, $adminAfter: String) {\n  getTimelinesV1(first: $first, after: $after, adminAfter: $adminAfter) {\n    items {\n      ...TimelineStudyReport\n      ...Tweet\n    }\n    pageInfo {\n      ...PageInfo\n    }\n    adminPageInfo {\n      ...PageInfo\n    }\n  }\n}\n    ","\n","\n",""])),kd,wl,qo);const lA=Object(Fc.e)(fc||(fc=Object(s.a)(["\n    query getTimelinesByUserID($first: Int!, $after: String, $userID: Int!) {\n  getTimelinesByUserID(first: $first, after: $after, userID: $userID) {\n    items {\n      ...TimelineStudyReport\n      ...Tweet\n    }\n    pageInfo {\n      ...PageInfo\n    }\n  }\n}\n    ","\n","\n",""])),kd,wl,qo);const dA=Object(Fc.e)(vc||(vc=Object(s.a)(["\n    query getTweet($id: ULID!) {\n  getTweetV1(id: $id) {\n    ...Tweet\n  }\n}\n    ",""])),wl);const bA=Object(Fc.e)(wc||(wc=Object(s.a)(["\n    mutation addTweet($input: TweetInput!) {\n  addTweet(input: $input) {\n    id\n  }\n}\n    "])));const mA=Object(Fc.e)(Cc||(Cc=Object(s.a)(["\n    mutation deleteTweet($tweetID: ULID!) {\n  deleteTweet(tweetID: $tweetID) {\n    id\n  }\n}\n    "])));const jA=Object(Fc.e)(yc||(yc=Object(s.a)(["\n    mutation addTweetFavorite($tweetID: ULID!) {\n  addTweetFavorite(tweetID: $tweetID) {\n    ...TweetFavorite\n  }\n}\n    ",""])),vl);const uA=Object(Fc.e)(Vc||(Vc=Object(s.a)(["\n    mutation deleteTweetFavorite($tweetID: ULID!) {\n  deleteTweetFavorite(tweetID: $tweetID) {\n    ...TweetFavorite\n  }\n}\n    ",""])),vl);const AA=Object(Fc.e)(kc||(kc=Object(s.a)(["\n    mutation addTweetComment($input: TweetCommentInput!) {\n  addTweetComment(input: $input) {\n    ...TweetComment\n  }\n}\n    ",""])),fl);const hA=Object(Fc.e)(Sc||(Sc=Object(s.a)(["\n    mutation deleteTweetComment($tweetCommentID: ULID!) {\n  deleteTweetComment(tweetCommentID: $tweetCommentID) {\n    ...TweetComment\n  }\n}\n    ",""])),fl);const pA=Object(Fc.e)(Ic||(Ic=Object(s.a)(["\n    query getUserForUserPageLayout($id: Uint64!) {\n  user(id: $id) {\n    ...UserPageLayout\n  }\n}\n    ",""])),Sd);function gA(e){const n={...Yc,...e};return qc.b(pA,n)}const OA=Object(Fc.e)(Tc||(Tc=Object(s.a)(["\n    query getUserProfile($id: Uint64!) {\n  user(id: $id) {\n    ...UserProfile\n  }\n}\n    ",""])),Dd);const xA=Object(Fc.e)(Dc||(Dc=Object(s.a)(["\n    query getUserWithPrograms($id: Uint64!) {\n  user(id: $id) {\n    ...UserPageLayout\n    completedPrograms {\n      ...UserProgram\n    }\n    whileStudyingPrograms {\n      ...UserProgram\n    }\n  }\n}\n    ","\n",""])),Sd,Ed);const fA=Object(Fc.e)(Ec||(Ec=Object(s.a)(["\n    query getCurrentUserWithPermissions {\n  currentUserWithPermissions {\n    ...CurrentUserWithPermissionList\n  }\n}\n    ",""])),Bd);const vA=Object(Fc.e)(Rc||(Rc=Object(s.a)(["\n    query getAIUser {\n  aiUser {\n    ...QuestionUser\n  }\n}\n    ",""])),ol);const wA=Object(Fc.e)(Mc||(Mc=Object(s.a)(["\n    mutation withdraw($questionnaireInput: WithdrawalQuestionnaireInput!) {\n  withdraw(questionnaireInput: $questionnaireInput)\n}\n    "])));const CA=Object(Fc.e)(zc||(zc=Object(s.a)(["\n    mutation updateLastAccess($smrc: String) {\n  updateLastAccess(smrc: $smrc)\n}\n    "])));const yA=Object(Fc.e)(Bc||(Bc=Object(s.a)(["\n    mutation updateUser($input: UserInput!) {\n  updateUser(input: $input) {\n    id\n  }\n}\n    "])));const VA=Object(Fc.e)(Lc||(Lc=Object(s.a)(["\n    mutation register($input: UserRegisterInput!) {\n  register(input: $input) {\n    id\n  }\n}\n    "])));function kA(e){const n={...Yc,...e};return Hc.a(VA,n)}const SA=Object(Fc.e)(Nc||(Nc=Object(s.a)(["\n    mutation oAuthRegister($input: OAuthUserRegisterInput!) {\n  oAuthRegister(input: $input) {\n    ...CurrentUser\n  }\n}\n    ",""])),Rd);const IA="USER_LOGIN",TA="USER_LOGIN_BY_TEMPORARY_PASSWORD",DA="USER_LOGOUT",EA="USER_CHANGE_ROLE",RA="USER_SET_TEAMS",MA="USER_SET_TEAM_ID",zA="USER_LOGIN_ERROR",BA="USER_SET_LMS_USER",LA="USER_SET_IS_CHANGE_PASSWORD",NA="USER_SET_SOCIAL_LOGIN_CALLBACK_URL",PA={lmsUser:null,cognitoUser:null,permissionList:null,contractsOfStripeSubscriptionForAnalytics:null,role:xo.NotLogin,teamID:null,teams:[],isLogged:!1,loginError:"",isChangePassword:!1,socialLoginCallbackURL:null},UA="COMMON_PAYMENT_METHODS_INDEX_FETCH_SUCCESS",FA="COMMON_PAYMENT_METHODS_RESET",qA={paymentMethods:[],pagination:{total:0,limit:10,page:1}},QA="COMMON_MODAL_OPEN_REGISTER_FREE_USER_MODAL",HA="COMMON_MODAL_CLOSE_REGISTER_FREE_USER_MODAL",GA="COMMON_MODAL_OPEN_REGISTER_LIGHT_USER_MODAL",YA="COMMON_MODAL_CLOSE_REGISTER_LIGHT_USER_MODAL",KA="COMMON_MODAL_OPEN_REGISTER_BASIC_USER_MODAL",ZA="COMMON_MODAL_CLOSE_REGISTER_BASIC_USER_MODAL",JA="COMMON_MODAL_OPEN_REGISTER_PREMIUM_USER_MODAL",WA="COMMON_MODAL_CLOSE_REGISTER_PREMIUM_USER_MODAL",XA="COMMON_MODAL_OPEN_REGISTER_TEAM_SUBSCRIPTION_USER_MODAL",_A="COMMON_MODAL_CLOSE_REGISTER_TEAM_SUBSCRIPTION_USER_MODAL",$A="COMMON_MODAL_OPEN_REGISTER_TEAM_SUBSCRIPTION_TO_TEAM_ADMIN_MODAL",eh="COMMON_MODAL_CLOSE_REGISTER_TEAM_SUBSCRIPTION_TO_TEAM_ADMIN_MODAL",nh="COMMON_MODAL_CLOSE_ALL_MODALS",th={isFreeUserModalOpen:!1,isLightUserModalOpen:!1,isBasicUserModalOpen:!1,isPremiumUserModalOpen:!1,isTeamSubscriptionUserModalOpen:!1,isTeamSubscriptionToTeamAdminModalOpen:!1};var ih=Object(Uc.a)({user:(e=PA,n)=>{switch(n.type){case IA:return{...e,...n.payload,isLogged:!0};case TA:return{...e,lmsUser:null,cognitoUser:n.payload.cognitoUser,permissionList:null,role:xo.NotLogin,isLogged:!1};case DA:return PA;case EA:return{...e,role:n.payload.role};case RA:return{...e,teamID:n.payload.teamID,teams:n.payload.teams};case MA:return{...e,teamID:n.payload.teamID};case LA:return{...e,isChangePassword:n.payload.isChangePassword};case BA:return{...e,lmsUser:n.payload.lmsUser,permissionList:n.payload.permissionList,role:n.payload.role};case NA:return{...e,socialLoginCallbackURL:n.payload.callbackURL};case zA:return{...e,loginError:n.payload.error};default:return e}},commonPaymentMethod:(e=qA,n)=>{switch(n.type){case UA:return{...e,paymentMethods:n.payload.paymentMethods,pagination:{...e.pagination,total:n.payload.pagination.total}};case FA:return qA;default:return e}},commonModal:(e=th,n)=>{switch(n.type){case QA:return{...e,isFreeUserModalOpen:!0};case HA:return{...e,isFreeUserModalOpen:!1};case GA:return{...e,isLightUserModalOpen:!0};case YA:return{...e,isLightUserModalOpen:!1};case KA:return{...e,isBasicUserModalOpen:!0};case ZA:return{...e,isBasicUserModalOpen:!1};case JA:return{...e,isPremiumUserModalOpen:!0};case WA:return{...e,isPremiumUserModalOpen:!1};case XA:return{...e,isTeamSubscriptionUserModalOpen:!0};case _A:return{...e,isTeamSubscriptionUserModalOpen:!1};case $A:return{...e,isTeamSubscriptionToTeamAdminModalOpen:!0};case eh:return{...e,isTeamSubscriptionToTeamAdminModalOpen:!1};case nh:return th;default:return e}}}),ah=t(12),rh=t.n(ah),ch=t(1798);const sh="user.role",oh="user.team.id",lh="close_onboarding",dh=(e,n)=>"".concat(e,"#").concat(n),bh=(e,n)=>{try{return localStorage.getItem(dh(e,n))}catch{return null}},mh=(e,n,t)=>{try{localStorage.setItem(dh(e,n),t)}catch{}},jh=e=>((e,n)=>{try{localStorage.removeItem(dh(e,n))}catch{}})(oh,e),uh="\u30b7\u30b9\u30c6\u30e0\u30a8\u30e9\u30fc\u3067\u51e6\u7406\u306b\u5931\u6557\u3057\u307e\u3057\u305f\u3002\u304a\u56f0\u308a\u306e\u5834\u5408\u306f\u30e6\u30fc\u30b6\u30fc\u30b5\u30dd\u30fc\u30c8\u307e\u3067\u304a\u554f\u3044\u5408\u308f\u305b\u304a\u9858\u3044\u305f\u3057\u307e\u3059\u3002",Ah=[xo.Student,xo.StudentGraduated,xo.StudentSubscription,xo.StudentFree],hh=[xo.TeamMember,xo.TeamMemberFree,xo.TeamAdmin,xo.TeamAdminFree],ph="HomeForInstructorAndCoach",gh="HomeForStudent",Oh="HomeForNotLogin",xh="HomeForGeneral",fh="ShowNextTypeSpotLesson",vh="CourseProgramUserLog",wh="Exam",Ch="ExamForInstructorAndCoach",yh="ChapterAuthTypeRegistered",Vh="ChapterAuthTypeLight",kh="ChapterAuthTypeBasic",Sh="ChapterAuthTypePremium",Ih="ProgramForInstructorAndCoach",Th="StudyLog",Dh="CourseSearchTypeAll",Eh="ProgramFeedback",Rh="PracticeForInstructorAndCoach",Mh="PracticeSubmit",zh="PracticeFeedback",Bh="PracticeAuthTypeRegistered",Lh="PracticeAuthTypeLight",Nh="PracticeAuthTypeBasic",Ph="PracticeAuthTypePremium",Uh="QuestionForInstructorAndCoach",Fh="Question",qh="QuestionResolve",Qh="QuestionAnswerAndComment",Hh="QuestionFavoriteAndAnswerFavorite",Gh="StudyReportSummary",Yh="StudyReportForInstructorAndCoach",Kh="StudyReportForNotLogin",Zh="StudyReport",Jh="StudyReportComment",Wh="StudyReportFavorite",Xh="TimeLineForPro",_h="TimeLineForPlus",$h="TimeLineOfInstructorAndAdmin",ep="Timeline",np="TimelineForInstructorAndCoach",tp="TimelineComment",ip="TimelineFavorite",ap="Curriculum",rp="CourseForInstructorAndCoach",cp="LessonForInstructor",sp="LessonForStudent",op="SessionForCoach",lp="SessionForStudent",dp="SpotLessonForInstructor",bp="SpotLesson",mp="SpotLessonReserve",jp="SpotLessonBuyTicket",up="SpotLessonCancel",Ap="SpotLessonSchedule",hp="Chat",pp="UserTypeLabel",gp="AccountProfile",Op="AccountProfileLabelForStudent",xp="AccountProfileLabelForInstructor",fp="AccountProfileLabelForCoach",vp="AccountWithDraw",wp="AccountCourse",Cp="AccountSubscription",yp="AccountSubscriptionSelect",Vp="AccountSubscriptionRegister",kp="AccountSubscriptionLp",Sp="AccountSubscriptionPathForNotLogin",Ip="AccountInvoice",Tp="AccountPaymentIntent",Dp="AccountPayment",Ep="AccountMail",Rp="MailSettingsForStudent",Mp="MailSettingsForInstructor",zp="MailSettingsForCoach",Bp="MailSettingsForSubscription",Lp="MailSettingsForFree",Np="AccountPassword",Pp="AccountAlignment",Up="Claim",Fp="Notification",qp="NotificationTypeBackSchoolNotificationsInstructor",Qp="TeamRegisterCreation",Hp="TeamInvitationErrorForStudent",Gp="TeamTop",Yp="TeamAuth",Kp="TeamInvitation",Zp="TeamRemove",Jp="TeamProfile",Wp="TeamSubscription",Xp="TeamInvoice",_p="TeamPayment",$p="BannerForInstructor",eg="BannerForStudent",ng="BannerForGraduate",tg="BannerForSubscription",ig="BannerForTeam",ag="BannerForFree",rg="DocumentForInstructor",cg="DocumentForCoach",sg="DocumentForStudent",og="DocumentForSubscription",lg="DocumentForNotLogin",dg="DocumentForTeam",bg="RecommendFree",mg="RecommendLight",jg="RecommendBasic",ug="RecommendPremium",Ag="RecommendTeamSubscriptionToAdmin",hg="RecommendTeamSubscription",pg="All",gg="RegisterRedirectHome",Og="TeamRegisterRedirectHome",xg="LP",fg="Read",vg="Create",wg="Update",Cg="Delete",yg={NOT_LOGIN:{HomeForNotLogin:["Read"],ProgramSearchForNotLogin:["Read"],StudyReportForNotLogin:["Read"],TimeLineForPlus:["Read"],SpotLesson:["Read"],AccountSubscriptionLp:["Read"],AccountSubscriptionPathForNotLogin:["Read"],TeamRegisterCreation:["Create"],BannerForNotLogin:["Read"],DocumentForNotLogin:["Read"],RecommendFree:["Read"],RecommendLight:["Read"],RecommendBasic:["Read"],RecommendPremium:["Read"],All:["Read"],LP:["Read"]},SUBSCRIPTION:{HomeForGeneral:["Read"],CourseProgramUserLog:["Read"],Exam:["Read","Create"],ChapterAuthTypeRegistered:["Read"],ChapterAuthTypeLight:["Read"],ChapterAuthTypeBasic:["Read"],ChapterAuthTypePremium:["Read"],StudyLog:["Read"],ProgramFeedback:["Create"],ProgramSearchForGeneral:["Read"],PracticeSubmit:["Create","Update"],PracticeFeedback:["Create"],PracticeAuthTypeRegistered:["Read"],PracticeAuthTypeLight:["Read"],PracticeAuthTypeBasic:["Read"],PracticeAuthTypePremium:["Read"],Question:["Read","Create","Update"],QuestionResolve:["Update"],QuestionAnswerAndComment:["Create","Update"],QuestionFavoriteAndAnswerFavorite:["Update"],StudyReportSummary:["Read"],StudyReport:["Create","Update","Delete"],StudyReportComment:["Create","Update","Delete"],StudyReportFavorite:["Update"],TimeLineForPlus:["Read"],TimeLineOfInstructorAndAdmin:["Read"],Timeline:["Create","Delete"],TimelineComment:["Create","Delete"],TimelineFavorite:["Update"],SpotLesson:["Read"],SpotLessonReserve:["Create"],SpotLessonBuyTicket:["Create"],SpotLessonCancel:["Delete"],AccountProfile:["Read"],AccountWithDraw:["Delete"],AccountSubscription:["Read","Delete"],AccountSubscriptionSelect:["Read"],AccountInvoice:["Read"],AccountPaymentIntent:["Read"],AccountPayment:["Read","Create","Update","Delete"],AccountMail:["Update"],MailSettingsForSubscription:["Read"],AccountPassword:["Update"],Notification:["Read"],BannerForSubscription:["Read"],DocumentForSubscription:["Read"],All:["Read"],TeamRegisterRedirectHome:["Read"]},SUBSCRIPTION_LIGHT:{HomeForGeneral:["Read"],CourseProgramUserLog:["Read"],Exam:["Read","Create"],ChapterAuthTypeRegistered:["Read"],ChapterAuthTypeLight:["Read"],StudyLog:["Read"],ProgramFeedback:["Create"],ProgramSearchForGeneral:["Read"],PracticeSubmit:["Create","Update"],PracticeFeedback:["Create"],PracticeAuthTypeRegistered:["Read"],PracticeAuthTypeLight:["Read"],Question:["Read","Create","Update"],QuestionResolve:["Update"],QuestionAnswerAndComment:["Create","Update"],QuestionFavoriteAndAnswerFavorite:["Update"],StudyReportSummary:["Read"],StudyReport:["Create","Update","Delete"],StudyReportComment:["Create","Update","Delete"],StudyReportFavorite:["Update"],TimeLineForPlus:["Read"],TimeLineOfInstructorAndAdmin:["Read"],Timeline:["Create","Delete"],TimelineComment:["Create","Delete"],TimelineFavorite:["Update"],SpotLesson:["Read"],SpotLessonReserve:["Create"],SpotLessonBuyTicket:["Create"],SpotLessonCancel:["Delete"],AccountProfile:["Read"],AccountWithDraw:["Delete"],AccountSubscription:["Read","Delete"],AccountSubscriptionSelect:["Read"],AccountSubscriptionLp:["Read"],AccountInvoice:["Read"],AccountPaymentIntent:["Read"],AccountPayment:["Read","Create","Update","Delete"],AccountMail:["Update"],MailSettingsForSubscription:["Read"],AccountPassword:["Update"],Notification:["Read"],BannerForSubscription:["Read"],DocumentForSubscription:["Read"],RecommendBasic:["Read"],RecommendPremium:["Read"],All:["Read"],TeamRegisterRedirectHome:["Read"]},SUBSCRIPTION_BASIC:{HomeForGeneral:["Read"],CourseProgramUserLog:["Read"],Exam:["Read","Create"],ChapterAuthTypeRegistered:["Read"],ChapterAuthTypeLight:["Read"],ChapterAuthTypeBasic:["Read"],StudyLog:["Read"],ProgramFeedback:["Create"],ProgramSearchForGeneral:["Read"],PracticeSubmit:["Create","Update"],PracticeFeedback:["Create"],PracticeAuthTypeRegistered:["Read"],PracticeAuthTypeLight:["Read"],PracticeAuthTypeBasic:["Read"],Question:["Read","Create","Update"],QuestionResolve:["Update"],QuestionAnswerAndComment:["Create","Update"],QuestionFavoriteAndAnswerFavorite:["Update"],StudyReportSummary:["Read"],StudyReport:["Create","Update","Delete"],StudyReportComment:["Create","Update","Delete"],StudyReportFavorite:["Update"],TimeLineForPlus:["Read"],TimeLineOfInstructorAndAdmin:["Read"],Timeline:["Create","Delete"],TimelineComment:["Create","Delete"],TimelineFavorite:["Update"],SpotLesson:["Read"],SpotLessonReserve:["Create"],SpotLessonBuyTicket:["Create"],SpotLessonCancel:["Delete"],AccountProfile:["Read"],AccountWithDraw:["Delete"],AccountSubscription:["Read","Delete"],AccountSubscriptionSelect:["Read"],AccountSubscriptionLp:["Read"],AccountInvoice:["Read"],AccountPaymentIntent:["Read"],AccountPayment:["Read","Create","Update","Delete"],AccountMail:["Update"],MailSettingsForSubscription:["Read"],AccountPassword:["Update"],Notification:["Read"],BannerForSubscription:["Read"],DocumentForSubscription:["Read"],RecommendPremium:["Read"],All:["Read"],TeamRegisterRedirectHome:["Read"]},SUBSCRIPTION_PREMIUM:{HomeForGeneral:["Read"],CourseProgramUserLog:["Read"],Exam:["Read","Create"],ChapterAuthTypeRegistered:["Read"],ChapterAuthTypeLight:["Read"],ChapterAuthTypeBasic:["Read"],ChapterAuthTypePremium:["Read"],StudyLog:["Read"],ProgramFeedback:["Create"],ProgramSearchForGeneral:["Read"],PracticeSubmit:["Create","Update"],PracticeFeedback:["Create"],PracticeAuthTypeRegistered:["Read"],PracticeAuthTypeLight:["Read"],PracticeAuthTypeBasic:["Read"],PracticeAuthTypePremium:["Read"],Question:["Read","Create","Update"],QuestionResolve:["Update"],QuestionAnswerAndComment:["Create","Update"],QuestionFavoriteAndAnswerFavorite:["Update"],StudyReportSummary:["Read"],StudyReport:["Create","Update","Delete"],StudyReportComment:["Create","Update","Delete"],StudyReportFavorite:["Update"],TimeLineForPlus:["Read"],TimeLineOfInstructorAndAdmin:["Read"],Timeline:["Create","Delete"],TimelineComment:["Create","Delete"],TimelineFavorite:["Update"],SpotLesson:["Read"],SpotLessonReserve:["Create"],SpotLessonBuyTicket:["Create"],SpotLessonCancel:["Delete"],AccountProfile:["Read"],AccountWithDraw:["Delete"],AccountSubscription:["Read","Delete"],AccountSubscriptionSelect:["Read"],AccountInvoice:["Read"],AccountPaymentIntent:["Read"],AccountPayment:["Read","Create","Update","Delete"],AccountMail:["Update"],MailSettingsForSubscription:["Read"],AccountPassword:["Update"],Notification:["Read"],BannerForSubscription:["Read"],DocumentForSubscription:["Read"],All:["Read"],TeamRegisterRedirectHome:["Read"]},SUBSCRIPTION_FREE:{HomeForGeneral:["Read"],CourseProgramUserLog:["Read"],Exam:["Read","Create"],ChapterAuthTypeRegistered:["Read"],StudyLog:["Read"],ProgramFeedback:["Create"],ProgramSearchForGeneral:["Read"],PracticeSubmit:["Create","Update"],PracticeFeedback:["Create"],PracticeAuthTypeRegistered:["Read"],StudyReportSummary:["Read"],StudyReport:["Create","Update","Delete"],StudyReportComment:["Create","Update","Delete"],StudyReportFavorite:["Update"],SpotLesson:["Read"],AccountProfile:["Read"],AccountWithDraw:["Delete"],AccountSubscription:["Read","Create"],AccountSubscriptionRegister:["Read"],AccountSubscriptionLp:["Read"],AccountInvoice:["Read"],AccountPaymentIntent:["Read"],AccountPayment:["Read","Create","Update","Delete"],AccountMail:["Update"],MailSettingsForFree:["Read"],AccountPassword:["Update"],Notification:["Read"],BannerForFree:["Read"],DocumentForSubscription:["Read"],RecommendLight:["Read"],RecommendBasic:["Read"],RecommendPremium:["Read"],All:["Read"]},TEAM_MEMBER:{HomeForGeneral:["Read"],CourseProgramUserLog:["Read"],Exam:["Read","Create"],ChapterAuthTypeRegistered:["Read"],ChapterAuthTypeLight:["Read"],ChapterAuthTypeBasic:["Read"],ChapterAuthTypePremium:["Read"],StudyLog:["Read"],ProgramFeedback:["Create"],ProgramSearchForGeneral:["Read"],PracticeSubmit:["Create","Update"],PracticeFeedback:["Create"],PracticeAuthTypeRegistered:["Read"],PracticeAuthTypeLight:["Read"],PracticeAuthTypeBasic:["Read"],PracticeAuthTypePremium:["Read"],Question:["Read","Create","Update"],QuestionResolve:["Update"],QuestionAnswerAndComment:["Create","Update"],QuestionFavoriteAndAnswerFavorite:["Update"],StudyReportSummary:["Read"],StudyReport:["Create","Update","Delete"],StudyReportComment:["Create","Update","Delete"],StudyReportFavorite:["Update"],TimeLineForPlus:["Read"],TimeLineOfInstructorAndAdmin:["Read"],Timeline:["Create","Delete"],TimelineComment:["Create","Delete"],TimelineFavorite:["Update"],SpotLesson:["Read"],SpotLessonReserve:["Create"],SpotLessonCancel:["Delete"],AccountProfile:["Read"],AccountWithDraw:["Delete"],AccountSubscription:["Read"],AccountInvoice:["Read"],AccountPaymentIntent:["Read"],AccountPayment:["Read","Create","Update","Delete"],AccountMail:["Update"],MailSettingsForSubscription:["Read"],AccountPassword:["Update"],Notification:["Read"],TeamTop:["Read"],BannerForTeam:["Read"],DocumentForSubscription:["Read"],DocumentForTeam:["Read"],All:["Read"]},TEAM_MEMBER_FREE:{HomeForGeneral:["Read"],Exam:["Read","Create"],ChapterAuthTypeRegistered:["Read"],StudyLog:["Read"],ProgramFeedback:["Create"],ProgramSearchForGeneral:["Read"],PracticeFeedback:["Create"],PracticeAuthTypeRegistered:["Read"],StudyReportSummary:["Read"],TimeLineForPlus:["Read"],SpotLesson:["Read"],AccountProfile:["Read"],AccountWithDraw:["Delete"],AccountSubscription:["Read","Create"],AccountSubscriptionRegister:["Read"],AccountSubscriptionLp:["Read"],AccountInvoice:["Read"],AccountPaymentIntent:["Read"],AccountPayment:["Read","Create","Update","Delete"],AccountMail:["Update"],MailSettingsForFree:["Read"],AccountPassword:["Update"],Notification:["Read"],TeamTop:["Read"],BannerForTeam:["Read"],DocumentForSubscription:["Read"],DocumentForTeam:["Read"],RecommendTeamSubscriptionToAdmin:["Read"],All:["Read"]},TEAM_ADMIN:{HomeForGeneral:["Read"],CourseProgramUserLog:["Read"],Exam:["Read","Create"],ChapterAuthTypeRegistered:["Read"],ChapterAuthTypeLight:["Read"],ChapterAuthTypeBasic:["Read"],ChapterAuthTypePremium:["Read"],StudyLog:["Read"],ProgramFeedback:["Create"],ProgramSearchForGeneral:["Read"],PracticeSubmit:["Create","Update"],PracticeFeedback:["Create"],PracticeAuthTypeRegistered:["Read"],PracticeAuthTypeLight:["Read"],PracticeAuthTypeBasic:["Read"],PracticeAuthTypePremium:["Read"],Question:["Read","Create","Update"],QuestionResolve:["Update"],QuestionAnswerAndComment:["Create","Update"],QuestionFavoriteAndAnswerFavorite:["Update"],StudyReportSummary:["Read"],StudyReport:["Create","Update","Delete"],StudyReportComment:["Create","Update","Delete"],StudyReportFavorite:["Update"],TimeLineForPlus:["Read"],TimeLineOfInstructorAndAdmin:["Read"],Timeline:["Create","Delete"],TimelineComment:["Create","Delete"],TimelineFavorite:["Update"],SpotLesson:["Read"],SpotLessonReserve:["Create"],SpotLessonCancel:["Delete"],AccountProfile:["Read"],AccountWithDraw:["Delete"],AccountSubscription:["Read"],AccountInvoice:["Read"],AccountPaymentIntent:["Read"],AccountPayment:["Read","Create","Update","Delete"],AccountMail:["Update"],MailSettingsForSubscription:["Read"],AccountPassword:["Update"],Notification:["Read"],TeamTop:["Read"],TeamAuth:["Read"],TeamInvitation:["Create"],TeamRole:["Update"],TeamRemove:["Delete"],TeamProfile:["Read","Update"],TeamSubscription:["Read","Update","Delete"],TeamInvoice:["Read"],TeamPayment:["Read","Create","Update","Delete"],BannerForTeam:["Read"],DocumentForSubscription:["Read"],DocumentForTeam:["Read"],All:["Read"]},TEAM_ADMIN_FREE:{HomeForGeneral:["Read"],Exam:["Read","Create"],ChapterAuthTypeRegistered:["Read"],StudyLog:["Read"],ProgramFeedback:["Create"],ProgramSearchForGeneral:["Read"],PracticeFeedback:["Create"],PracticeAuthTypeRegistered:["Read"],StudyReportSummary:["Read"],TimeLineForPlus:["Read"],SpotLesson:["Read"],AccountProfile:["Read"],AccountWithDraw:["Delete"],AccountSubscription:["Read","Create"],AccountSubscriptionRegister:["Read"],AccountSubscriptionLp:["Read"],AccountInvoice:["Read"],AccountPaymentIntent:["Read"],AccountPayment:["Read","Create","Update","Delete"],AccountMail:["Update"],MailSettingsForFree:["Read"],AccountPassword:["Update"],Notification:["Read"],TeamTop:["Read"],TeamAuth:["Read"],TeamInvitation:["Create"],TeamRole:["Update"],TeamRemove:["Delete"],TeamProfile:["Read","Update"],TeamSubscription:["Read","Create","Update","Delete"],TeamInvoice:["Read"],TeamPayment:["Read","Create","Update","Delete"],BannerForTeam:["Read"],DocumentForSubscription:["Read"],DocumentForTeam:["Read"],RecommendTeamSubscription:["Read"],All:["Read"]},INSTRUCTOR:{HomeForInstructorAndCoach:["Read"],ExamForInstructorAndCoach:["Read"],ChapterAuthTypeRegistered:["Read"],ChapterAuthTypeLight:["Read"],ChapterAuthTypeBasic:["Read"],ChapterAuthTypePremium:["Read"],ProgramForInstructorAndCoach:["Read"],CourseSearchTypeAll:["Read"],ProgramFeedback:["Create"],ProgramSearchForInstructorAndCoach:["Read"],PracticeForInstructorAndCoach:["Read","Create","Update"],PracticeFeedback:["Create"],PracticeAuthTypeRegistered:["Read"],PracticeAuthTypeLight:["Read"],PracticeAuthTypeBasic:["Read"],PracticeAuthTypePremium:["Read"],QuestionForInstructorAndCoach:["Read"],QuestionAnswerAndComment:["Create","Update"],QuestionFavoriteAndAnswerFavorite:["Update"],StudyReportForInstructorAndCoach:["Read"],StudyReportComment:["Create","Update","Delete"],StudyReportFavorite:["Update"],TimeLineForPro:["Read"],TimeLineForPlus:["Read"],TimeLineOfInstructorAndAdmin:["Read"],TimelineForInstructorAndCoach:["Create","Delete"],TimelineComment:["Create","Delete"],TimelineFavorite:["Update"],CourseForInstructorAndCoach:["Read"],LessonForInstructor:["Read","Create","Update"],SpotLessonForInstructor:["Read"],SpotLessonSchedule:["Read"],Chat:["Read","Create","Update","Delete"],UserTypeLabel:["Read"],AccountProfile:["Read"],AccountProfileLabelForInstructor:["Read"],AccountMail:["Update"],MailSettingsForInstructor:["Read"],AccountPassword:["Update"],AccountAlignment:["Read"],Claim:["Read"],Notification:["Read"],NotificationTypeBackSchoolNotificationsInstructor:["Read"],TeamInvitationErrorForInstructor:["Read"],BannerForInstructor:["Read"],DocumentForInstructor:["Read"],All:["Read"],RegisterRedirectHome:["Read"],TeamRegisterRedirectHome:["Read"]},COACH:{HomeForInstructorAndCoach:["Read"],ExamForInstructorAndCoach:["Read"],ChapterAuthTypeRegistered:["Read"],ChapterAuthTypeLight:["Read"],ChapterAuthTypeBasic:["Read"],ChapterAuthTypePremium:["Read"],ProgramForInstructorAndCoach:["Read"],ProgramFeedback:["Create"],ProgramSearchForInstructorAndCoach:["Read"],PracticeForInstructorAndCoach:["Read","Create","Update"],PracticeFeedback:["Create"],PracticeAuthTypeRegistered:["Read"],PracticeAuthTypeLight:["Read"],PracticeAuthTypeBasic:["Read"],PracticeAuthTypePremium:["Read"],QuestionForInstructorAndCoach:["Read"],QuestionAnswerAndComment:["Create","Update"],QuestionFavoriteAndAnswerFavorite:["Update"],StudyReportForInstructorAndCoach:["Read"],StudyReportComment:["Create","Update","Delete"],StudyReportFavorite:["Update"],TimeLineForPro:["Read"],TimeLineForPlus:["Read"],TimeLineOfInstructorAndAdmin:["Read"],TimelineForInstructorAndCoach:["Create","Delete"],TimelineComment:["Create","Delete"],TimelineFavorite:["Update"],CourseForInstructorAndCoach:["Read"],SessionForCoach:["Read","Create","Update"],Chat:["Read","Create","Update","Delete"],UserTypeLabel:["Read"],AccountProfile:["Read"],AccountProfileLabelForCoach:["Read"],AccountMail:["Update"],MailSettingsForCoach:["Read"],AccountPassword:["Update"],Notification:["Read"],BannerForInstructor:["Read"],DocumentForCoach:["Read"],All:["Read"],RegisterRedirectHome:["Read"],TeamRegisterRedirectHome:["Read"]},STUDENT:{HomeForStudent:["Read"],CourseProgramUserLog:["Read"],Exam:["Read","Create"],ChapterAuthTypeRegistered:["Read"],ChapterAuthTypeLight:["Read"],ChapterAuthTypeBasic:["Read"],ChapterAuthTypePremium:["Read"],StudyLog:["Read"],ProgramFeedback:["Create"],ProgramSearchForStudent:["Read"],PracticeSubmit:["Create","Update"],PracticeFeedback:["Create"],PracticeAuthTypeRegistered:["Read"],PracticeAuthTypeLight:["Read"],PracticeAuthTypeBasic:["Read"],PracticeAuthTypePremium:["Read"],Question:["Read","Create","Update"],QuestionResolve:["Update"],QuestionAnswerAndComment:["Create","Update"],QuestionFavoriteAndAnswerFavorite:["Update"],StudyReportSummary:["Read"],StudyReport:["Create","Update","Delete"],StudyReportComment:["Create","Update","Delete"],StudyReportFavorite:["Update"],TimeLineForPro:["Read"],TimeLineOfInstructorAndAdmin:["Read"],Timeline:["Create","Delete"],TimelineComment:["Create","Delete"],TimelineFavorite:["Update"],Curriculum:["Read"],LessonForStudent:["Read"],SessionForStudent:["Read"],Chat:["Read","Create","Update","Delete"],AccountProfile:["Read"],AccountProfileLabelForStudent:["Read"],AccountCourse:["Read"],AccountSubscription:["Read"],AccountInvoice:["Read"],AccountPaymentIntent:["Read"],AccountPayment:["Read","Create","Update","Delete"],AccountMail:["Update"],MailSettingsForStudent:["Read"],AccountPassword:["Update"],Notification:["Read"],TeamInvitationErrorForStudent:["Read"],BannerForStudent:["Read"],DocumentForStudent:["Read"],All:["Read"],RegisterRedirectHome:["Read"],TeamRegisterRedirectHome:["Read"]},STUDENT_GRADUATED:{HomeForStudent:["Read"],CourseProgramUserLog:["Read"],Exam:["Read","Create"],ChapterAuthTypeRegistered:["Read"],ChapterAuthTypeLight:["Read"],ChapterAuthTypeBasic:["Read"],ChapterAuthTypePremium:["Read"],StudyLog:["Read"],ProgramFeedback:["Create"],ProgramSearchForStudent:["Read"],PracticeFeedback:["Create"],PracticeAuthTypeRegistered:["Read"],Question:["Read"],QuestionResolve:["Update"],QuestionAnswerAndComment:["Create","Update"],QuestionFavoriteAndAnswerFavorite:["Update"],StudyReportSummary:["Read"],StudyReport:["Create","Update","Delete"],StudyReportComment:["Create","Update","Delete"],StudyReportFavorite:["Update"],TimeLineForPro:["Read"],TimeLineOfInstructorAndAdmin:["Read"],Timeline:["Create","Delete"],TimelineComment:["Create","Delete"],TimelineFavorite:["Update"],Curriculum:["Read"],LessonForStudent:["Read"],SessionForStudent:["Read"],SpotLesson:["Read"],Chat:["Read"],AccountProfile:["Read"],AccountProfileLabelForStudent:["Read"],AccountCourse:["Read"],AccountSubscription:["Read","Create"],AccountSubscriptionRegister:["Read"],AccountSubscriptionLp:["Read"],AccountInvoice:["Read"],AccountPaymentIntent:["Read"],AccountPayment:["Read","Create","Update","Delete"],AccountMail:["Update"],MailSettingsForStudent:["Read"],AccountPassword:["Update"],Notification:["Read"],TeamInvitationErrorForStudent:["Read"],BannerForGraduate:["Read"],DocumentForStudent:["Read"],RecommendLight:["Read"],RecommendBasic:["Read"],RecommendPremium:["Read"],All:["Read"]},STUDENT_SUBSCRIPTION:{HomeForStudent:["Read"],ShowNextTypeSpotLesson:["Read"],CourseProgramUserLog:["Read"],Exam:["Read","Create"],ChapterAuthTypeRegistered:["Read"],ChapterAuthTypeLight:["Read"],ChapterAuthTypeBasic:["Read"],ChapterAuthTypePremium:["Read"],StudyLog:["Read"],ProgramFeedback:["Create"],ProgramSearchForStudent:["Read"],PracticeSubmit:["Create","Update"],PracticeFeedback:["Create"],PracticeAuthTypeRegistered:["Read"],PracticeAuthTypeLight:["Read"],PracticeAuthTypeBasic:["Read"],PracticeAuthTypePremium:["Read"],Question:["Read","Create","Update"],QuestionResolve:["Update"],QuestionAnswerAndComment:["Create","Update"],QuestionFavoriteAndAnswerFavorite:["Update"],StudyReportSummary:["Read"],StudyReport:["Create","Update","Delete"],StudyReportComment:["Create","Update","Delete"],StudyReportFavorite:["Update"],TimeLineForPro:["Read"],TimeLineForPlus:["Read"],TimeLineOfInstructorAndAdmin:["Read"],Timeline:["Create","Delete"],TimelineComment:["Create","Delete"],TimelineFavorite:["Update"],Curriculum:["Read"],LessonForStudent:["Read"],SessionForStudent:["Read"],SpotLesson:["Read"],SpotLessonReserve:["Create"],SpotLessonBuyTicket:["Create"],SpotLessonCancel:["Delete"],Chat:["Read"],AccountProfile:["Read"],AccountProfileLabelForStudent:["Read"],AccountCourse:["Read"],AccountSubscription:["Read","Create","Delete"],AccountSubscriptionSelect:["Read"],AccountSubscriptionRegister:["Read"],AccountSubscriptionLp:["Read"],AccountInvoice:["Read"],AccountPaymentIntent:["Read"],AccountPayment:["Read","Create","Update","Delete"],AccountMail:["Update"],MailSettingsForStudent:["Read"],AccountPassword:["Update"],Notification:["Read"],TeamInvitationErrorForStudent:["Read"],BannerForSubscription:["Read"],DocumentForStudent:["Read"],All:["Read"]},STUDENT_SUBSCRIPTION_LIGHT:{HomeForStudent:["Read"],ShowNextTypeSpotLesson:["Read"],CourseProgramUserLog:["Read"],Exam:["Read","Create"],ChapterAuthTypeRegistered:["Read"],ChapterAuthTypeLight:["Read"],ChapterAuthTypeBasic:["Read"],ChapterAuthTypePremium:["Read"],StudyLog:["Read"],ProgramFeedback:["Create"],ProgramSearchForStudent:["Read"],PracticeSubmit:["Create","Update"],PracticeFeedback:["Create"],PracticeAuthTypeRegistered:["Read"],PracticeAuthTypeLight:["Read"],Question:["Read","Create","Update"],QuestionResolve:["Update"],QuestionAnswerAndComment:["Create","Update"],QuestionFavoriteAndAnswerFavorite:["Update"],StudyReportSummary:["Read"],StudyReport:["Create","Update","Delete"],StudyReportComment:["Create","Update","Delete"],StudyReportFavorite:["Update"],TimeLineForPro:["Read"],TimeLineForPlus:["Read"],TimeLineOfInstructorAndAdmin:["Read"],Timeline:["Create","Delete"],TimelineComment:["Create","Delete"],TimelineFavorite:["Update"],Curriculum:["Read"],LessonForStudent:["Read"],SessionForStudent:["Read"],SpotLesson:["Read"],SpotLessonReserve:["Create"],SpotLessonBuyTicket:["Create"],SpotLessonCancel:["Delete"],Chat:["Read"],AccountProfile:["Read"],AccountProfileLabelForStudent:["Read"],AccountCourse:["Read"],AccountSubscription:["Read","Create","Delete"],AccountSubscriptionSelect:["Read"],AccountSubscriptionRegister:["Read"],AccountSubscriptionLp:["Read"],AccountInvoice:["Read"],AccountPaymentIntent:["Read"],AccountPayment:["Read","Create","Update","Delete"],AccountMail:["Update"],MailSettingsForStudent:["Read"],AccountPassword:["Update"],Notification:["Read"],TeamInvitationErrorForStudent:["Read"],BannerForSubscription:["Read"],DocumentForStudent:["Read"],RecommendBasic:["Read"],RecommendPremium:["Read"],All:["Read"]},STUDENT_SUBSCRIPTION_BASIC:{HomeForStudent:["Read"],ShowNextTypeSpotLesson:["Read"],CourseProgramUserLog:["Read"],Exam:["Read","Create"],ChapterAuthTypeRegistered:["Read"],ChapterAuthTypeLight:["Read"],ChapterAuthTypeBasic:["Read"],ChapterAuthTypePremium:["Read"],StudyLog:["Read"],ProgramFeedback:["Create"],ProgramSearchForStudent:["Read"],PracticeSubmit:["Create","Update"],PracticeFeedback:["Create"],PracticeAuthTypeRegistered:["Read"],PracticeAuthTypeLight:["Read"],PracticeAuthTypeBasic:["Read"],Question:["Read","Create","Update"],QuestionResolve:["Update"],QuestionAnswerAndComment:["Create","Update"],QuestionFavoriteAndAnswerFavorite:["Update"],StudyReportSummary:["Read"],StudyReport:["Create","Update","Delete"],StudyReportComment:["Create","Update","Delete"],StudyReportFavorite:["Update"],TimeLineForPro:["Read"],TimeLineForPlus:["Read"],TimeLineOfInstructorAndAdmin:["Read"],Timeline:["Create","Delete"],TimelineComment:["Create","Delete"],TimelineFavorite:["Update"],Curriculum:["Read"],LessonForStudent:["Read"],SessionForStudent:["Read"],SpotLesson:["Read"],SpotLessonReserve:["Create"],SpotLessonBuyTicket:["Create"],SpotLessonCancel:["Delete"],Chat:["Read"],AccountProfile:["Read"],AccountProfileLabelForStudent:["Read"],AccountCourse:["Read"],AccountSubscription:["Read","Create","Delete"],AccountSubscriptionSelect:["Read"],AccountSubscriptionRegister:["Read"],AccountSubscriptionLp:["Read"],AccountInvoice:["Read"],AccountPaymentIntent:["Read"],AccountPayment:["Read","Create","Update","Delete"],AccountMail:["Update"],MailSettingsForStudent:["Read"],AccountPassword:["Update"],Notification:["Read"],TeamInvitationErrorForStudent:["Read"],BannerForSubscription:["Read"],DocumentForStudent:["Read"],RecommendPremium:["Read"],All:["Read"]},STUDENT_SUBSCRIPTION_PREMIUM:{HomeForStudent:["Read"],ShowNextTypeSpotLesson:["Read"],CourseProgramUserLog:["Read"],Exam:["Read","Create"],ChapterAuthTypeRegistered:["Read"],ChapterAuthTypeLight:["Read"],ChapterAuthTypeBasic:["Read"],ChapterAuthTypePremium:["Read"],StudyLog:["Read"],ProgramFeedback:["Create"],ProgramSearchForStudent:["Read"],PracticeSubmit:["Create","Update"],PracticeFeedback:["Create"],PracticeAuthTypeRegistered:["Read"],PracticeAuthTypeLight:["Read"],PracticeAuthTypeBasic:["Read"],PracticeAuthTypePremium:["Read"],Question:["Read","Create","Update"],QuestionResolve:["Update"],QuestionAnswerAndComment:["Create","Update"],QuestionFavoriteAndAnswerFavorite:["Update"],StudyReportSummary:["Read"],StudyReport:["Create","Update","Delete"],StudyReportComment:["Create","Update","Delete"],StudyReportFavorite:["Update"],TimeLineForPro:["Read"],TimeLineForPlus:["Read"],TimeLineOfInstructorAndAdmin:["Read"],Timeline:["Create","Delete"],TimelineComment:["Create","Delete"],TimelineFavorite:["Update"],Curriculum:["Read"],LessonForStudent:["Read"],SessionForStudent:["Read"],SpotLesson:["Read"],SpotLessonReserve:["Create"],SpotLessonBuyTicket:["Create"],SpotLessonCancel:["Delete"],Chat:["Read"],AccountProfile:["Read"],AccountProfileLabelForStudent:["Read"],AccountCourse:["Read"],AccountSubscription:["Read","Create","Delete"],AccountSubscriptionSelect:["Read"],AccountSubscriptionRegister:["Read"],AccountSubscriptionLp:["Read"],AccountInvoice:["Read"],AccountPaymentIntent:["Read"],AccountPayment:["Read","Create","Update","Delete"],AccountMail:["Update"],MailSettingsForStudent:["Read"],AccountPassword:["Update"],Notification:["Read"],TeamInvitationErrorForStudent:["Read"],BannerForSubscription:["Read"],DocumentForStudent:["Read"],All:["Read"]},STUDENT_FREE:{HomeForStudent:["Read"],ShowNextTypeSpotLesson:["Read"],Exam:["Read","Create"],ChapterAuthTypeRegistered:["Read"],StudyLog:["Read"],ProgramFeedback:["Create"],ProgramSearchForStudent:["Read"],PracticeFeedback:["Create"],PracticeAuthTypeRegistered:["Read"],StudyReportSummary:["Read"],Curriculum:["Read"],SpotLesson:["Read"],Chat:["Read"],AccountProfile:["Read"],AccountProfileLabelForStudent:["Read"],AccountWithDraw:["Delete"],AccountCourse:["Read"],AccountSubscription:["Read","Create"],AccountSubscriptionRegister:["Read"],AccountSubscriptionLp:["Read"],AccountInvoice:["Read"],AccountPaymentIntent:["Read"],AccountPayment:["Read","Create","Update","Delete"],AccountMail:["Update"],MailSettingsForStudent:["Read"],AccountPassword:["Update"],Notification:["Read"],TeamInvitationErrorForStudent:["Read"],BannerForFree:["Read"],DocumentForStudent:["Read"],RecommendLight:["Read"],RecommendBasic:["Read"],RecommendPremium:["Read"],All:["Read"]},ADMIN:{HomeForGeneral:["Read"],Exam:["Read","Create"],ChapterAuthTypeRegistered:["Read"],StudyLog:["Read"],ProgramFeedback:["Create"],ProgramSearchForGeneral:["Read"],PracticeFeedback:["Create"],PracticeAuthTypeRegistered:["Read"],StudyReportSummary:["Read"],SpotLesson:["Read"],AccountProfile:["Read"],AccountWithDraw:["Delete"],AccountSubscription:["Read","Create"],AccountSubscriptionRegister:["Read"],AccountSubscriptionLp:["Read"],AccountInvoice:["Read"],AccountPaymentIntent:["Read"],AccountPayment:["Read","Create","Update","Delete"],AccountMail:["Update"],MailSettingsForFree:["Read"],AccountPassword:["Update"],Notification:["Read"],BannerForFree:["Read"],DocumentForSubscription:["Read"],RecommendLight:["Read"],RecommendBasic:["Read"],RecommendPremium:["Read"],All:["Read"]}},Vg=(e,n=0,t=0,i=0)=>{const a=new Date(e);return a.setFullYear(a.getFullYear()+n),a.setMonth(a.getMonth()+t),a.setDate(a.getDate()+i),a},kg=()=>{var e,n,t,r,c,s,o;const d=Object(Pc.c)((e=>e.user)),b=Object(Pc.b)(),j=Object(m.m)(),[u,A]=a.a.useState(!1),[h,p]=a.a.useState(!1),[g,O,x]=Object(ch.a)(),[f]=function(e){const n={...Yc,...e};return Hc.a(SA,n)}(),v=a.a.useCallback((()=>{x("lmsuid",{path:"/",domain:".sejuku.net"}),O("is_ins",0,{expires:Vg(new Date,10,0,0),path:"/",domain:".sejuku.net",secure:!0}),O("is_std",0,{expires:Vg(new Date,10,0,0),path:"/",domain:".sejuku.net",secure:!0}),O("is_adm",0,{expires:Vg(new Date,10,0,0),path:"/",domain:".sejuku.net",secure:!0}),O("is_sns",0,{expires:Vg(new Date,10,0,0),path:"/",domain:".sejuku.net",secure:!0}),O("sns_type",0,{expires:Vg(new Date,10,0,0),path:"/",domain:".sejuku.net",secure:!0}),d.lmsUser&&(O("lmsuid",d.lmsUser.id,{expires:Vg(new Date,10,0,0),path:"/",domain:".sejuku.net",secure:!0}),O("sns_type",d.lmsUser.snsType,{expires:Vg(new Date,10,0,0),path:"/",domain:".sejuku.net",secure:!0}),O("is_ins",Q(),{expires:Vg(new Date,10,0,0),path:"/",domain:".sejuku.net",secure:!0}),O("is_std",Z(),{expires:Vg(new Date,10,0,0),path:"/",domain:".sejuku.net",secure:!0}),O("is_adm",F(),{expires:Vg(new Date,10,0,0),path:"/",domain:".sejuku.net",secure:!0}),0!==d.lmsUser.snsType&&O("is_sns",1,{expires:Vg(new Date,10,0,0),path:"/",domain:".sejuku.net",secure:!0}))}),[d]),w=Object(i.useCallback)(((e,n,t)=>{if(!e||!t)return xo.NotLogin;const i=(e=>{var n;const t=bh(sh,e);return null!==(n=Object.values(xo).find((e=>e===t)))&&void 0!==n?n:null})(t);if(i===xo.Coach&&H(e))return i;if(i===xo.Instructor&&q(e))return i;if(i&&e.roles.includes(i)&&Y(e))return i;if(n&&0!==n.length&&J(e)){const i=(e=>bh(oh,e))(t);if(i){const a=n.find((e=>e.teamID===i));if(a)return b({type:MA,payload:{teamID:i}}),C(e,a);{jh(t);const i=n[n.length-1];return b({type:MA,payload:{teamID:i.id}}),C(e,i)}}{const t=n[n.length-1];return C(e,t)}}if(U(e)){const n=e.roles.find((e=>e!==xo.Admin));return n||xo.Admin}return e.roles[0]}),[b]),C=(e,n)=>n.role===Ao.Admin&&e.roles.includes(xo.TeamAdmin)&&e.teamIDsForTeamAdmin.includes(n.teamID)?xo.TeamAdmin:n.role===Ao.Admin&&e.roles.includes(xo.TeamAdminFree)&&!e.teamIDsForTeamAdmin.includes(n.teamID)?xo.TeamAdminFree:n.role===Ao.General&&e.roles.includes(xo.TeamMember)&&e.teamIDs.includes(n.teamID)?xo.TeamMember:n.role===Ao.General&&e.roles.includes(xo.TeamMemberFree)&&!e.teamIDs.includes(n.teamID)?xo.TeamMemberFree:xo.NotLogin,[y]=function(e){const n={...Yc,...e};return Hc.a(CA,n)}(),V=Object(i.useCallback)((async()=>{try{const e=g.smrc_?String(g.smrc_):void 0;y({variables:{smrc:e}})}catch(e){return}}),[y,g]),{refetch:k}=function(e){const n={...Yc,...e};return qc.b(fA,n)}({skip:!0}),S=Object(i.useCallback)((async()=>await k().then((e=>{var n;const t=e.data.currentUserWithPermissions;if(!t)return{list:void 0};const i=t.user,a=t.permissionList,r=t.contractsOfStripeSubscriptionForAnalytics;return i&&a?(b({type:BA,payload:{lmsUser:i,permissionList:a,contractsOfStripeSubscriptionForAnalytics:r,role:w(a,d.teams,null===(n=d.lmsUser)||void 0===n?void 0:n.id)}}),{list:null!==t&&void 0!==t?t:void 0}):{list:void 0}})).catch((e=>({list:void 0,error:e})))),[w,b,k,null===(e=d.lmsUser)||void 0===e?void 0:e.id,d.teams]),{refetch:I}=function(e){const n={...Yc,...e};return qc.b(eA,n)}({skip:!0}),T=Object(i.useCallback)((async()=>await I().then((e=>{const n=e.data.myTeamMembers;if(!n||0===n.length)return void b({type:RA,payload:{teamID:null,teams:[]}});const t=n[n.length-1].teamID;return b({type:RA,payload:{teamID:t,teams:n}}),n}))),[b,I]),D=null!==(n=d.teams.find((e=>e.teamID===d.teamID)))&&void 0!==n?n:null,E=Object(i.useCallback)((async(e,n)=>{if(n)try{sessionStorage.setItem("socialLoginCallbackURL",n)}catch{}await K.a.federatedSignIn({provider:e})}),[]),R=Object(i.useCallback)((async()=>{var e;b({type:DA}),rh.a.defaults.headers.common.Authorization="",(null===(e=d.lmsUser)||void 0===e?void 0:e.id)&&(e=>{const n=[sh,lh].map((n=>({key:n,item:bh(n,e)})));try{localStorage.clear()}catch{return}n.forEach((({key:n,item:t})=>{t&&mh(n,e,t)}))})(d.lmsUser.id),await K.a.signOut(),v()}),[b,v,null===(t=d.lmsUser)||void 0===t?void 0:t.id]),M=Object(i.useCallback)((e=>{var n,t,i;(null===(n=d.lmsUser)||void 0===n?void 0:n.id)&&(t=e,i=d.lmsUser.id,mh(sh,i,t)),b({type:EA,payload:{role:e}})}),[b,null===(r=d.lmsUser)||void 0===r?void 0:r.id]),z=Object(i.useCallback)((()=>{var e;const n=null===(e=d.permissionList)||void 0===e?void 0:e.roles;if(!n)return;const t=Ah.find((e=>n.find((n=>n===e))));t&&M(t)}),[null===(c=d.permissionList)||void 0===c?void 0:c.roles,M]),B=Object(i.useCallback)((e=>{var n;(null===(n=d.lmsUser)||void 0===n?void 0:n.id)&&((e,n)=>{mh(oh,n,e)})(e,d.lmsUser.id),b({type:MA,payload:{teamID:e}})}),[b,null===(s=d.lmsUser)||void 0===s?void 0:s.id]),L=Object(i.useCallback)((()=>{var e;(null===(e=d.lmsUser)||void 0===e?void 0:e.id)&&jh(d.lmsUser.id),b({type:MA,payload:{teamID:null}})}),[b,null===(o=d.lmsUser)||void 0===o?void 0:o.id]),N=a.a.useCallback((async()=>{if(A(!0),d.isLogged){var e;v();const{list:n}=await S(),t=null===n||void 0===n?void 0:n.permissionList,i=await T();return b({type:EA,payload:{role:w(t,i,null===(e=d.lmsUser)||void 0===e?void 0:e.id)}}),p(!0),void A(!1)}const n=await K.a.currentAuthenticatedUser().then((e=>e)).catch((()=>{b({type:EA,payload:{role:xo.NotLogin}}),v(),p(!0),A(!1)}));if(!n)return b({type:EA,payload:{role:xo.NotLogin}}),v(),void A(!1);rh.a.defaults.headers.common.Authorization="Bearer ".concat(n.signInUserSession.idToken.jwtToken);const{list:t}=await S(),i=null===t||void 0===t?void 0:t.user,a=null===t||void 0===t?void 0:t.permissionList,r=null===t||void 0===t?void 0:t.contractsOfStripeSubscriptionForAnalytics;if(!i||!a)return b({type:EA,payload:{role:xo.NotLogin}}),v(),p(!0),void A(!1);b({type:IA,payload:{cognitoUser:n,lmsUser:i,permissionList:a,contractsOfStripeSubscriptionForAnalytics:r}}),v();const c=await T();b({type:IA,payload:{cognitoUser:n,lmsUser:i,permissionList:a,contractsOfStripeSubscriptionForAnalytics:r,role:w(a,c,i.id)}}),p(!0),A(!1),V()}),[d]),P=Object(i.useCallback)((()=>!!d.cognitoUser&&/Google|Facebook/.test(d.cognitoUser.getUsername())),[d.cognitoUser]),U=e=>e.roles.includes(xo.Admin),F=Object(i.useCallback)((()=>{const e=d.permissionList;return!!e&&U(e)}),[d.permissionList]),q=e=>e.roles.includes(xo.Instructor),Q=Object(i.useCallback)((()=>{const e=d.permissionList;return!!e&&q(e)}),[d.permissionList]),H=e=>e.roles.includes(xo.Coach),G=Object(i.useCallback)((()=>{const e=d.permissionList;return!!e&&H(e)}),[d.permissionList]),Y=e=>{for(const n of Ah)if(e.roles.includes(n))return!0;return!1},Z=Object(i.useCallback)((()=>{const e=d.permissionList;return!!e&&Y(e)}),[d.permissionList]),J=e=>{for(const n of hh)if(e.roles.includes(n))return!0;return!1},W=Object(i.useCallback)(((e,n)=>{const t=Object.entries(yg).find((e=>e[0]===d.role));if(!t)return!1;const i=Object.entries(t[1]).find((n=>n[0]===e));return!!i&&i[1].includes(n)}),[d.role]),X=Object(i.useCallback)((()=>d.role!==xo.Instructor&&Q()),[d.role,Q]),_=Object(i.useCallback)((()=>d.role!==xo.Coach&&G()),[d.role,G]),$=Object(i.useCallback)((()=>!Ah.includes(d.role)&&Z()),[d.role,Z]);return a.a.useEffect((()=>{var e,n;d.lmsUser&&l.a.dataLayer({dataLayer:{userId:d.lmsUser.id,isInstructor:d.lmsUser.isInstructor,isStudent:d.lmsUser.isStudent,pageView:{snsType:d.lmsUser.snsType,status:d.lmsUser.status,currentContract:d.contractsOfStripeSubscriptionForAnalytics,name:null===(e=d.lmsUser.personalInfo)||void 0===e?void 0:e.name,email:null===(n=d.lmsUser.personalInfo)||void 0===n?void 0:n.email,sex:d.lmsUser.sex,job:d.lmsUser.job,createdDate:d.lmsUser.createdAt}},dataLayerName:"LMSDataLayer"})}),[d.lmsUser,d.contractsOfStripeSubscriptionForAnalytics]),Object(i.useEffect)((()=>{try{const e=sessionStorage.getItem("socialLoginCallbackURL");e&&(sessionStorage.removeItem("socialLoginCallbackURL"),b({type:NA,payload:{callbackURL:e}}))}catch{}}),[b]),{user:d,team:D,login:async(e,n)=>{A(!0),K.a.configure({Auth:{region:"ap-northeast-1",userPoolId:"ap-northeast-1_F0mnLQTVn",userPoolWebClientId:"4ffbv404e26o5mehn9qr3kobkp"},oauth:{domain:"lms-sejuku.auth.ap-northeast-1.amazoncognito.com",redirectSignIn:"https://terakoya.sejuku.net/login/oauth/callback",redirectSignOut:"https://terakoya.sejuku.net/",responseType:"code"}});const t=await K.a.signIn(e,n);if(void 0==t)throw A(!1),"\u30e6\u30fc\u30b6\u30fc\u3068\u3057\u3066\u767b\u9332\u3055\u308c\u3066\u3044\u307e\u305b\u3093\u3002";if("NEW_PASSWORD_REQUIRED"===t.challengeName)return b((e=>({type:TA,payload:e}))({cognitoUser:t})),A(!1),null;rh.a.defaults.headers.common.Authorization="Bearer ".concat(t.signInUserSession.idToken.jwtToken);const{list:i}=await S(),a=null===i||void 0===i?void 0:i.user,r=null===i||void 0===i?void 0:i.permissionList,c=null===i||void 0===i?void 0:i.contractsOfStripeSubscriptionForAnalytics;if(!a||!r)throw"\u30e6\u30fc\u30b6\u30fc\u3068\u3057\u3066\u767b\u9332\u3055\u308c\u3066\u3044\u307e\u305b\u3093\u3002";const s=await T(),o={lmsUser:a,cognitoUser:t,permissionCheck:r,contractsOfStripeSubscriptionForAnalytics:c,role:w(r,s,a.id),isChangePassword:!1,isLogged:!0,loginError:""};return b({type:IA,payload:o}),v(),A(!1),V(),i},socialLogin:E,callbackOauthLogin:async()=>{const e=await K.a.currentAuthenticatedUser({bypassCache:!1}).then((e=>e)).catch((()=>{b({type:zA,payload:{error:"\u7121\u52b9\u306a\u30e6\u30fc\u30b6\u30fc\u3067\u3059"}}),j("/")}));if(void 0==e){return b({type:zA,payload:{error:uh}}),void j("/")}rh.a.defaults.headers.common.Authorization="Bearer ".concat(e.signInUserSession.idToken.jwtToken);const{list:n}=await S(),t=n||await(async e=>{try{var n,t,i;const a=await f({variables:{input:{userName:e,smrc:g.smrc_}}});return l.a.dataLayer({dataLayer:{userId:null===(n=a.data)||void 0===n?void 0:n.oAuthRegister.id,user:null===(t=a.data)||void 0===t?void 0:t.oAuthRegister,event:"gtm-register-step_01"},dataLayerName:"LMSDataLayer"}),null===(i=a.data)||void 0===i?void 0:i.oAuthRegister}catch{return}})(e.username).then((async()=>{const{list:e,error:n}=await S();var t,i;if(!n)return sessionStorage.setItem("registeredType","new"),sessionStorage.setItem("questionnaire","true"),e;"COMMON_INVALID_TOKEN"===(null===(t=n.graphQLErrors[0])||void 0===t||null===(i=t.extensions)||void 0===i?void 0:i.code)&&b({type:zA,payload:{error:"If you have already registered an account with an email address, you will not be able to register/login with a new social account with the same email address. Please try logging in with your email address and password."}})})).catch((e=>{b({type:zA,payload:{error:e}})})),i=null===t||void 0===t?void 0:t.user,a=null===t||void 0===t?void 0:t.permissionList,r=null===t||void 0===t?void 0:t.contractsOfStripeSubscriptionForAnalytics;if(i&&a){if(0===Object.keys(i).length){return b({type:zA,payload:{error:uh}})…
=e.studySummary)&&void 0!==p?p:void 0,type:"graph",data:null!==(O=e.monthlyStudyCalendars)&&void 0!==O?O:[]})}),Object(g.jsx)(GPn,{children:Object(g.jsx)(T9,{data:null!==(x=e.studyTagSummaries)&&void 0!==x?x:[]})})]})]}),Object(g.jsxs)(YPn,{children:[Object(g.jsx)(KPn,{children:"\u81ea\u5df1\u7d39\u4ecb"}),Object(g.jsx)(ZPn,{$empty:!e.profile,children:e.profile||"\u672a\u767b\u9332"}),Object(g.jsx)(KPn,{children:"\u30d7\u30ed\u30b0\u30e9\u30df\u30f3\u30b0\u7d4c\u9a13"}),Object(g.jsx)(ZPn,{$empty:k,children:k?"\u672a\u767b\u9332":null===(f=e.userTags)||void 0===f?void 0:f.map((e=>{var n;return"".concat(null===(n=e.tag)||void 0===n?void 0:n.name," (").concat(e.term,"\u5e74)")})).join(" / ")}),!e.isInstructor&&Object(g.jsxs)(g.Fragment,{children:[Object(g.jsx)(KPn,{children:"\u5b66\u7fd2\u76ee\u6a19"}),Object(g.jsx)(ZPn,{$empty:!e.objective,children:e.objective||"\u672a\u767b\u9332"}),Object(g.jsxs)(KPn,{children:["\u5b66\u7fd2\u4e88\u5b9a\u306e\u8a00\u8a9e /",Object(g.jsx)("br",{})," \u30d5\u30ec\u30fc\u30e0\u30ef\u30fc\u30af"]}),Object(g.jsx)(ZPn,{$empty:S,children:S?"\u672a\u767b\u9332":Object(g.jsx)(JPn,{children:null!==(v=null===(w=e.tags)||void 0===w?void 0:w.map((e=>Object(g.jsx)(vte,{name:e.name},e.id))))&&void 0!==v?v:"\u672a\u767b\u9332"})})]})]})]})},NPn=ne.c.div(dPn||(dPn=Object(s.a)(["\n  width: 100%;\n  padding: 2rem 2rem 3rem;\n  background: #fff;\n  border: 1px solid rgba(0, 0, 0, 0.1);\n  border-radius: 0.125rem;\n  box-sizing: border-box;\n\n  ","\n"])),Dg.a.lessThan("medium")(bPn||(bPn=Object(s.a)(["\n    padding: 2rem 1rem 1.75rem;\n  "])))),PPn=ne.c.div(mPn||(mPn=Object(s.a)(["\n  display: flex;\n  justify-content: space-between;\n  padding-left: 0.3125rem;\n  width: 100%;\n  box-sizing: border-box;\n\n  ","\n"])),Dg.a.lessThan("medium")(jPn||(jPn=Object(s.a)(["\n    flex-direction: column;\n    justify-content: center;\n    align-items: center;\n    padding-left: 0;\n  "])))),UPn=ne.c.div(uPn||(uPn=Object(s.a)(["\n  display: flex;\n  align-items: center;\n  gap: 1.5rem;\n\n  ","\n"])),Dg.a.lessThan("medium")(APn||(APn=Object(s.a)(["\n    flex-direction: column;\n    justify-content: center;\n    align-items: center;\n    gap: .375rem;\n    padding-left: 0;\n  "])))),FPn=ne.c.p(hPn||(hPn=Object(s.a)(["\n  font-weight: normal;\n  font-size: 1.5rem;\n  line-height: 1em;\n  color: rgba(0, 0, 0, 0.87);\n\n  ","\n"])),Dg.a.lessThan("medium")(pPn||(pPn=Object(s.a)(["\n    font-size: .875rem;\n    line-height: 1.25rem;\n    text-align: center;\n  "])))),qPn=ne.c.div(gPn||(gPn=Object(s.a)(["\n  display: flex;\n  align-items: center;\n  gap: 0.5rem;\n  margin-top: 0.5rem;\n\n  p {\n    display: flex;\n    align-items: center;\n    gap: 0.125rem;\n\n    img {\n      display: block;\n    }\n\n    span {\n      display: block;\n      color: rgba(0, 0, 0, 0.87);\n      font-size: 0.875rem;\n      line-height: 1.25rem;\n    }\n  }\n\n  ","\n"])),Dg.a.lessThan("medium")(OPn||(OPn=Object(s.a)(["\n    p {\n      img {\n        width: 1rem;\n      }\n\n      span {\n        font-size: .75rem;\n        line-height: 1rem;\n      }\n    }\n  "])))),QPn=ne.c.div(xPn||(xPn=Object(s.a)(["\n  ","\n"])),Dg.a.lessThan("medium")(fPn||(fPn=Object(s.a)(["\n    margin-top: 1rem;\n  "])))),HPn=ne.c.section(vPn||(vPn=Object(s.a)(["\n  display: flex;\n  flex-wrap: wrap;\n  margin-top: 2rem;\n  background: #fff;\n\n  h3 {\n    margin-bottom: 1.5rem;\n    font-size: 1rem;\n    font-weight: 500;\n    line-height: 1.5;\n  }\n\n  ","\n"])),Dg.a.lessThan("medium")(wPn||(wPn=Object(s.a)(["\n    margin-top: 1rem;\n  "])))),GPn=ne.c.div(CPn||(CPn=Object(s.a)(["\n  flex: 1;\n\n  &:last-of-type {\n    margin-left: 1.5rem;\n    padding-left: 1.5rem;\n    border-left: 1px solid rgba(0, 0, 0, 0.1);\n  }\n\n  ","\n"])),Dg.a.lessThan("medium")(yPn||(yPn=Object(s.a)(["\n    flex: auto;\n    width: 100%;\n    padding-top: 1.5rem;\n    border-top: 1px solid rgba(0,0,0,0.1);\n\n    &:last-of-type {\n      margin: 1.875rem 0 0;\n      padding-left: 0;\n      border-left: none;\n    }\n  "])))),YPn=ne.c.dl(VPn||(VPn=Object(s.a)(["\n  display: flex;\n  flex-wrap: wrap;\n  margin-top: 2rem;\n  padding-top: 0.1875rem;\n  border-top: 1px solid rgba(0, 0, 0, 0.1);\n\n  ","\n"])),Dg.a.lessThan("medium")(kPn||(kPn=Object(s.a)(["\n    margin-top: 1.875rem;\n    padding-top: 1.25rem;\n  "])))),KPn=ne.c.dt(SPn||(SPn=Object(s.a)(["\n  margin-top: 1.5rem;\n  width: 12rem;\n  font-weight: 700;\n  font-size: 1rem;\n  line-height: 1.4;\n  color: rgba(0, 0, 0, 0.87);\n\n  ",";\n"])),Dg.a.lessThan("medium")(IPn||(IPn=Object(s.a)(["\n    margin-top: 0.875rem;\n    width: 100%;\n    font-size: 0.75rem;\n  "])))),ZPn=ne.c.dd(TPn||(TPn=Object(s.a)(["\n  margin-top: 1.5rem;\n  width: calc(100% - 12rem);\n  font-weight: 400;\n  font-size: 1rem;\n  line-height: 1.4;\n  color: ",";\n  white-space: pre-wrap;\n  word-break: break-all;\n\n  ",";\n"])),(({$empty:e})=>e?"rgba(0, 0, 0, 0.36)":"rgba(0, 0, 0, 0.87)"),Dg.a.lessThan("medium")(DPn||(DPn=Object(s.a)(["\n    margin-top: 0.625rem;\n    width: 100%;\n    font-size: 0.75rem;\n  "])))),JPn=ne.c.div(EPn||(EPn=Object(s.a)(["\n  display: flex;\n  flex-wrap: wrap;\n  margin: -0.5rem 0 0 -0.625rem;\n\n  & > * {\n    margin: 0.5rem 0 0 0.625rem;\n  }\n"]))),WPn=Object(ne.c)((({studyReportCount:e,whileStudyingProgramCount:n,completedProgramCount:t,totalLessonCount:i,questionCount:a,className:r})=>Object(g.jsxs)(lPn,{className:r,children:[Object(g.jsx)(TMe,{icon:GMe,name:"\u7dcf\u5b66\u7fd2\u56de\u6570",value:e}),Object(g.jsx)(TMe,{icon:YMe,name:"\u9032\u884c\u4e2d\u6559\u6750\u6570",value:n}),Object(g.jsx)(TMe,{icon:YMe,name:"\u5b8c\u4e86\u6559\u6750\u6570",value:t}),Object(g.jsx)(TMe,{icon:KMe,name:"\u7dcf\u30ec\u30c3\u30b9\u30f3\u6570",value:i}),Object(g.jsx)(TMe,{icon:oPn,name:"Q&A\u6570",value:a})]})))(RPn||(RPn=Object(s.a)(["\n  margin-top: 2rem;\n\n  ","\n"])),Dg.a.lessThan("medium")(MPn||(MPn=Object(s.a)(["\n    padding-top: 0.75rem;\n    border-top: 1px solid rgba(0, 0, 0, 0.1);\n  "]))));var XPn;const _Pn=()=>{const e=Object(m.o)().id,n=Number(e);return Number.isNaN(n)?wZ:Object(g.jsx)($Pn,{userID:n})},$Pn=e=>{const n="\u30d7\u30ed\u30d5\u30a3\u30fc\u30eb | ".concat(A),{data:t,loading:i}=function(e){const n={...Yc,...e};return qc.b(OA,n)}({variables:{id:e.userID}});return i?Object(g.jsx)(oP,{display:!0}):t&&t.user?Object(g.jsx)(rPn,{activeTab:"profile",user:t.user,metaTitle:n,children:Object(g.jsx)(P4,{children:Object(g.jsx)(eUn,{children:Object(g.jsx)(LPn,{user:t.user})})})}):wZ},eUn=ne.c.div(XPn||(XPn=Object(s.a)(["\n  display: flex;\n  justify-content: center;\n  align-items: center;\n  flex-direction: column;\n  width: 100%;\n"])));var nUn,tUn,iUn,aUn,rUn,cUn,sUn,oUn;const lUn=()=>{const e=Object(m.o)().id,n=Number(e);return Number.isNaN(n)?wZ:Object(g.jsx)(dUn,{userID:n})},dUn=e=>{var n;const t="\u6559\u6750 | ".concat(A),{data:a,loading:r}=function(e){const n={...Yc,...e};return qc.b(xA,n)}({variables:{id:e.userID}}),[c,s]=Object(i.useState)("whileStudying");if(r)return Object(g.jsx)(oP,{display:!0});if(!a||!a.user||a.user.isInstructor)return wZ;const o="completed"===c?a.user.completedPrograms:a.user.whileStudyingPrograms;return Object(g.jsx)(rPn,{activeTab:"programs",user:a.user,metaTitle:t,children:Object(g.jsxs)(P4,{children:[Object(g.jsxs)(bUn,{children:[Object(g.jsx)(mUn,{onClick:()=>s("whileStudying"),$active:"whileStudying"===c,children:"\u5b66\u7fd2\u4e2d\u306e\u6559\u6750"}),Object(g.jsx)(mUn,{onClick:()=>s("completed"),$active:"completed"===c,children:"\u5b8c\u4e86\u3057\u305f\u6559\u6750"})]}),Object(g.jsxs)(jUn,{children:[Object(g.jsx)("span",{children:"\u6559\u6750\u6570\uff1a"}),null!==(n=null===o||void 0===o?void 0:o.length)&&void 0!==n?n:0]}),Object(g.jsx)(uUn,{children:Object(g.jsx)(ume,{children:null===o||void 0===o?void 0:o.map((e=>{var n,t,i;return Object(g.jsx)(Lme,{id:e.id,image:e.icon,thumb:e.thumbnail,title:e.title,description:e.description,questionCount:e.questionCount,answerCount:e.answerCount,chapterCount:null!==(n=e.chapterCount)&&void 0!==n?n:0,requireTime:null!==(t=e.requireTime)&&void 0!==t?t:0,completedTime:e.completedTime?e.completedTime:0,tags:null!==(i=e.tags)&&void 0!==i?i:[],studyLogCount:e.studyLogCount,isUserPage:!0},e.id)}))})})]})})},bUn=ne.c.div(nUn||(nUn=Object(s.a)(["\n  display: flex;\n\n  & > :not(:first-child) {\n    margin-left: 0.625rem;\n  }\n\n  ","\n"])),Dg.a.lessThan("small")(tUn||(tUn=Object(s.a)(["\n    justify-content: space-between;\n    padding: 0 0.5rem 0 0.5625rem;\n    \n    & > :not(:first-child) {\n      margin-left: 0;\n    }\n  "])))),mUn=Object(ne.c)(wO)(iUn||(iUn=Object(s.a)(["\n  padding: 0.4375rem 0.75rem;\n  background: ",";\n  font-size: 0.875rem;\n  font-weight: ",";\n  color: ",";\n  line-height: 1.2;\n  border-radius: 1.875rem;\n\n  ","\n"])),(({$active:e})=>e?"#EB0000":"#FFFFFF"),(({$active:e})=>e?700:400),(({$active:e})=>e?"#FFFFFF":"rgba(0, 0, 0, 0.6)"),Dg.a.lessThan("small")(aUn||(aUn=Object(s.a)(["\n    padding: 0.4375rem 1em;\n    font-size: 0.9375rem;\n    \n  "])))),jUn=ne.c.p(rUn||(rUn=Object(s.a)(["\n  margin: 1rem 0 0 0.25rem;\n  font-size: 1.125rem;\n  font-weight: 700;\n  line-height: 1.4;\n\n  span {\n    margin-left: 0.625rem;\n    font-size: 0.9375rem;\n    font-weight: 400;\n  }\n\n  ","\n"])),Dg.a.lessThan("small")(cUn||(cUn=Object(s.a)(["\n    display: none;\n  "])))),uUn=ne.c.div(sUn||(sUn=Object(s.a)(["\n  display: flex;\n  flex-wrap: wrap;\n  margin-top: 1rem;\n  width: 100%;\n\n  ","\n"])),Dg.a.lessThan("small")(oUn||(oUn=Object(s.a)(["\n    margin-top: 3rem;\n  "]))));var AUn,hUn;const pUn=()=>{const e=Object(m.o)().id,n=Number(e);return Number.isNaN(n)?wZ:Object(g.jsx)(gUn,{userID:n})},gUn=e=>{var n;const t="\u6295\u7a3f | ".concat(A),a=Object(m.k)(),{data:r,loading:c}=gA({variables:{id:e.userID}}),{data:s,loading:o,refetch:l,fetchMore:d,error:b}=function(e){const n={...Yc,...e};return qc.b(lA,n)}({variables:{first:20,userID:e.userID}}),j=null===s||void 0===s?void 0:s.getTimelinesByUserID.pageInfo,[u,h]=Object(i.useState)(!1),p=Object(i.useCallback)((async()=>{h(!0);try{await l()}catch(e){}finally{h(!1)}}),[l]),O=Object(i.useCallback)((async()=>{if(null===j||void 0===j?void 0:j.hasNextPage)try{await d({variables:{after:null===j||void 0===j?void 0:j.endCursor}})}catch(e){}}),[j,d]);return c?Object(g.jsx)(oP,{display:!0}):r&&r.user?Object(g.jsxs)(rPn,{activeTab:"timelines",user:r.user,metaTitle:t,children:[Object(g.jsx)(oP,{display:o||u}),Object(g.jsx)(P4,{children:b?Object(g.jsxs)(OUn,{children:[Object(g.jsx)("h4",{children:"\u6295\u7a3f\u306e\u8aad\u307f\u8fbc\u307f\u304c\u884c\u308f\u308c\u307e\u305b\u3093\u3067\u3057\u305f"}),Object(g.jsx)("p",{children:"\u56de\u7dda\u72b6\u6cc1\u3092\u78ba\u8a8d\u3057\u3066\u518d\u8aad\u307f\u8fbc\u307f\u3092\u884c\u3063\u3066\u304f\u3060\u3055\u3044"}),Object(g.jsx)("p",{className:"reload",onClick:p,children:"\u518d\u8aad\u307f\u8fbc\u307f"})]}):Object(g.jsxs)(g.Fragment,{children:[0===(null===s||void 0===s?void 0:s.getTimelinesByUserID.items.length)&&Object(g.jsx)(OUn,{children:Object(g.jsx)("h4",{children:"\u6295\u7a3f\u304c\u307e\u3060\u3042\u308a\u307e\u305b\u3093"})}),Object(g.jsx)(FSn,{items:null!==(n=null===s||void 0===s?void 0:s.getTimelinesByUserID.items)&&void 0!==n?n:[],refetch:p,fetchMore:O,hasNext:!!(null===j||void 0===j?void 0:j.hasNextPage),referer:a.pathname})]})})]}):wZ},OUn=ne.c.div(AUn||(AUn=Object(s.a)(["\n  padding: 3rem 0;\n  background-color: #fff;\n  border: 1px solid rgba(0, 0, 0, 0.1);\n  margin-bottom: 2rem;\n\n  h4 {\n    color: rgba(0, 0, 0, 0.87);\n    font-weight: bold;\n    font-size: 1rem;\n    text-align: center;\n  }\n\n  p {\n    margin-top: 6px;\n    color: rgba(0, 0, 0, 0.87);\n    font-weight: 400;\n    font-size: 1rem;\n    text-align: center;\n  }\n\n  .reload {\n    background-color: #eb0000;\n    display: flex;\n    width: 160px;\n    height: 43px;\n    align-items: center;\n    justify-content: center;\n    border-radius: 3px;\n    cursor: pointer;\n    color: #ffffff;\n    font-size: 0.9rem;\n    font-weight: bold;\n    margin: 0 auto;\n    margin-top: 21px;\n  }\n\n  ","\n"])),Dg.a.lessThan("medium")(hUn||(hUn=Object(s.a)(["\n    width: calc(100% - 2rem);\n    margin: 0 auto 2rem;\n  "]))));var xUn,fUn,vUn,wUn;const CUn=()=>{const e=Object(m.o)().id,n=Number(e);return Number.isNaN(n)?wZ:Object(g.jsx)(yUn,{userID:n})},yUn=e=>{var n,t;const a="Q&A | ".concat(A),{setParams:r,queries:c}=Gie(),s=Object(i.useMemo)((()=>(null===c||void 0===c?void 0:c.page)?Number(c.page):1),[null===c||void 0===c?void 0:c.page]),o=Object(i.useMemo)((()=>{var e;return null!==(e=null===c||void 0===c?void 0:c.sort_key)&&void 0!==e?e:Us.CreatedAt}),[null===c||void 0===c?void 0:c.sort_key]),l=Object(i.useCallback)((e=>{r([{name:"page",value:e.toString()}])}),[r]),d=Object(i.useCallback)((e=>{r([{name:"sort_key",value:e},{name:"page"}])}),[r]),{data:b,loading:m}=gA({variables:{id:e.userID}}),{data:j,loading:u,error:h,refetch:p}=Hm({variables:{input:{type:Ps.All,targetUserID:e.userID,sortKey:null!==(n=Object.values(Us).find((e=>e===o)))&&void 0!==n?n:Us.CreatedAt,limit:AP,page:s}}}),[O,x]=Object(i.useState)(!1),f=Object(i.useCallback)((async()=>{x(!0);try{await p()}catch(e){}finally{x(!1)}}),[p]);return m?Object(g.jsx)(oP,{display:!0}):b&&b.user&&!b.user.isInstructor?Object(g.jsxs)(rPn,{activeTab:"questions",user:b.user,metaTitle:a,children:[Object(g.jsx)(oP,{display:u||O}),Object(g.jsxs)(P4,{children:[Object(g.jsxs)(VUn,{children:[Object(g.jsx)("span",{className:"label",children:"\u4e26\u3073\u66ff\u3048\uff1a"}),Object(g.jsx)(EW,{name:"sortKey",value:o,options:[...Yee],onChange:({target:{value:e}})=>d(e)})]}),h?Object(g.jsxs)(kUn,{children:[Object(g.jsx)("h4",{children:"Q&A\u306e\u8aad\u307f\u8fbc\u307f\u304c\u884c\u308f\u308c\u307e\u305b\u3093\u3067\u3057\u305f"}),Object(g.jsx)("p",{children:"\u56de\u7dda\u72b6\u6cc1\u3092\u78ba\u8a8d\u3057\u3066\u518d\u8aad\u307f\u8fbc\u307f\u3092\u884c\u3063\u3066\u304f\u3060\u3055\u3044"}),Object(g.jsx)("p",{className:"reload",onClick:f,children:"\u518d\u8aad\u307f\u8fbc\u307f"})]}):Object(g.jsxs)(g.Fragment,{children:[0===(null===j||void 0===j?void 0:j.getQuestions.items.length)&&Object(g.jsx)(kUn,{children:Object(g.jsx)("h4",{children:"\u8cea\u554f\u304c\u307e\u3060\u3042\u308a\u307e\u305b\u3093"})}),null===j||void 0===j?void 0:j.getQuestions.items.map((e=>Object(g.jsx)(zae,{question:e},e.id))),Object(g.jsx)(U9,{total:null!==(t=null===j||void 0===j?void 0:j.getQuestions.total)&&void 0!==t?t:0,perPage:AP,page:s,setPage:l})]})]})]}):wZ},VUn=ne.c.div(xUn||(xUn=Object(s.a)(["\n  display: flex;\n  justify-content: flex-end;\n  align-items: center;\n  margin-bottom: 0.75rem;\n\n  .label {\n    margin-right: 0.625rem;\n    font-size: 0.75rem;\n    line-height: 1.33;\n  }\n\n  select {\n    font-size: 0.8125rem;\n  }\n\n  ","\n"])),Dg.a.lessThan("medium")(fUn||(fUn=Object(s.a)(["\n    margin-bottom: 0.625rem;\n    padding: 0 1rem;\n  "])))),kUn=ne.c.div(vUn||(vUn=Object(s.a)(["\n  padding: 3rem 0;\n  background-color: #fff;\n  border: 1px solid rgba(0, 0, 0, 0.1);\n  margin-bottom: 2rem;\n\n  h4 {\n    color: rgba(0, 0, 0, 0.87);\n    font-weight: bold;\n    font-size: 1rem;\n    text-align: center;\n  }\n\n  p {\n    margin-top: 6px;\n    color: rgba(0, 0, 0, 0.87);\n    font-weight: 400;\n    font-size: 1rem;\n    text-align: center;\n  }\n\n  .reload {\n    background-color: #eb0000;\n    display: flex;\n    width: 160px;\n    height: 43px;\n    align-items: center;\n    justify-content: center;\n    border-radius: 3px;\n    cursor: pointer;\n    color: #ffffff;\n    font-size: 0.9rem;\n    font-weight: bold;\n    margin: 0 auto;\n    margin-top: 21px;\n  }\n\n  ","\n"])),Dg.a.lessThan("medium")(wUn||(wUn=Object(s.a)(["\n    width: calc(100% - 2rem);\n    margin: 0 auto 2rem;\n  "])))),SUn=()=>{var e;const n=Object(m.o)().id,t=Number(n),{user:i,permissionCheck:a}=kg();return Number.isNaN(t)?wZ:t===(null===(e=i.lmsUser)||void 0===e?void 0:e.id)&&a(Rh,fg)?x0:Object(g.jsx)(IUn,{userID:t})},IUn=e=>{var n,t,i,a,r;const c="\u63d0\u51fa\u7269 | ".concat(A),{queries:s}=Gie(),o=(null===s||void 0===s?void 0:s.page)?Number(s.page):1,{data:l,loading:d}=gA({variables:{id:e.userID}}),{user:b,permissionCheck:m}=kg(),j=m(Rh,fg),u={sortKey:ks.CreatedAt,page:o,limit:uP},h={userID:e.userID,...u},{data:p,loading:O}=mm({variables:{input:e.userID===(null===(n=b.lmsUser)||void 0===n?void 0:n.id)?{type:Vs.Mine,...u}:{type:Vs.All,...h}},skip:j}),{data:x,loading:f}=um({variables:{input:{type:js.All,...h}},skip:!j}),v=null!==(t=null!==(i=null===p||void 0===p?void 0:p.getPracticeSubmits.items)&&void 0!==i?i:null===x||void 0===x?void 0:x.getPracticeSubmitsForInstructor.items)&&void 0!==t?t:[],w=null!==(a=null!==(r=null===p||void 0===p?void 0:p.getPracticeSubmits.total)&&void 0!==r?r:null===x||void 0===x?void 0:x.getPracticeSubmitsForInstructor.total)&&void 0!==a?a:0;return d?Object(g.jsx)(oP,{display:!0}):l&&l.user?Object(g.jsxs)(rPn,{activeTab:"practice_submits",user:l.user,metaTitle:c,children:[Object(g.jsx)(oP,{display:O||f}),Object(g.jsx)(P4,{children:0!==v.length?Object(g.jsx)(dOe,{practiceSubmits:v,total:w}):Object(g.jsx)(Y4,{title:"\u63d0\u51fa\u3055\u308c\u305f\u8ab2\u984c\u306f\u3042\u308a\u307e\u305b\u3093"})})]}):wZ},TUn=()=>{var e,n,t,a,r,c;const s="\u8acb\u6c42\u60c5\u5831 | ".concat(A),{user:o}=kg(),{data:l,loading:d,refetch:b}=function(e){const n={...Yc,...e};return qc.b(Jj,n)}({variables:{input:{teamID:null!==(e=o.teamID)&&void 0!==e?e:"",limit:uP}},skip:!o.teamID,notifyOnNetworkStatusChange:!0}),m=null!==(n=null===l||void 0===l?void 0:l.teamInvoices.items)&&void 0!==n?n:[],j=null!==(t=null===l||void 0===l?void 0:l.teamInvoices.nextCursor)&&void 0!==t?t:"",u=null!==(a=null===l||void 0===l?void 0:l.teamInvoices.previousCursor)&&void 0!==a?a:"",h=null!==(r=null===l||void 0===l?void 0:l.teamInvoices.hasPrevious)&&void 0!==r&&r,p=null!==(c=null===l||void 0===l?void 0:l.teamInvoices.hasNext)&&void 0!==c&&c,O=Object(i.useCallback)((async()=>{var e;b({input:{teamID:null!==(e=o.teamID)&&void 0!==e?e:"",nextCursor:j,limit:uP}})}),[b,o.teamID,j]),x=Object(i.useCallback)((async()=>{var e;b({input:{teamID:null!==(e=o.teamID)&&void 0!==e?e:"",previousCursor:u,limit:uP}})}),[b,o.teamID,u]);return Object(g.jsxs)(g.Fragment,{children:[Object(g.jsx)(oP,{display:d}),Object(g.jsx)(gpn,{activeTab:"invoice",metaTitle:s,children:!d&&Object(g.jsx)(v0e,{invoices:m,hasPrevious:h,hasNext:p,fetchNextInvoices:O,fetchPreviousInvoices:x})})]})},DUn=e=>e.permission?e.element:x0,EUn=e=>{switch(!0){case e.permissionCheck(ph,fg):return Object(g.jsx)(ann,{});case e.permissionCheck(gh,fg):return Object(g.jsx)(bNe,{});case e.permissionCheck(Oh,fg):return Object(g.jsx)(ajn,{});case e.permissionCheck(xh,fg):return Object(g.jsx)($un,{});default:return x0}},RUn=e=>{switch(!0){case e.permissionCheck(cp,fg):return Object(g.jsx)(Lrn,{});case e.permissionCheck(sp,fg):return Object(g.jsx)(gqe,{});default:return x0}},MUn=e=>{switch(!0){case e.permissionCheck(op,fg):return Object(g.jsx)(uon,{});case e.permissionCheck(lp,fg)&&e.hasCoaching:return Object(g.jsx)(Wqe,{});default:return x0}},zUn=e=>{switch(!0){case e.permissionCheck(dp,fg):return Object(g.jsx)(Ldn,{});case e.permissionCheck(bp,fg):return Object(g.jsx)(K9e,{});default:return x0}},BUn=()=>{const{refresh:e,isRoleConfirmed:n,isSocialLoginUser:t,hasCoaching:i,permissionCheck:r}=kg();return tq((()=>{window.scrollTo(0,0),e()})),a.a.useEffect((()=>{e()}),[n]),n?Object(g.jsxs)(m.d,{children:[Object(g.jsx)(m.b,{path:"/",element:Object(g.jsx)(Zz,{})}),Object(g.jsx)(m.b,{path:"/lp",element:Object(g.jsx)(m.a,{replace:!0,to:"/"})}),Object(g.jsx)(m.b,{path:"/adlp",element:Object(g.jsx)(m.a,{replace:!0,to:"/"})}),Object(g.jsx)(m.b,{path:"/adlp2",element:Object(g.jsx)(m.a,{replace:!0,to:"/"})}),Object(g.jsx)(m.b,{path:"/techlp",element:Object(g.jsx)(m.a,{replace:!0,to:"/"})}),Object(g.jsx)(m.b,{path:"/login",element:Object(g.jsx)(m.a,{to:"/",replace:!0})}),Object(g.jsx)(m.b,{path:"/changePassword",element:Object(g.jsx)(jB,{})}),Object(g.jsx)(m.b,{path:"/changeTemporaryPassword",element:Object(g.jsx)(wB,{})}),Object(g.jsx)(m.b,{path:"/changePasswordVerification",element:Object(g.jsx)(RB,{})}),Object(g.jsx)(m.b,{path:"/register",element:Object(g.jsx)(_J,{})}),Object(g.jsx)(m.b,{path:"/registered",element:Object(g.jsx)(u4,{})}),Object(g.jsx)(m.b,{path:"/account/subscription/registered",element:Object(g.jsx)(a2,{})}),Object(g.jsx)(m.b,{path:"/team/registered",element:Object(g.jsx)(a2,{})}),Object(g.jsx)(m.b,{path:"/team_member/registered",element:Object(g.jsx)(a2,{})}),Object(g.jsx)(m.b,{path:"/team/register/creation",element:Object(g.jsx)(j$,{})}),Object(g.jsx)(m.b,{path:"/team/register/company",element:Object(g.jsx)(j$,{})}),Object(g.jsx)(m.b,{path:"/team/register/subscription",element:Object(g.jsx)(j$,{})}),Object(g.jsx)(m.b,{path:"/team_member/register/creation",element:Object(g.jsx)(L$,{})}),Object(g.jsx)(m.b,{path:"/team_member/register/join",element:Object(g.jsx)(f0,{})}),Object(g.jsx)(m.b,{path:"/login/oauth/callback",element:Object(g.jsx)(Jz,{})}),Object(g.jsx)(m.b,{path:"/home",element:Object(g.jsx)(EUn,{permissionCheck:r})}),Object(g.jsx)(m.b,{path:"/search",element:Object(g.jsx)(jae,{})}),Object(g.jsx)(m.b,{path:"/programs",element:Object(g.jsx)(Vje,{})}),Object(g.jsx)(m.b,{path:"/programs/:id/chapters",element:Object(g.jsx)(QOe,{})}),Object(g.jsx)(m.b,{path:"/programs/:id/questions",element:Object(g.jsx)(QOe,{})}),Object(g.jsx)(m.b,{path:"/programs/:id/overview",element:Object(g.jsx)(QOe,{})}),Object(g.jsx)(m.b,{path:"/programs/:id/practice_submits",element:Object(g.jsx)(QOe,{})}),Object(g.jsx)(m.b,{path:"/programs/:program_id/chapters/:chapter_id/exam",element:Object(g.jsx)(YNn,{})}),Object(g.jsx)(m.b,{path:"/programs/:program_id/chapters/:chapter_id",element:Object(g.jsx)(dCe,{})}),Object(g.jsx)(m.b,{path:"/programs/:program_id/chapters/:chapter_id/questions",element:Object(g.jsx)(dCe,{})}),Object(g.jsx)(m.b,{path:"/programs/:program_id/chapters/:chapter_id/list",element:Object(g.jsx)(dCe,{})}),Object(g.jsx)(m.b,{path:"/programs/category/:category_id",element:Object(g.jsx)(Vje,{})}),Object(g.jsx)(m.b,{path:"/programs_while_studying",element:Object(g.jsx)(nue,{})}),Object(g.jsx)(m.b,{path:"/programs_completed_study",element:Object(g.jsx)(mue,{})}),Object(g.jsx)(m.b,{path:"/course_programs/:course_program_id",element:Object(g.jsx)(gke,{})}),Object(g.jsx)(m.b,{path:"/programs/sample",element:Object(g.jsx)(Yke,{})}),Object(g.jsx)(m.b,{path:"/programs/:program_id/chapters/:chapter_id/feedback",element:Object(g.jsx)(DUn,{permission:r(Eh,vg),element:Object(g.jsx)(mxe,{})})}),Object(g.jsx)(m.b,{path:"/practices",element:Object(g.jsx)(rIe,{})}),Object(g.jsx)(m.b,{path:"/practices/category/:category_id",element:Object(g.jsx)(rIe,{})}),Object(g.jsx)(m.b,{path:"/practices/submits/all",element:Object(g.jsx)(DUn,{permission:r(Rh,fg),element:Object(g.jsx)(hIe,{})})}),Object(g.jsx)(m.b,{path:"/practices/submits/my_students",element:Object(g.jsx)(DUn,{permission:r(Rh,fg),element:Object(g.jsx)(hIe,{})})}),Object(g.jsx)(m.b,{path:"/practices/submits/reviewed",element:Object(g.jsx)(DUn,{permission:r(Rh,fg),element:Object(g.jsx)(hIe,{})})}),Object(g.jsx)(m.b,{path:"/practices/submits/mine",element:Object(g.jsx)(DUn,{permission:!r(Rh,fg),element:Object(g.jsx)(hIe,{})})}),Object(g.jsx)(m.b,{path:"/practices/submits/everyone",element:Object(g.jsx)(DUn,{permission:!r(Rh,fg),element:Object(g.jsx)(hIe,{})})}),Object(g.jsx)(m.b,{path:"/practices/submits/my_draft",element:Object(g.jsx)(DUn,{permission:!r(Rh,fg),element:Object(g.jsx)(hIe,{})})}),Object(g.jsx)(m.b,{path:"/practices/submits/:practice_submit_id",element:Object(g.jsx)(PTe,{})}),Object(g.jsx)(m.b,{path:"/practices/submits/:practice_submit_id/details/new",element:Object(g.jsx)(DUn,{permission:r(Mh,vg),element:Object(g.jsx)(HEe,{})})}),Object(g.jsx)(m.b,{path:"/practices/submits/:practice_submit_id/details/:practice_submit_detail_id/edit",element:Object(g.jsx)(DUn,{permission:r(Mh,wg),element:Object(g.jsx)(_Ee,{})})}),Object(g.jsx)(m.b,{path:"/practices/:practice_id/body",element:Object(g.jsx)(tTe,{})}),Object(g.jsx)(m.b,{path:"/practices/:practice_id/list",element:Object(g.jsx)(tTe,{})}),Object(g.jsx)(m.b,{path:"/practices/:practice_id/questions",element:Object(g.jsx)(tTe,{})}),Object(g.jsx)(m.b,{path:"/practices/:practice_id/submits",element:Object(g.jsx)(tTe,{})}),Object(g.jsx)(m.b,{path:"/practices/:practice_id/submits/new",element:Object(g.jsx)(DUn,{permission:r(Mh,vg),element:Object(g.jsx)(qEe,{})})}),Object(g.jsx)(m.b,{path:"/practices/:practice_id/explanation",element:Object(g.jsx)(CTe,{})}),Object(g.jsx)(m.b,{path:"/practices/:practice_id/feedback",element:Object(g.jsx)(DUn,{permission:r(zh,vg),element:Object(g.jsx)(cDe,{})})}),Object(g.jsx)(m.b,{path:"/questions/all",element:Object(g.jsx)(sce,{})}),Object(g.jsx)(m.b,{path:"/questions/my",element:Object(g.jsx)(DUn,{permission:r(Uh,fg)||r(Fh,fg),element:Object(g.jsx)(sce,{})})}),Object(g.jsx)(m.b,{path:"/questions/answered",element:Object(g.jsx)(DUn,{permission:r(Uh,fg)||r(Fh,fg),element:Object(g.jsx)(sce,{})})}),Object(g.jsx)(m.b,{path:"/questions/draft",element:Object(g.jsx)(DUn,{permission:r(Fh,wg),element:Object(g.jsx)(sce,{})})}),Object(g.jsx)(m.b,{path:"/question/detail/:id",element:Object(g.jsx)(Jbe,{})}),Object(g.jsx)(m.b,{path:"/question/new",element:Object(g.jsx)(DUn,{permission:r(Fh,vg),element:Object(g.jsx)($4e,{})})}),Object(g.jsx)(m.b,{path:"/question/edit/:id",element:Object(g.jsx)(DUn,{permission:r(Fh,wg),element:Object(g.jsx)(e7e,{})})}),Object(g.jsx)(m.b,{path:"/study_report/my",element:Object(g.jsx)(DUn,{permission:!r(Kh,fg),element:Object(g.jsx)(gee,{})})}),Object(g.jsx)(m.b,{path:"/study_report/all",element:Object(g.jsx)(gee,{})}),Object(g.jsx)(m.b,{path:"/study_report/detail/:id",element:Object(g.jsx)(j7e,{})}),Object(g.jsx)(m.b,{path:"/study_report/new",element:Object(g.jsx)(DUn,{permission:r(Zh,vg),element:Object(g.jsx)(t3e,{})})}),Object(g.jsx)(m.b,{path:"/study_report/edit/:id",element:Object(g.jsx)(DUn,{permission:r(Zh,wg),element:Object(g.jsx)(D3e,{})})}),Object(g.jsx)(m.b,{path:"/timeline",element:Object(g.jsx)(GIn,{})}),Object(g.jsx)(m.b,{path:"/curriculum",element:Object(g.jsx)(DUn,{permission:r(ap,fg),element:Object(g.jsx)(_Fe,{})})}),Object(g.jsx)(m.b,{path:"/courses",element:Object(g.jsx)(DUn,{permission:r(rp,fg),element:Object(g.jsx)(Non,{})})}),Object(g.jsx)(m.b,{path:"/courses/:id",element:Object(g.jsx)(DUn,{permission:r(rp,fg),element:Object(g.jsx)(fln,{})})}),Object(g.jsx)(m.b,{path:"/lessons",element:Object(g.jsx)(RUn,{permissionCheck:r})}),Object(g.jsx)(m.b,{path:"/lessons/:course_id",element:Object(g.jsx)(DUn,{permission:r(cp,fg),element:Object(g.jsx)(Lrn,{})})}),Object(g.jsx)(m.b,{path:"/sessions",element:Object(g.jsx)(MUn,{permissionCheck:r,hasCoaching:i()})}),Object(g.jsx)(m.b,{path:"/sessions/:course_id",element:Object(g.jsx)(DUn,{permission:r(op,fg),element:Object(g.jsx)(uon,{})})}),Object(g.jsx)(m.b,{path:"/spot_lessons",element:Object(g.jsx)(zUn,{permissionCheck:r})}),Object(g.jsx)(m.b,{path:"/spot_lessons/reserve",element:Object(g.jsx)(DUn,{permission:r(mp,vg),element:Object(g.jsx)(SVn,{})})}),Object(g.jsx)(m.b,{path:"/spot_lessons/schedule",element:Object(g.jsx)(DUn,{permission:r(Ap,fg),element:Object(g.jsx)(Dmn,{})})}),Object(g.jsx)(m.b,{path:"/chat",element:Object(g.jsx)(DUn,{permission:r(hp,fg),element:Object(g.jsx)(ZFe,{})})}),Object(g.jsx)(m.b,{path:"/users/:id/profile",element:Object(g.jsx)(_Pn,{})}),Object(g.jsx)(m.b,{path:"/users/:id/programs",element:Object(g.jsx)(lUn,{})}),Object(g.jsx)(m.b,{path:"/users/:id/timelines",element:Object(g.jsx)(pUn,{})}),Object(g.jsx)(m.b,{path:"/users/:id/questions",element:Object(g.jsx)(CUn,{})}),Object(g.jsx)(m.b,{path:"/users/:id/practice_submits",element:Object(g.jsx)(SUn,{})}),Object(g.jsx)(m.b,{path:"/account/profile",element:Object(g.jsx)(DUn,{permission:r(gp,fg),element:Object(g.jsx)(HHe,{})})}),Object(g.jsx)(m.b,{path:"/account/mail",element:Object(g.jsx)(DUn,{permission:r(Ep,wg),element:Object(g.jsx)(EQe,{})})}),Object(g.jsx)(m.b,{path:"/account/password",element:Object(g.jsx)(DUn,{permission:r(Np,wg)&&!t(),element:Object(g.jsx)(kGe,{})})}),Object(g.jsx)(m.b,{path:"/account/subscription",element:Object(g.jsx)(DUn,{permission:r(Cp,fg),element:Object(g.jsx)(ZZe,{})})}),Object(g.jsx)(m.b,{path:"/account/invoice",element:Object(g.jsx)(DUn,{permission:r(Ip,fg),element:Object(g.jsx)(P0e,{})})}),Object(g.jsx)(m.b,{path:"/account/payment_intent",element:Object(g.jsx)(DUn,{permission:r(Tp,fg),element:Object(g.jsx)(O1e,{})})}),Object(g.jsx)(m.b,{path:"/account/payment",element:Object(g.jsx)(DUn,{permission:r(Dp,fg),element:Object(g.jsx)(Y5e,{})})}),Object(g.jsx)(m.b,{path:"/account/alignment",element:Object(g.jsx)(DUn,{permission:r(Pp,fg),element:Object(g.jsx)(hGe,{})})}),Object(g.jsx)(m.b,{path:"/account/course",element:Object(g.jsx)(DUn,{permission:r(wp,fg),element:Object(g.jsx)(PGe,{})})}),Object(g.jsx)(m.b,{path:"/account/subscription/lp",element:Object(g.jsx)(DUn,{permission:r(kp,fg),element:Object(g.jsx)(lBn,{})})}),Object(g.jsx)(m.b,{path:"/account/subscription/payment",element:Object(g.jsx)(DUn,{permission:r(Cp,vg),element:Object(g.jsx)(wLn,{})})}),Object(g.jsx)(m.b,{path:"/account/cancel",element:Object(g.jsx)(DUn,{permission:r(vp,Cg),element:Object(g.jsx)(pAn,{})})}),Object(g.jsx)(m.b,{path:"/account/subscription/select",element:Object(g.jsx)(DUn,{permission:r(yp,fg),element:Object(g.jsx)(rXe,{})})}),Object(g.jsx)(m.b,{path:"/account/subscription/select/submit/:price_id",element:Object(g.jsx)(DUn,{permission:r(yp,fg),element:Object(g.jsx)(h_e,{})})}),Object(g.jsx)(m.b,{path:"/account/subscription/confirm",element:Object(g.jsx)(DUn,{permission:r(yp,fg),element:Object(g.jsx)(b$e,{})})}),Object(g.jsx)(m.b,{path:"/claim",element:Object(g.jsx)(DUn,{permission:r(Up,fg),element:Object(g.jsx)(oin,{})})}),Object(g.jsx)(m.b,{path:"/notification/notification",element:Object(g.jsx)(DUn,{permission:r(Fp,fg),element:Object(g.jsx)(EY,{})})}),Object(g.jsx)(m.b,{path:"/notification/admin",element:Object(g.jsx)(DUn,{permission:r(Fp,fg),element:Object(g.jsx)(ZY,{})})}),Object(g.jsx)(m.b,{path:"/notification/admin/:id",element:Object(g.jsx)(DUn,{permission:r(Fp,fg),element:Object(g.jsx)(DZ,{})})}),Object(g.jsx)(m.b,{path:"/event",element:Object(g.jsx)(uhn,{})}),Object(g.jsx)(m.b,{path:"/tweets/:id",element:Object(g.jsx)(JLn,{})}),Object(g.jsx)(m.b,{path:"/team",element:Object(g.jsx)(DUn,{permission:r(Gp,fg),element:Object(g.jsx)(opn,{})})}),Object(g.jsx)(m.b,{path:"/team/auth",element:Object(g.jsx)(DUn,{permission:r(Yp,fg),element:Object(g.jsx)(Zfn,{})})}),Object(g.jsx)(m.b,{path:"/team/invoice",element:Object(g.jsx)(DUn,{permission:r(Xp,fg),element:Object(g.jsx)(TUn,{})})}),Object(g.jsx)(m.b,{path:"/team/profile",element:Object(g.jsx)(DUn,{permission:r(Jp,fg),element:Object(g.jsx)(Lvn,{})})}),Object(g.jsx)(m.b,{path:"/team/payment",element:Object(g.jsx)(DUn,{permission:r(_p,fg),element:Object(g.jsx)(Swn,{})})}),Object(g.jsx)(m.b,{path:"/team/subscription",element:Object(g.jsx)(DUn,{permission:r(Wp,fg),element:Object(g.jsx)(Ugn,{})})}),Object(g.jsx)(m.b,{path:"/team/subscription/payment",element:Object(g.jsx)(DUn,{permission:r(Wp,vg),element:Object(g.jsx)(QOn,{})})}),Object(g.jsx)(m.b,{path:"*",element:wZ})]}):Object(g.jsx)(oP,{display:!0})};var LUn,NUn=t(442);var PUn,UUn,FUn,qUn,QUn,HUn,GUn,YUn,KUn,ZUn=Object(ne.a)(LUn||(LUn=Object(s.a)(["\n  html,\n  body,\n  div,\n  span,\n  applet,\n  object,\n  iframe,\n  h1,\n  h2,\n  h3,\n  h4,\n  h5,\n  h6,\n  p,\n  blockquote,\n  pre,\n  a,\n  abbr,\n  acronym,\n  address,\n  big,\n  cite,\n  code,\n  del,\n  dfn,\n  rem,\n  img,\n  ins,\n  kbd,\n  q,\n  s,\n  samp,\n  small,\n  strike,\n  strong,\n  sub,\n  sup,\n  tt,\n  var,\n  b,\n  u,\n  i,\n  center,\n  dl,\n  dt,\n  dd,\n  ol,\n  ul,\n  li,\n  fieldset,\n  form,\n  label,\n  legend,\n  table,\n  caption,\n  tbody,\n  tfoot,\n  thead,\n  tr,\n  th,\n  td,\n  article,\n  aside,\n  canvas,\n  details,\n  embed,\n  figure,\n  figcaption,\n  footer,\n  header,\n  hgroup,\n  menu,\n  nav,\n  output,\n  ruby,\n  section,\n  summary,\n  time,\n  mark,\n  audio,\n  video {\n    margin: 0;\n    padding: 0;\n    border: 0;\n    font: inherit;\n    font-size: 16px;\n    vertical-align: baseline;\n  }\n\n  html {\n    line-height: 1;\n  }\n\n  ol,\n  ul {\n    list-style: none;\n  }\n\n  table {\n    border-collapse: collapse;\n    border-spacing: 0;\n  }\n\n  caption,\n  th,\n  td {\n    text-align: left;\n    font-weight: normal;\n    vertical-align: middle;\n  }\n\n  q,\n  blockquote {\n    quotes: none;\n  }\n\n  q:before,\n  q:after,\n  blockquote:before,\n  blockquote:after {\n    content: '';\n    content: none;\n  }\n\n  a img {\n    border: none;\n  }\n\n  article,\n  aside,\n  details,\n  figcaption,\n  figure,\n  footer,\n  header,\n  hgroup,\n  main,\n  menu,\n  nav,\n  section,\n  summary {\n    display: block;\n  }\n\n  html {\n    font-family: -apple-system, BlinkMacSystemFont, 'Helvetica Neue', 'Yu Gothic', YuGothic,\n      Verdana, Meiryo, 'M+ 1p', sans-serif;\n    color: rgba(0, 0, 0, 0.87);\n  }\n\n  body {\n    width: 100%;\n    height: 100%;\n  }\n\n  a {\n    color: inherit;\n    text-decoration: none;\n  }\n\n  .react-datepicker-wrapper .input {\n    height: 40px;\n    font-size: 15px;\n  }\n\n  .datepicker-date {\n    width: 185px;\n  }\n\n  .datepicker-start-time,\n  .datepocker-end-time {\n    width: 100px;\n  }\n"]))),JUn=t(816);const WUn=ne.c.header(PUn||(PUn=Object(s.a)(["\n  display: flex;\n  width: 100%;\n  height: 67px;\n  align-items: center;\n  background-color: #ffffff;\n  border-bottom: 1px solid rgba(0, 0, 0, 0.1);\n  padding: 0 2rem;\n  box-sizing: border-box;\n\n  img {\n    height: 1.5rem;\n  }\n\n  ","\n"])),Dg.a.lessThan("medium")(UUn||(UUn=Object(s.a)(["\n    padding: 0 1rem;\n  "])))),XUn=ne.c.main(FUn||(FUn=Object(s.a)(["\n  box-sizing: border-box;\n  padding: 32px 180px;\n\n  ","\n\n  h2 {\n    font-size: 20px;\n    color: rgba(0, 0, 0, 0.87);\n    font-weight: 600;\n  }\n"])),Dg.a.lessThan("medium")(qUn||(qUn=Object(s.a)(["\n    padding: 32px;\n  "])))),_Un=ne.c.section(QUn||(QUn=Object(s.a)(["\n  margin: 0 auto;\n  padding: 2rem;\n  background-color: #ffffff;\n  border: 1px solid rgba(0, 0, 0, 0.1);\n  text-align: center;\n\n  p {\n    margin-top: 1rem;\n    line-height: 1.3;\n  }\n"]))),$Un=ne.c.h3(HUn||(HUn=Object(s.a)(["\n  display: block;\n  font-size: 8rem;\n  font-weight: bold;\n  color: #e2001b;\n  text-align: center;\n"]))),eFn=ne.c.h4(GUn||(GUn=Object(s.a)(["\n  display: block;\n  font-size: 2rem;\n  font-weight: bold;\n  color: rgba(0, 0, 0, 0.36);\n  text-align: center;\n"]))),nFn=ne.c.div(YUn||(YUn=Object(s.a)(["\n  display: flex;\n  justify-content: center;\n  margin-top: 1.5rem;\n"]))),tFn=ne.c.div(KUn||(KUn=Object(s.a)(["\n  width: 600px;\n  align-text: center;\n"]))),iFn=Object(g.jsxs)(a.a.Fragment,{children:[Object(g.jsx)(ZUn,{}),Object(g.jsx)(WUn,{children:Object(g.jsx)("img",{src:zg,alt:"Samurai"})}),Object(g.jsx)(XUn,{children:Object(g.jsxs)(_Un,{children:[Object(g.jsx)($Un,{children:"503"}),Object(g.jsx)(eFn,{children:"Maintenance"}),Object(g.jsxs)("p",{children:["\u7533\u3057\u8a33\u3054\u3056\u3044\u307e\u305b\u3093\u304c\u3001\u73fe\u5728\u5bfe\u8c61\u30da\u30fc\u30b8\u306f\u30e1\u30f3\u30c6\u30ca\u30f3\u30b9\u4e2d\u306e\u305f\u3081\u30a2\u30af\u30bb\u30b9\u3067\u304d\u307e\u305b\u3093\u3002",Object(g.jsx)("br",{}),"\u6642\u9593\u3092\u7f6e\u3044\u305f\u306e\u3061\u3001\u518d\u5ea6\u30a2\u30af\u30bb\u30b9\u304a\u9858\u3044\u3057\u307e\u3059\u3002",Object(g.jsx)("br",{})]}),Object(g.jsx)(nFn,{children:Object(g.jsx)(tFn,{children:Object(g.jsx)(JUn.a,{dataSource:{sourceType:"profile",screenName:"samuraijuku"},options:{height:"400"}})})})]})})]}),aFn=()=>iFn;const rFn=()=>Object(pJ.j)(Lg.c("1"),Lg.b((()=>!1),(e=>"1"===e))),cFn=()=>{const e=a.a.useContext(x),n=[{"@context":"https://schema.org","@type":"Organization",name:"\u682a\u5f0f\u4f1a\u793eSAMURAI",founder:"\u9ad8\u6bd4\u826f \u76f4\u4eba",foundingDate:"March,2015",description:"\u682a\u5f0f\u4f1a\u793eSAMURAI\u306f\u3001IT\u6559\u80b2\u3067\u4e16\u754c\u5e73\u548c\u3092\u5b9f\u73fe\u3059\u308b\u4f1a\u793e\u3067\u3059\u3002 \u79c1\u305f\u3061\u306e\u4f7f\u547d\u306f\u3001SDGs\u306e5\u3064\u306e\u554f\u984c\u3092\u89e3\u6c7a\u3059\u308b\u305f\u3081\u306b\u4e8b\u696d\u3092\u904b\u55b6\u3057\u3001\u8ca7\u56f0\u3084\u4e0d\u5e73\u7b49\u3092\u7121\u304f\u3057\u3066\u793e\u4f1a\u3092\u3059\u3053\u3057\u305a\u3064\u512a\u3057\u304f\u3057\u3066\u3044\u304f\u3053\u3068\u3067\u3059\u3002  \u751f\u7523\u7684\u3067\u50cd\u304d\u304c\u3044\u306e\u3042\u308b\u96c7\u7528\u3092\u751f\u307f\u51fa\u3059\u305f\u3081\u306b\u306f\u3001\u79c1\u305f\u3061\u306e\u7d44\u7e54\u3082\u751f\u7523\u7684\u3067\u50cd\u304d\u304c\u3044\u306e\u3042\u308b\u4f01\u696d\u3068\u306a\u308b\u5fc5\u8981\u304c\u3042\u308b\u3068\u8003\u3048\u3066\u3044\u307e\u3059\u3002",url:"https://www.sejuku.net/corp/",logo:"https://www.sejuku.net/corp/wp-content/themes/corp/assets/images/logo.svg",telephone:"03-5790-9039",address:{"@type":"PostalAddress",addressLocality:"\u5343\u4ee3\u7530\u533a\u795e\u7530\u7df4\u5840\u753a",addressRegion:"\u6771\u4eac\u90fd",postalCode:"101-0022",streetAddress:"300\u756a\u5730\u3000\u4f4f\u53cb\u4e0d\u52d5\u7523\u79cb\u8449\u539f\u99c5\u524d\u30d3\u30eb5F",addressCountry:"JP"},contactPoint:[{"@type":"ContactPoint",telephone:"03-5790-9039",contactType:"CustomerSupport"}],sameAs:"https://www.sejuku.net/"},{"@context":"http://schema.org","@type":"website",name:"".concat(h),inLanguage:"jp",publisher:{"@type":"Organization",name:"\u682a\u5f0f\u4f1a\u793eSAMURAI",logo:{"@type":"ImageObject",url:"https://terakoya.sejuku.net/static/media/logo.efe3ff53.svg"}},headline:u,description:p,url:"https://terakoya.sejuku.net/"},{"@context":"https://schema.org","@type":"SiteNavigationElement",hasPart:[{"@type":"WebPage",name:"\u30c8\u30c3\u30d7",url:"https://terakoya.sejuku.net/"},{"@type":"CollectionPage",name:"\u30b5\u30fc\u30d3\u30b9\u306e\u7279\u5fb4",url:"https://terakoya.sejuku.net/#feature"},{"@type":"CollectionPage",name:"\u3054\u5229\u7528\u306e\u6d41\u308c",url:"https://terakoya.sejuku.net/#flow"},{"@type":"CollectionPage",name:"\u6599\u91d1\u30d7\u30e9\u30f3",url:"https://terakoya.sejuku.net/#plan"},{"@type":"CollectionPage",name:"\u4ed6\u793e\u30b5\u30fc\u30d3\u30b9\u3068\u306e\u6bd4\u8f03",url:"https://terakoya.sejuku.net/#deal"},{"@type":"ContactPage",name:"\u304a\u5ba2\u69d8\u306e\u58f0",url:"https://terakoya.sejuku.net/#voice"}]},{"@context":"http://schema.org","@type":"FAQPage",description:"\u30b5\u30fc\u30d3\u30b9\u306b\u95a2\u3059\u308b\u8cea\u554f\u3092\u307e\u3068\u3081\u3066\u3044\u307e\u3059\u3002",mainEntity:[{"@type":"Question",name:"\u30de\u30f3\u30c4\u30fc\u30de\u30f3\u306e\u30ec\u30c3\u30b9\u30f3\u306f\u3042\u308a\u307e\u3059\u304b\uff1f",acceptedAnswer:{"@type":"Answer",text:"\u30ec\u30c3\u30b9\u30f3\u30c1\u30b1\u30c3\u30c8\u3092\u5229\u7528\u3057\u30011\u56de60\u5206\u306e\u30de\u30f3\u30c4\u30fc\u30de\u30f3\u306e\u30ec\u30c3\u30b9\u30f3\u3092\u53d7\u8b1b\u3059\u308b\u3053\u3068\u304c\u3067\u304d\u307e\u3059\u3002",url:"https://terakoya.sejuku.net/#faq"}},{"@type":"Question",name:"\u8cea\u554f\u306e\u53d7\u4ed8\u6642\u9593\u306f\u4f55\u6642\u304b\u3089\u4f55\u6642\u3067\u3059\u304b\uff1f",acceptedAnswer:{"@type":"Answer",text:"24\u6642\u9593\u3044\u3064\u3067\u3082\u304a\u53d7\u3051\u3057\u3066\u304a\u308a\u307e\u3059\u3002 \u55b6\u696d\u6642\u9593\uff0810\u6642\u301c22\u6642\uff09\u5916\u306e\u8cea\u554f\u306f\u3001\u7fcc\u55b6\u696d\u65e5\u306b\u56de\u7b54\u3055\u305b\u3066\u3044\u305f\u3060\u304d\u307e\u3059\u3002",url:"https://terakoya.sejuku.net/#faq"}},{"@type":"Question",name:"Q&A\u63b2\u793a\u677f\u3067\u306f\u6280\u8853\u7684\u306a\u8cea\u554f\u4ee5\u5916\u3082\u8cea\u554f\u3067\u304d\u307e\u3059\u304b\uff1f",acceptedAnswer:{"@type":"Answer",text:"\u306f\u3044\u3002\u8cea\u554f\u53ef\u80fd\u3067\u3059\u3002 \u4f8b\u3048\u3070\u3001\u300c\u5b66\u7fd2\u3092\u52b9\u7387\u7684\u306b\u9032\u3081\u308b\u306b\u306f\u3069\u3046\u3057\u305f\u3089\u3044\u3044\u3067\u3059\u304b\uff1f\u300d\u3068\u3044\u3063\u305f\u3001\u62bd\u8c61\u7684\u306a\u8cea\u554f\u306b\u3082\u3001\u73fe\u5f79\u30a8\u30f3\u30b8\u30cb\u30a2\u304c\u56de\u7b54\u81f4\u3057\u307e\u3059\u3002",url:"https://terakoya.sejuku.net/#faq"}}]}];return Object(g.jsx)(Sg.a,{title:e.title,meta:e.meta,children:Object(g.jsx)("script",{type:"application/ld+json",children:JSON.stringify(n)})})};function sFn(){const e=Object(m.k)(),n=Object(m.m)(),[t,{data:a}]=function(e){const n={...Yc,...e};return Qc.a(Ld,n)}({fetchPolicy:"cache-first"}),r=Object(i.useMemo)((()=>{var e;return null!==(e=null===a||void 0===a?void 0:a.abTestDeliveries)&&void 0!==e?e:[]}),[null===a||void 0===a?void 0:a.abTestDeliveries]);return Object(i.useEffect)((()=>{t();const e=new Date,i=r.find((n=>{return t=new URL(window.location.href),new URL(n.originURL).toString()===t.origin+t.pathname&&function(e,n){const t=new Date(n.startDate),i=new Date(n.endDate);if(i.getTime()<t.getTime())throw new Error("endDate(".concat(i,")\u304cstartDate(").concat(t,")\u3088\u308a\u524d\u306b\u306a\u3063\u3066\u3044\u307e\u3059\u3002"));return t.getTime()<=e.getTime()&&e.getTime()<i.getTime()}(e,n)&&function(e){const n=function(e){switch((new IP.UAParser).setUA(e).getDevice().type){case"mobile":return TP.SP;case"tablet":return TP.TB;default:return TP.PC}}(navigator.userAgent);return e.deviceType===rs.All||e.deviceType===rs.Pc&&n===TP.PC||e.deviceType===rs.Sp&&n===TP.SP}(n);var t}));if(i){const e=function(e){if(0===e.totalRate)return null;const n=function(e,n){if(n<=e)throw new Error("\u6700\u5c0f\u5024\u304c\u6700\u5927\u5024\u4ee5\u4e0a\u306b\u306a\u3063\u3066\u3044\u307e\u3059\u3002");return Math.floor(Math.random()*(n-e))+e}(0,e.totalRate);return function(e,n){if(0===e.totalRate)return null;if(n<0||e.totalRate<=n)throw new Error("targetNum(".concat(n,")\u304c0\u4ee5\u4e0atotalRate(").concat(e.totalRate,")\u672a\u6e80\u306e\u7bc4\u56f2\u5916\u306b\u306a\u3063\u3066\u3044\u307e\u3059\u3002"));let t=0;const i=e.abTestDeliveryDetails.find((e=>(t+=e.deliveryRate,n<t))),a=null===i||void 0===i?void 0:i.deliveryURL;try{return a?new URL(a):null}catch{return null}}(e,n)}(i);if(e){const t=function(e,n){const t=new URL(n),i=e.searchParams,a=t.searchParams;return i.forEach(((e,n)=>{a.delete(n)})),i.forEach(((e,n)=>{a.append(n,e)})),t}(new URL(window.location.href),e);window.location.host===t.host?n(t.pathname+t.search):window.location.href=t.toString()}}}),[e,n,t,r]),Object(g.jsx)(g.Fragment,{})}var oFn=t(801);const lFn=({children:e})=>{const n=new oFn.RestLink({uri:"".concat("https://terakoya.sejuku.net")}),t=new P.a({link:Object(U.a)([n]),cache:new F.a});return Object(g.jsx)(q.a,{client:t,children:e})};var dFn,bFn,mFn,jFn,uFn,AFn,hFn;l.a.initialize({gtmId:"GTM-TF29MQ3",dataLayerName:"LMSDataLayer"}),K.a.configure({Auth:{region:"ap-northeast-1",userPoolId:"ap-northeast-1_F0mnLQTVn",userPoolWebClientId:"4ffbv404e26o5mehn9qr3kobkp"},oauth:{domain:"lms-sejuku.auth.ap-northeast-1.amazoncognito.com",redirectSignIn:"https://terakoya.sejuku.net/login/oauth/callback",redirectSignOut:"https://terakoya.sejuku.net/login",responseType:"code"}});const pFn=e=>Object(g.jsx)(g.Fragment,{children:e.hasMaintenance?Object(g.jsx)(aFn,{}):e.children}),gFn=e=>{const[n,t]=Object(i.useState)(!1),[r,c]=Object(i.useState)(!0);return Object(i.useEffect)((()=>{rFn()?(async()=>{c(!0);const e=Object(NUn.b)();e.settings.minimumFetchIntervalMillis=0;try{await Object(NUn.a)(e);const n=Object(NUn.c)(e,"maintenance").asBoolean();t(n)}catch(n){}finally{c(!1)}})():c(!1)}),[]),Object(g.jsxs)(a.a.Fragment,{children:[Object(g.jsx)(oP,{display:r}),!r&&Object(g.jsx)(pFn,{hasMaintenance:n,children:e.children})]})};class OFn extends a.a.Component{constructor(e){super(e),this.state={hasError:!1}}render(){return this.state.hasError?Object(g.jsxs)(a.a.Fragment,{children:[Object(g.jsx)(vFn,{children:Object(g.jsx)("img",{src:zg,alt:"Samurai"})}),Object(g.jsx)(wFn,{children:Object(g.jsxs)(CFn,{children:[Object(g.jsx)(yFn,{children:"Something went wrong."}),Object(g.jsxs)("p",{children:["\u4f55\u3089\u304b\u306e\u30a8\u30e9\u30fc\u304c\u767a\u751f\u3044\u305f\u3057\u307e\u3057\u305f\u3002",Object(g.jsx)("br",{}),"\u6642\u9593\u3092\u7a7a\u3051\u3066\u518d\u5ea6\u304a\u8a66\u3057\u304f\u3060\u3055\u3044\u3002"]}),Object(g.jsx)("p",{children:Object(g.jsx)(VFn,{href:"/",children:"TOP\u3078\u79fb\u52d5\u3059\u308b"})})]})})]}):this.props.children}}const xFn=()=>{const e=Object(Fc.a)(dFn||(dFn=Object(s.a)(['\n    query findRevision {\n      revision @rest(type: "Revision", path: "/revision.json") {\n        value\n      }\n    }\n  ']))),{data:n,previousData:t}=Object(qc.b)(e,{pollInterval:6e4,fetchPolicy:"no-cache"});return Object(i.useEffect)((()=>{n&&t&&n.revision.value!==t.revision.value&&window.location.reload()}),[n,t]),Object(g.jsx)(g.Fragment,{})};var fFn=()=>{const e=Object(Uc.b)(ih),n=a.a.useCallback((()=>{rh.a.interceptors.response.use((e=>e),(async e=>{const n=Object(Lg.c)(e.response);if(Object(Lg.f)(n)&&401!=n.value.status||e.config.isRetry)throw e;const t=(await K.a.currentSession()).getIdToken().getJwtToken();e.config.headers.Authorization="Bearer ".concat(t),rh.a.defaults.headers.common.Authorization="Bearer ".concat(t),e.config.isRetry=!0;return await rh.a.request(e.config).catch((e=>{throw new Error(e.message)}))}))}),[]);return Object(i.useEffect)((()=>{n()}),[n]),Object(g.jsx)(gFn,{children:Object(g.jsx)(OFn,{children:Object(g.jsx)(Pc.a,{store:e,children:Object(g.jsx)(d.a,{children:Object(g.jsx)(b.a,{basename:"",window:RFe,children:Object(g.jsxs)(xe,{children:[Object(g.jsx)(ZUn,{}),Object(g.jsx)(cFn,{}),Object(g.jsx)(lFn,{children:Object(g.jsx)(xFn,{})}),Object(g.jsx)(sFn,{}),Object(g.jsx)(BUn,{})]})})})})})})};const vFn=ne.c.header(bFn||(bFn=Object(s.a)(["\n  display: flex;\n  width: 100%;\n  height: 67px;\n  align-items: center;\n  background-color: #ffffff;\n  border-bottom: 1px solid rgba(0, 0, 0, 0.1);\n  padding-left: 24px;\n  box-sizing: border-box;\n"]))),wFn=ne.c.main(mFn||(mFn=Object(s.a)(["\n  box-sizing: border-box;\n  padding: 32px 180px;\n\n  ","\n  h2 {\n    font-size: 20px;\n    color: rgba(0, 0, 0, 0.87);\n    font-weight: 600;\n  }\n"])),Dg.a.lessThan("medium")(jFn||(jFn=Object(s.a)(["\n    padding: 32px;\n  "])))),CFn=ne.c.section(uFn||(uFn=Object(s.a)(["\n  margin: 0 auto;\n  padding: 2rem;\n  background-color: #ffffff;\n  border: 1px solid rgba(0, 0, 0, 0.1);\n  text-align: center;\n\n  p {\n    margin-top: 1rem;\n    line-height: 1.3;\n  }\n"]))),yFn=ne.c.h3(AFn||(AFn=Object(s.a)(["\n  display: block;\n  font-size: 8rem;\n  font-weight: bold;\n  color: #e2001b;\n  text-align: center;\n"]))),VFn=ne.c.a(hFn||(hFn=Object(s.a)(["\n  color: #e2001b;\n"])));var kFn=t(1785);Boolean("localhost"===window.location.hostname||"[::1]"===window.location.hostname||window.location.hostname.match(/^127(?:\.(?:25[0-5]|2[0-4][0-9]|[01]?[0-9][0-9]?)){3}$/));var SFn=t(206),IFn=t(814),TFn=t(812);kFn.a({dsn:"https://c0d09589f17448cc96fb428ac2da078a@o404506.ingest.sentry.io/5268558",release:"samurai-0j@d4d4af1",environment:void 0,integrations:[new TFn.a],tracesSampleRate:.1,ignoreErrors:["ResizeObserver loop limit exceeded","Network Error","FirebaseError","InvalidStateError","Remote Config: Error thrown when reading from storage","Remote Config: Fetch client failed to connect to a network","Installations: Could not process request. Application offline","\u3053\u306e\u30b5\u30fc\u30d0\u306e\u8a3c\u660e\u66f8\u306f\u7121\u52b9\u3067\u3059","Remote Config: Error thrown when opening storage","Remote Config: Error thrown when writing to storage","UnhandledRejection","Request failed with status code 401","Failed to load Stripe.js","Remote Config: Fetch server returned an HTTP error status. HTTP status: 403. (remoteconfig/fetch-status).","Installations: Firebase Installation is not registered.",'Remote Config: The config fetch request timed out.  Configure timeout using "fetchTimeoutMillis" SDK setting. (remoteconfig/fetch-timeout).',"Failed to execute 'transaction' on 'IDBDatabase': The database connection is closing.\n","Can't find variable: IntersectionObserver","The operation is insecure.","Possible side-effect in debug-evaluate","Unexpected end of input",'SecurityError: Blocked a frame with origin "https://terakoya.sejuku.net" from accessing a cross-origin frame. Protocols, domains, and ports must match.',"can't access dead object","null is not an object (evaluating 'this.h.src')","Cannot read properties of null (reading 'sessionId')","Failed to execute 'pushState' on 'History'","jf_ChgDns is not defined",VFe,"undefined is not an object (evaluating 'r[\"@context\"].toLowerCase')","\u30d1\u30b9\u30ef\u30fc\u30c9\u8a66\u884c\u56de\u6570\u304c\u8d85\u904e\u3057\u307e\u3057\u305f","A history state object with URL 'file:///C:/'","Cannot read properties of undefined (reading 'firefoxSample')","A request was aborted, for example through a call to IDBTransaction.abort.","clarity"],denyUrls:[/cdn\.nmgassets\.com/i,/best-movie100\.com/i,/cdn\.mouseflow\.com/i,/js\.intercomcdn\.com/i,/www\.youtube\.com/i,/cdn\.taboola\.com/i,/static\.karte\.io/i,/analytics\.tiktok\.com/i]}),SFn.default.configure({Auth:{mandatorySignId:!0,region:"ap-northeast-1",userPoolId:"ap-northeast-1_F0mnLQTVn",userPoolWebClientId:"4ffbv404e26o5mehn9qr3kobkp"}}),rh.a.defaults.baseURL="https://api.lms.sejuku.net";const DFn={apiKey:"AIzaSyAq2KTu9w7EHBL6yDKzKqOO8KW56bRIXs8",authDomain:"lms-production-af731.firebaseapp.com",projectId:"lms-production-af731",storageBucket:"lms-production-af731.appspot.com",messagingSenderId:"1093866784080",appId:"1:1093866784080:web:899b65fb07114838769855",measurementId:"G-DLN40S4ZLF"};rFn()&&IFn.a.initializeApp(DFn),c.a.render(Object(g.jsx)(a.a.StrictMode,{children:Object(g.jsx)(fFn,{})}),document.getElementById("root")),"serviceWorker"in navigator&&navigator.serviceWorker.ready.then((e=>{e.unregister()}))},871:function(e,n){}},[[1661,1,2]]]);